output/model_10.pth (torch, 193666 bytes, 11 tensors)

weight f4 [16, 1, 3, 3]
00000000: be2f 0e3d 613a 413e 1b0c 453e 6872 b63e
00000010: b516 6bbd 61e4 d83d 0727 0abe b7ad 813e
00000020: 2f86 813e 6676 7fbe 9e79 83be b885 33be
00000030: 86d3 1dbe 97bf 8fbe 3084 fc3d 90d1 da3c
00000040: 28ae aebe d012 d23d 53e2 6abd 1aa9 083d
00000050: 2404 7bbe bf1b b4be 6ab9 bdbd a047 a7be
00000060: 6d38 103e 38f2 99be 17a7 943d 2b46 d73e
00000070: 4972 63be 2132 7dbe 0fd6 4abd 0ebe 193f
00000080: 5728 683e db6b 7cbe 1bcf 623e c95f e9bd
00000090: b6d7 8abd dc64 debd 8b5d a9be 586e c6be
000000a0: 6cf8 7dbe 5918 253e ee78 49be b12f c73d
000000b0: 2655 c63e 3b68 8abb 7024 a03d d80f 673e
000000c0: ae48 5b3d ccd2 b93e 1ba6 053e 6c72 993e
000000d0: 5eec 8e3e e15a d93d e328 6ebe 5968 a73e
000000e0: 5f21 b03e ae7f de3d 33a0 5f3d 0e66 4fbe
000000f0: d9ff adbc 6d68 c5be 0b26 afbe 1f89 21bd
00000100: 7163 86be 15d4 7b3e 82af e3be 52da 9e3d
00000110: a790 313e 86b2 9bbe e56f 86bc db80 3e3d
00000120: a904 983e 0e9c 68be 31eb d83d db7d fe3d
00000130: 1a8a b93e 74f4 5e3e f12a 853e ea3e dbbc
00000140: 7d4e 6ebe 0bd2 7c3e 3c51 37be bb2d 02bf
00000150: 92b2 c1be 7ed6 9dbe 2968 aabe 0162 0bbf
00000160: 0ad9 07bf b1bf 15bf 186d 963e e135 853c
00000170: 82d4 5abe a759 b83e ace2 89be 7389 89be
00000180: ad37 773e ea02 453e 8d66 bf3c 264c 1a3c
00000190: 2c54 b2be f9db 1abf a0aa 863e a897 92be
000001a0: 0849 1bbf 45b4 1dbe 13eb eebd 8abc f3be
000001b0: 546d d4bd 2ffb 1cbe 07f6 89be 5194 6abe
000001c0: 2bab b4bc c70d b4bd 1a2c f03d 30c3 183d
000001d0: c043 dbbd b905 97bd 400e 653d 59cb 8f3d
000001e0: 71dc ccbd 4680 2a3e 534a 8cbe 7f93 fabd
000001f0: 2b42 7c3e 52ba 8cbe cb73 173e 2c7f f43b
00000200: 007d b3be ec34 03be 1b13 ebbd f6ab fd3d
00000210: 65ed 39be 3c93 803e acdc 763e e101 25be
00000220: b3a5 3e3e dd79 9cbd 1f31 adbe 56e0 28ba
00000230: 7a28 4abe 5470 a8be 4776 d3bd 3ea0 173e
0.0347135 0.18869926 0.19242899 0.3563416 -0.057394702 0.10590435 -0.1349145 0.25327846
0.25297686 -0.24947509 -0.25678724 -0.17531478 -0.15412721 -0.2807586 0.123299 0.026711255
-0.34117246 0.102574944 -0.057344746 0.033364393 -0.24513298 -0.3517742 -0.092638806 -0.32671833
0.14084025 -0.3006761 0.07258432 0.4204572 -0.22211565 -0.24726154 -0.04952055 0.60055625
0.22671638 -0.24650519 0.22149317 -0.11395223 -0.06779425 -0.10859081 -0.3307918 -0.3875606
-0.24801797 0.16122569 -0.19675037 0.09725893 0.38736838 -0.004223851 0.0781945 0.22564638
0.05353611 0.36293638 0.13051645 0.2997011 0.2791471 0.10613037 -0.23257785 0.32696798
0.3440046 0.10864197 0.054596137 -0.20253775 -0.021240162 -0.38556233 -0.34208712 -0.03943741
-0.26247743 0.24592622 -0.4446984 0.07756485 0.17340337 -0.3040964 -0.016410777 0.046509605
0.29691055 -0.2271578 0.10591734 0.12426349 0.36238176 0.21772939 0.26009324 -0.026763398
-0.23272128 0.246895 -0.17902082 -0.5085103 -0.3783155 -0.30827707 -0.33282593 -0.5444642
-0.5306555 -0.5849562 0.29380107 0.016261043 -0.21370128 0.360059 -0.2693075 -0.26862678
0.24142332 0.19239393 0.02336433 0.009417569 -0.34829843 -0.604919 0.26302052 -0.2863133
-0.6065831 -0.15400799 -0.116659306 -0.4760478 -0.10372415 -0.15330194 -0.26945516 -0.2290814
-0.022054275 -0.0879169 0.11727162 0.03729552 -0.10706282 -0.073741384 0.055921793 0.07021207
-0.10002983 0.16650495 -0.27400455 -0.12235164 0.24634616 -0.274859 0.14790265 0.007461449
-0.35056305 -0.12813157 -0.114782535 0.123863146 -0.18156965 0.2511233 0.24107617 -0.16113998
0.18617897 -0.07640431 -0.3382654 -0.000644212 -0.19742003 -0.328982 -0.10325294 0.14807221

bias f4 [16]
00000000: 85df 17be e7c2 b1be 5723 423e dd9e 3c3e
00000010: 9f77 af3b 654d 55be 1eb4 f73a a1e7 59bb
00000020: 3be1 0fbc b00b 083e b9cf 593c b543 b43d
00000030: 567b 223e 418e 8dbe ab39 063e 91bd 80be
-0.1483136 -0.3471901 0.18958794 0.18419977 0.005354836 -0.20830305 0.0018898284 -0.0033249634
-0.0087817265 0.13285708 0.013294154 0.088019766 0.15867361 -0.27647594 0.13107936 -0.25144628

weight f4 [32, 16, 3, 3]
00000000: 9ad7 c5bd efb9 a6bd 07ed 0cbd 63cf 17be
00000010: e3b4 e9bc afd9 56bd 6108 c1bc 8d61 a3bc
00000020: a3b8 0fbd fc8d fb3c 2a80 4d3d e017 43bb
00000030: 5660 2d3d 48ba 313c 4b5c 9f3d 1606 313d
00000040: 80d2 1d3d ac0e abbc 9a2e 2cbc b5b7 53bd
00000050: 2528 18be c5e2 b9bd 4165 40bc e1d5 013c
00000060: cbf9 92bd 5c40 13bd 6dfd 4ebd 4550 5a3d
00000070: ada3 23bd 5fb3 51bd 5474 10bc 5c33 efbd
00000080: 5b54 cebd 915f f1bd d4e1 c8bc d546 08ba
00000090: 455a b33c 9db9 303c ac79 dbbd 7049 a9bc
000000a0: 89ea a4bd 02d6 d3bd f652 17be c36f 0fbd
000000b0: 8c11 fabd 70c2 08be 94b7 e2bd 41bb 013c
000000c0: c1a5 d8bd 2ebc bebd d870 bdbd 96e4 6d3a
000000d0: f473 06be 7524 10bd 40ad ccbd 69f5 51bd
000000e0: 619e 453b 3b49 15be b169 93bc 5ecd 60bd
000000f0: da00 263d 3806 8f3c eaad a8bc 6802 e8bc
00000100: f88f dabd b02e fdbd 6266 b0bb d957 e3bd
00000110: 260b d0bd b7bb b4bc 9741 45bd 9015 b1bd
00000120: a002 aebc 1ab7 153d a5df d5bd b8dc e1bd
00000130: b4da bbbd eee8 20bd 5485 11be 9fe7 bcbd
00000140: 5780 5ebd 46b1 00be db80 d1bd 7c41 81bc
00000150: 9c24 14be 72fb 13be 40cd 8ebc 418d 81bd
00000160: 01a4 e0bd 53b4 f1bc 80d4 3ebd 0668 4ebd
00000170: a2db 3ebd cad1 5dbd badd 01be a672 1abe
00000180: 045e 87bc b8aa 9ebc d2bb c73c 89ee e4bd
00000190: a826 1fbd d266 afbb 22c9 1abe 7cd6 403d
000001a0: 28e6 51bd b905 85bd 41bb 7ebd 89b9 1c3d
000001b0: d88b 02be 116a 84bd 391d efbd e84d c7bd
000001c0: bff7 babd e437 4fbd 5c5d 02be fc7c 093c
000001d0: 45f0 10be 7f74 d73d 21ed 543d c1ef 2f3d
000001e0: e598 993d 6096 973c 8ab9 84bc e396 a23d
000001f0: 17dd 143d 18c1 3bbd ad0e d7bd 4cc4 22be
00000200: 356a babd 60bc 20be 73d4 89bd bbee 21bd
00000210: f281 95bd 6d27 c4bd eefc f5bd aa76 babc
00000220: a605 09bd e09d 0dbe 6d6c c53c e21d f73b
00000230: 456b 05bd c7a8 30bd d9db 0bbe e285 7cbc
00000240: 014b 533c 9966 86bc 263b 08be 4065 74bd
00000250: 56dd 0dbe 25c1 99bd 0bfb c73c c0bb 0bbd
00000260: fe5a 6bbc df0b babd 621d 493d ce8b 503d
00000270: 24c7 b33c d0fb c93d 5c02 00bc ca67 7f3d
00000280: e90a 813b 5d2e 953d 9bbd fabd d7b2 85bd
00000290: 84db 843b 8274 14be 006a f2bd 2475 d0bd
000002a0: e835 8cbd 4f38 e1bc 5814 07bd 6e3f f5bc
000002b0: c7e5 adbd 9eaa 08be 8754 27bb bbe8 05be
000002c0: a867 17bd 47f3 5bbd 9bc3 09be 2027 d6bc
000002d0: 0068 89bd a71a c03b 892e 9dbd a774 06be
000002e0: aab6 14bd ca12 353d bac2 d6bd 538c 45bd
000002f0: d66f 89bd bff4 e0bd 63c8 3ebd 19cf 1bbd
00000300: 1a0b 00be 2d37 86bd e6f0 9dbc 6b6c a6bc
00000310: f384 ebbc f7fb f73b bb5c 2bbd 7693 02be
00000320: 577f f1bd d7e0 b4bd f019 03be e749 a6bd
00000330: ce57 efbd 21da 84bc 785a 0bbe d0b5 22bd
00000340: 9643 d4bd c839 d5bd 6c8e cbbc 6fb2 d1bd
00000350: a44d aabd 6b7e 47bd 9a0d 0ebd 1caa 3cbd
00000360: 0e34 533c 1c96 433c 2385 c0bd ebaa 08bd
00000370: 18ad 8cbc c6e5 c6bc 49c2 923c 796d b93c
00000380: 72eb f0bd 7832 56bd 066a 32bd fb78 02be
00000390: ba82 75bd 4f3d f3bd 91d7 f8bd b8bf a7bb
000003a0: 53c6 07bc c4d5 563a 00a5 5fbd a68f 09bd
000003b0: f03a b8bd c25a f33c 237f 013a 220e 023c
000003c0: 2e4a febd f22f a6bd ce6e e13c 2b09 dcbd
000003d0: 044d b43c cdc8 f0bd 38b7 96bd 187e 33bd
000003e0: c67b be3c 4768 e5bd 5bb9 d1bd cf08 f3bd
000003f0: ae60 41bd a0e3 98bd 21c9 f1bd 1162 11bd
-0.09660263 -0.08140933 -0.034405734 -0.14825206 -0.028528636 -0.052453693 -0.023563566 -0.019943977
-0.035088193 0.030707352 0.050171055 -0.002976887 0.0423282 0.010847636 0.07781275 0.043218695
0.038530827 -0.02088102 -0.010509158 -0.05168887 -0.14859064 -0.09076456 -0.011742891 0.007924528
-0.071765505 -0.03595005 -0.050534654 0.053299207 -0.039951015 -0.051196452 -0.008816797 -0.11679718
-0.10074683 -0.11785806 -0.024521746 -0.0005198543 0.02189363 0.010786441 -0.107165664 -0.0206649
-0.080525465 -0.10343553 -0.14777741 -0.035018694 -0.12210378 -0.13355422 -0.11070171 0.00791818
-0.1057849 -0.09313236 -0.09250039 0.00090748945 -0.1313017 -0.035191018 -0.09993982 -0.051259432
0.0030154216 -0.14578716 -0.017994734 -0.054883353 0.040528156 0.01745902 -0.020590741 -0.02832146
-0.10671991 -0.123624206 -0.0053832987 -0.1110074 -0.101583764 -0.022062166 -0.048158254 -0.08646691
-0.021241486 0.036551572 -0.104430474 -0.11028427 -0.09172574 -0.03928464 -0.14211017 -0.09223866
-0.054321613 -0.12567624 -0.10229655 -0.015778296 -0.1446709 -0.14451388 -0.017431855 -0.0632577
-0.10968781 -0.02950493 -0.046589375 -0.050392173 -0.046596177 -0.05415515 -0.12682238 -0.15082797
-0.016524322 -0.019368514 0.024381552 -0.111783095 -0.038855225 -0.0053528333 -0.15115789 0.04707955
-0.051244885 -0.06495232 -0.062190298 0.038262878 -0.12748659 -0.06465543 -0.11675496 -0.09731656
-0.09129285 -0.05059041 -0.12730926 0.008391615 -0.14154156 0.10520267 0.051983956 0.042953257
0.074998654 0.018504322 -0.016201753 0.079389356 0.03634366 -0.045838445 -0.10500846 -0.15895194
-0.09102289 -0.1569686 -0.067299746 -0.03953431 -0.07300176 -0.09577832 -0.12011133 -0.022761662
-0.033452652 -0.13829756 0.024099553 0.007541404 -0.032573003 -0.04312971 -0.13658084 -0.0154127795
0.0128963 -0.016406344 -0.13303813 -0.059666872 -0.13853964 -0.075075425 0.024411699 -0.0341146
-0.014364956 -0.090842955 0.049100287 0.05091458 0.021945544 0.098624825 -0.0078130625 0.06235484
0.003938068 0.07284234 -0.122431956 -0.065282516 0.0040544886 -0.14497569 -0.11836624 -0.10178593
-0.06846219 -0.02749267 -0.032978386 -0.029937472 -0.08491092 -0.13346335 -0.002553256 -0.13077061
-0.03696409 -0.053698804 -0.13453524 -0.026141703 -0.067092896 0.005862552 -0.076748915 -0.13130437
-0.036307015 0.04420737 -0.1048636 -0.048229527 -0.06710784 -0.109841816 -0.046577822 -0.0380393
-0.12504235 -0.06553493 -0.019279908 -0.02031537 -0.028749919 0.0075678783 -0.04183648 -0.12751564
-0.11791866 -0.08831947 -0.12802863 -0.081195645 -0.11686669 -0.016217293 -0.1360873 -0.03972417
-0.103644535 -0.104114115 -0.024848185 -0.10239112 -0.0831559 -0.048704546 -0.03468094 -0.046060666
0.012890829 0.011937644 -0.09400394 -0.033366125 -0.017172381 -0.024279486 0.017914908 0.022635208
-0.11763658 -0.052294225 -0.043558143 -0.12741463 -0.059939124 -0.11876928 -0.12150491 -0.00511929
-0.00828703 0.00081953057 -0.054600716 -0.03358426 -0.089956164 0.029706363 0.00049399043 0.00793794
-0.124164924 -0.081146136 0.027518656 -0.10743936 0.02200938 -0.1175705 -0.07359165 -0.043821424
0.02325238 -0.1120153 -0.10240432 -0.118669145 -0.04721134 -0.07465291 -0.118059404 -0.035493914

bias f4 [32]
00000000: 2214 33bd f973 d4bd c9db c93d eeb6 14bd
00000010: 6819 c9bd 3fb7 0a3d 7e04 74bd ab7e 10bd
00000020: f60e 47bd b10f c8bd bee6 22bd c55f d1bd
00000030: 28fa dcbd 0177 88bd 21be 493d fd14 dabd
00000040: e0ec 1dbb 7191 cc3d e6c3 edbd 800e 02be
00000050: c56a 4a3d 795f a5bb 5257 86bd c15e 973d
00000060: bbc8 7cbd 2a5c 7ebc 257d cfbd a8a9 bcbd
00000070: d9f9 053d 9997 6dbd b26c 8b3d 383d 05be
-0.043720372 -0.103736825 0.09856374 -0.036307268 -0.09819299 0.033866163 -0.059574597 -0.03527705
-0.048598252 -0.09768618 -0.039770834 -0.10223345 -0.10789901 -0.06663323 0.049253587 -0.106485344
-0.0024097487 0.09988678 -0.1160963 -0.12700844 0.04941823 -0.0050467816 -0.06559624 0.0739112
-0.06171487 -0.015524903 -0.10131291 -0.09212047 0.032708976 -0.058005903 0.06807841 -0.13011634

weight f4 [64, 32, 3, 3]
00000000: 6dbd e2bd 1c52 f2bd 6457 d6bd 7f90 8ebb
00000010: be3d 39bb 66e6 d6bd c973 72bd 771c 9abd
00000020: 238c eabd c5e0 ae3c 9fdc d03c 99c3 2d3d
00000030: c85e 493d 571a b13d 7d1a afbd eac0 98bc
00000040: 6932 2fbc a31d 7cbd 52e0 9bbd 9cb8 12bd
00000050: 65e1 00bd d3be e9bb 136d 1abd 9f14 bbbd
00000060: 39f7 03bd c85a debd e6c1 8ebc 9bdd 52bb
00000070: a7f7 443d ee4b b13d 4707 443d d891 173d
00000080: f5c9 c13d 8934 273b 2a34 d73d a222 383d
00000090: d5bd aabd 0f8f 6c3d 1fd8 cd3c 1c01 4fbb
000000a0: 8641 5a3c ed84 f73c eaf0 123c b38b d23d
000000b0: ff11 253d e9c2 91bd cf06 9dbc 337f f3bd
000000c0: 67a2 cebd b814 80bc e7a3 94bd c551 51bd
000000d0: f2fd e5bb 3ab3 c1bd 38ae f1bd ebc4 e1bd
000000e0: fec4 a2bd 3150 babd 2991 f1bd 0b40 473b
000000f0: bd5a 1fbb ce6f 5fbb 303d c2bc fd8e f6bc
00000100: dd5a 5fbd 8f3e 78bd e3ff dbbd 439f 8dbd
00000110: 5141 e0bc a81a 5cbc 0c95 21bd 888e d5bd
00000120: 80c3 953d bd23 693d d735 9d3d 81da 613d
00000130: 907b 533d 0aa7 0dbe 5ff0 40bd 63e5 cbbd
00000140: 4d9e f6bc e8a3 e8bc 354b c73d c6b2 923d
00000150: 9de7 04bc 95d8 5ebd ab4c bbbd b7c1 cabd
00000160: 0ede 8cbd a5ce 99bc 4266 813d 71e0 043b
00000170: c5d3 3c3d c85a 113d ff44 c13d be2a 09be
00000180: 2397 a83d 6ac9 7dbd 993d d1bd 9def 363d
00000190: d63d a2bc 7d4e 5ebc e534 57bd 8720 2abd
000001a0: 5168 92bd bb12 76bd 99cb e3bd 30a0 6bbd
000001b0: b43e a6bd 2cb4 aebd 27f7 febc 0bfb d8bc
000001c0: 4cbe 74bd b039 8bbd f7b5 06bd 6461 e3bd
000001d0: fe97 c6bd 0209 17bd d26a a8bd 5646 81bd
000001e0: cdf5 8e3d 2a47 2c3d 72cd 2fbd 5f14 c0bb
000001f0: f925 8c3d beab 6bbb 25ae 4b3d 086f 9a3c
00000200: df93 8b3b d287 76bb 6b6c ecbc ec28 ebbd
00000210: 031a a2bc 392c c8bd 6ca9 a1bd df55 87bd
00000220: d03e 7b3d 9da0 1a3d 9bbe 20bc 2b26 833c
00000230: b519 f23d df66 a83d cba2 953c ff40 433c
00000240: 09e2 a4bd b06d 6ebd e7e4 95bd a749 02bd
00000250: d25e cbbc 72d9 1dbd 9654 9abd 4002 64bd
00000260: 0039 80bd cd48 cebc bb73 bfbd f510 a7bc
00000270: 5c31 4fbd c1f5 05be c16f 023d 78a8 a5bd
00000280: 5cbc 3dbc 3141 97bd 65e8 b6bd ade9 c1bd
00000290: a54f b6bd 34c1 44bc 2fd2 8bbd 8c35 29bd
000002a0: 35be d7bd f58a c9bd 2bff c8bc 17bf 203b
000002b0: 6f1f d73b a81e b1bd 2d5a d9bb 790c 9ebd
000002c0: 2b34 19bd adab 2b3c 3d79 953c dd12 f8bc
000002d0: 79bc 6ebd 7a4c 9bbd 0f06 e3bc d423 4ebd
000002e0: 59ed b4bc d672 d7bd 01d4 a4bd 440f a3bd
000002f0: dc28 c1bd 879d c5bd cd04 86bd ecea efbc
00000300: 1951 01bd e11c 0fbd 7e6f b3bd 0540 abbd
00000310: be59 98bd f419 a1bd 0beb f0bd 2891 073c
00000320: 4a57 ae3c ee00 5a39 280f d23b e884 5e3d
00000330: 1d1d 8a3d 36fa b23c f089 bb3d 9b1e f3bd
00000340: 5505 7cbd 1336 c5bc 78ef 80bd 3bbb c0bd
00000350: d0dd 2abc 7c1b 38bd e414 eabc 02f0 98bd
00000360: b660 92bd 464d abbd c7d0 bcbd 5f81 8cbd
00000370: 49c7 28bd 8096 04bd 5d59 e5bc 721a 95bd
00000380: bcdd c6bc 023d debd 8ebd 7dbd 5461 a8bd
00000390: c641 cfbd 4435 b5bd c95e d4bd cafa d0bd
000003a0: e5a7 ebbd 5099 83bd e876 9c3d 5ae6 eb3a
000003b0: 51a7 d23d 0370 bd3c 11f3 a43c 7ceb 8f3d
000003c0: 898d f93b 2728 5a3b 28e7 d33b 7575 55bd
000003d0: 3d5d 6c3d f6fe 993d e3f5 a63d dd19 d53c
000003e0: 0c07 c93c dcb9 883d 1ca0 163d 0e54 103d
000003f0: 17c4 40bd a5b2 e9bd 893b f2bc b722 cdbd
-0.11071286 -0.11832067 -0.10465887 -0.0043507214 -0.002826556 -0.10493164 -0.059192453 -0.075249605
-0.1145251 0.021347413 0.025495825 0.042422865 0.049162656 0.08647602 -0.08549974 -0.018646676
-0.010693171 -0.0615517 -0.07611145 -0.03582059 -0.031464953 -0.0071333437 -0.037701678 -0.091347925
-0.03221819 -0.10857159 -0.017426442 -0.0032175544 0.048087742 0.086570606 0.047858503 0.03700432
0.09462348 0.002551349 0.105079964 0.044954903 -0.08336989 0.05775362 0.025127469 -0.0031586355
0.013321286 0.030214751 0.008968571 0.10280552 0.040300366 -0.07117254 -0.019168286 -0.11889496
-0.100895695 -0.01563488 -0.072578244 -0.051103372 -0.007018798 -0.09458013 -0.11800808 -0.11023887
-0.079477295 -0.090973265 -0.11795265 0.0030403163 -0.002431556 -0.003409374 -0.023710817 -0.030097479
-0.054530013 -0.060606536 -0.10742166 -0.069151424 -0.027374895 -0.01343409 -0.039448783 -0.10427576
0.07312679 0.05691885 0.07676285 0.055140022 0.05163151 -0.13833252 -0.047104236 -0.099558614
-0.03010478 -0.02839847 0.097311415 0.071630046 -0.008111862 -0.054405767 -0.09145483 -0.099002294
-0.06878291 -0.018775294 0.06318332 0.002027538 0.046100397 0.035486966 0.09436988 -0.13395211
0.08231952 -0.06195966 -0.10216827 0.044662107 -0.019804876 -0.013568518 -0.05254068 -0.041534927
-0.07148803 -0.060076457 -0.111228175 -0.057525814 -0.081174284 -0.08530459 -0.03112371 -0.026486894
-0.059751794 -0.067981124 -0.03288838 -0.1110256 -0.09696959 -0.036873825 -0.08223499 -0.06312244
0.069804765 0.042060055 -0.042920537 -0.0058618034 0.0684318 -0.003596052 0.049726624 0.018851772
0.004259571 -0.0037617576 -0.028860291 -0.114824146 -0.019787794 -0.0977406 -0.07893643 -0.066081755
0.0613392 0.03775083 -0.009811069 0.01600941 0.118213095 0.08222746 0.018266102 0.011917352
-0.08050925 -0.058210075 -0.0731905 -0.03180852 -0.024825487 -0.03853745 -0.07535665 -0.05566621
-0.06260872 -0.025181198 -0.09348246 -0.020393828 -0.050584182 -0.13082029 0.031844858 -0.080887735
-0.011580553 -0.07385481 -0.089310445 -0.09468398 -0.0890191 -0.012008954 -0.06827199 -0.041310832
-0.10534326 -0.09840957 -0.024535736 0.002452796 0.0065650265 -0.08648425 -0.0066330642 -0.07717223
-0.037403267 0.010477942 0.018246287 -0.030282432 -0.05828521 -0.07582946 -0.02771285 -0.050327137
-0.022085832 -0.1051995 -0.08048249 -0.07961896 -0.094316214 -0.096491866 -0.065438844 -0.029286824
-0.03157148 -0.03493965 -0.087615 -0.0836182 -0.07438992 -0.07866278 -0.11763581 0.008274354
0.021281857 0.00020790446 0.006410498 0.054325968 0.06743834 0.021847825 0.09157169 -0.11871072
-0.061528523 -0.024073636 -0.06295675 -0.094107114 -0.010428861 -0.044948086 -0.028574415 -0.07467653
-0.071473524 -0.08364348 -0.092195086 -0.06860613 -0.041205678 -0.03237009 -0.027996713 -0.07280435
-0.024275653 -0.1085148 -0.06194835 -0.08221689 -0.10119967 -0.0884805 -0.10369641 -0.10204084
-0.11506633 -0.064257264 0.07639867 0.0017997727 0.10285819 0.0231247 0.020135434 0.07027337
0.0076157493 0.0033288093 0.006466765 -0.05211397 0.057706106 0.07519333 0.08152368 0.02601331
0.024539493 0.06676075 0.036773786 0.03523641 -0.047062006 -0.11411027 -0.029569404 -0.10016387

bias f4 [64]
00000000: aa4d a6bd 5f4f b0bc 0641 aabb fd69 2cbd
00000010: aa18 8ebd 348b 85bd af12 ec3d 92c7 893d
00000020: 141b b2bb f82b 9ebd 4d77 083d ae91 88bb
00000030: 0df2 29bc 015e 95bd d8b8 96bd d0e4 19bd
00000040: 10f1 c9bd 9039 89bd f7c3 d6bd e2c5 e73c
00000050: 05b8 d5bd a938 ddbc d4b5 5c3d d32f c8bd
00000060: 66a7 9c3c 00c3 ee3d 688b 18bd cde1 d9bc
00000070: fcdc 4dbd 2039 02bc 20c0 24bb 19a4 3bbd
00000080: 357d a2bd 9815 76bc 4dc2 a9bd 23c4 a1bc
00000090: 264d bfbc 1aff 2b3b 07a2 bf3c dcc1 d3bc
000000a0: a402 8dbd bb37 0dbe 99f1 56bd be6e f0bd
000000b0: d52d 0dbd 2aec 7ebc 56fc 2bbc 0daf 9dbd
000000c0: 11a1 aebd 293c 54bc 7c1d 753d 547b 4abd
000000d0: 037b e9bc dfbf 1b3e 2eb2 18bd baac 723b
000000e0: aa52 f4bd d522 903b 340c bebc b1a6 a5bd
000000f0: 43bc 34bd d5b6 823d a27d 8dbd 80a0 203d
-0.08120282 -0.021522222 -0.0051957397 -0.042093266 -0.06938298 -0.065206915 0.11527001 0.06727518
-0.005435357 -0.0772323 0.0333169 -0.004167757 -0.010372651 -0.072933204 -0.07359475 -0.03757173
-0.09860432 -0.06700432 -0.10486596 0.0282926 -0.104354896 -0.027004557 0.053884342 -0.09774747
0.01912279 0.11658287 -0.037242323 -0.026596928 -0.050259575 -0.00794819 -0.002513893 -0.045810793
-0.079340376 -0.015019797 -0.08289013 -0.019746846 -0.023352217 0.0026244582 0.02339269 -0.025849275
-0.06885269 -0.1379079 -0.0524765 -0.117398724 -0.034467537 -0.015559236 -0.010497173 -0.07699404
-0.08526815 -0.012953796 0.05984257 -0.04943402 -0.02850104 0.15209912 -0.0372793 0.0037029223
-0.119298294 0.0043986836 -0.023199178 -0.080884345 -0.044124853 0.06382529 -0.06908728 0.039215565

weight f4 [64, 32, 3, 3]
00000000: 197e 973d a2e0 a63d 80ae 70bd f0a0 293d
00000010: 68c8 083d 28af 073c b8f3 133d 6b1e 4d3d
00000020: ced7 043d 528f 943d 11d6 be3d ce0b a73c
00000030: 6eab b73d 9e70 913d a90e ae3d 68cd 603d
00000040: 2e93 5f3d 47c7 f13d d84e 973d 2bca 823d
00000050: f462 653c 7176 9a3c dce3 e33b 904e 2b3d
00000060: c1c2 603b 3ddd 253d 8a72 193b f8e4 23bc
00000070: 2c24 7fbd 3c82 6fbd 9c55 1d3c b020 9ebd
00000080: f2a3 04bd 4a5c d0bc c8a7 bcbd cc2c 21bd
00000090: 6c79 0ebd 57b8 d1bd 4025 a7bd a72d 2fbb
000000a0: 8370 cbbd 0ceb c9bc 80f7 a5bb f0ba 65bc
000000b0: 06f7 e5bd c852 6fbd 7af8 a0bc 8049 40bb
000000c0: 6806 05bd 2098 7cbc ce22 03bd e9fe 82bd
000000d0: 152b 7cbd 5f94 c2bd fc8b 5fbd 4db0 97bd
000000e0: dcc2 2a3c 45d4 1a3d 4839 7ebc 20bd 7d3c
000000f0: 0acc 63bd 7dea 3a3b c891 6abd 8f02 c0bd
00000100: 87a5 e4bb 4df5 413d 168c c43d 4ca7 923d
00000110: 1256 a83c efa8 003b 0274 0e3c eedc 4d3d
00000120: d9f1 a0bd 005f e4bd d0a4 b8bd 950f 30bd
00000130: d096 a7bc 6a90 11bd f32e f1bd 2ed9 8cbd
00000140: ed79 cabd 38a7 cdbb 1182 033d ac2d 10bc
00000150: d8ab 2fbc 201c 91ba 1430 683c 40e4 2ebd
00000160: 407a 403b 33b8 0c3d 3d0c 913c 160a 473d
00000170: 867e 133d 685b 753d 79ac 433d f3b7 cc3d
00000180: 87ec a8bd 6391 613d 6e4f a1bd 2f72 9ebd
00000190: cc51 b8bc 8390 7ebc 2fe0 cbbd cf18 4dbd
000001a0: e2a5 afbd 3e1d 10bd dffe f4bc 51e5 d0bd
000001b0: 9265 96bd 932c ecbc a411 afbc 8176 6abc
000001c0: 5250 a1bd df79 e7bd 0beb dcbd b700 92bc
000001d0: 2c51 1bbd f2ae b3bc 90f8 4bbc cc43 2abc
000001e0: 9197 513d 29cb 50bd 5277 9abb 5912 ea39
000001f0: 4c9b f53c 23c0 7c3c eb9b 9abb 9570 b83d
00000200: 3351 933d 90aa 6d3d 1957 cb3d 905f d43d
00000210: 6065 903d 3b84 bc3d b6cc 923b d795 9abc
00000220: 0973 27bd d2d9 a53d ef5c c9bd b10a debc
00000230: 45d5 e23d 5f90 b3bd e9bb dfbc 0877 b3bd
00000240: 606f c23c 5e39 a43d 1b3d 8c3c b19d dd3c
00000250: b12f 873d 9fdc 95bd 0c96 84bd 95f7 5fbd
00000260: a5c5 60bd 1efe c2bd 474f b73c 63f5 893d
00000270: ad2e ab3d 5835 383c 45d2 b33d bfc7 a83d
00000280: ebd8 413d 5ef7 543d 059b b3bd b2e6 3c3d
00000290: b81c b83d a641 9ebd 1ecc 82bd 4336 cc3d
000002a0: d56b b1bd 376d bcbd f320 72bc 95a0 a5bd
000002b0: 6d30 a8bd 1b75 ddbd 9eda 5cbd 36d5 bdbc
000002c0: bf94 69bd 9c98 a3bc 87b8 36bd 270a 1ebc
000002d0: a6b0 2d3b ade7 33ba 0377 ab3d 8382 b73d
000002e0: 71c3 9d3d e75b 993d 9f7b 713d 4ff6 9b3d
000002f0: 10e4 9c3d baa8 c0bd 92e1 753d 29aa 9f3d
00000300: 60a2 443d 0c45 563c 2c76 e63d c4bb 9abd
00000310: ee66 35bd ce9b 2a3d 31e3 fabd 0e64 b7bd
00000320: 45ce 8fbd b9db 6dbd 7a82 693d 03bf 753d
00000330: c696 373d b1dc 973d 3228 df3d 527f 07bc
00000340: 9301 a7bd 2307 2fbc b086 8bbc 03d0 dcbc
00000350: 092d 57bd d8b9 aabd 41a2 f2bd 7f75 c3bd
00000360: 4784 36bd bd57 dabd 8852 943c f6ca 74bd
00000370: 19cb 2a3d e61d d13d 659f 92bd f38d 0b3d
00000380: 5117 5a3d 6315 583d 594d 0c3d 684a bd3b
00000390: 0aac 24bd 4caf 24bd 8928 6e3d b613 26ba
000003a0: e4b3 cb3d 6c0e 143d c5ca 8cbc af84 83bd
000003b0: d6aa 64bd 13ba cabc a677 8bbd 0e81 e73c
000003c0: 38d9 bcbd 1d06 743a 54a9 2b3d b3ea 783d
000003d0: 8778 ee3d 2666 b33d 594f ee3d 62ac 143d
000003e0: f94a a93c 4420 403c bcd6 ba3d 4d4c 9e3c
000003f0: c9c9 093e fbba 873d 710b a2b8 ccac 893d
0.07397098 0.08148314 -0.058760166 0.041413248 0.033394247 0.008281507 0.0361211 0.050077837
0.03243237 0.07253899 0.09318174 0.020391371 0.089682445 0.07101558 0.0849889 0.05488339
0.05458372 0.11805587 0.07388085 0.06386217 0.014000643 0.018855305 0.006954653 0.04182297
0.003429577 0.040494192 0.0023414218 -0.010003321 -0.062290356 -0.05847381 0.00960293 -0.077210784
-0.032382913 -0.025434632 -0.09211689 -0.039349362 -0.034783766 -0.10240238 -0.08161402 -0.0026730092
-0.09933569 -0.024648212 -0.0050649047 -0.01402162 -0.112287566 -0.058428556 -0.019649733 -0.0029340684
-0.032476813 -0.015417129 -0.032015614 -0.063962765 -0.061564524 -0.09500956 -0.05457686 -0.074066736
0.010422435 0.037800092 -0.015516587 0.015486985 -0.05561451 0.0028521114 -0.057267934 -0.09375488
-0.00697774 0.047353078 0.09597032 0.071608156 0.020548854 0.0019631942 0.008694651 0.050259523
-0.07858629 -0.11150932 -0.090158105 -0.04298361 -0.020457655 -0.035538115 -0.11776533 -0.06877361
-0.09886537 -0.0062760375 0.032106463 -0.0087999515 -0.010722123 -0.0011071004 0.014171619 -0.042698145
0.0029369742 0.034355354 0.017706031 0.048593603 0.036009334 0.059901625 0.047771905 0.09996023
-0.08248239 0.055070292 -0.07876478 -0.077366225 -0.022499941 -0.015537384 -0.09954869 -0.050072487
-0.085765615 -0.035184138 -0.029906688 -0.10199989 -0.07343592 -0.028829848 -0.021370716 -0.01431048
-0.07876648 -0.11302542 -0.107870184 -0.017822606 -0.03791921 -0.021934006 -0.012449399 -0.010392141
0.051169936 -0.050975 -0.004713931 0.00044645628 0.029981278 0.015426668 -0.004718294 0.09005848
0.07193222 0.05802399 0.09928722 0.103697896 0.07050586 0.092049085 0.00447997 -0.018870277
-0.04088119 0.080981866 -0.09832179 -0.027104707 0.11075834 -0.08767771 -0.027311282 -0.08762938
0.023734748 0.080187544 0.017118981 0.027052732 0.06600893 -0.07317471 -0.06473932 -0.054679472
-0.05487599 -0.09521125 0.02237667 0.06736257 0.08358512 0.011243187 0.0878034 0.082412235
0.04732601 0.05199372 -0.08769802 0.046118446 0.08989853 -0.07727365 -0.063865885 0.09971287
-0.086631455 -0.092005186 -0.0147783635 -0.08087269 -0.082123615 -0.10813352 -0.053919427 -0.023172956
-0.05702662 -0.01997023 -0.044609573 -0.009645975 0.0026502996 -0.00068628305 0.08372309 0.0896044
0.07703293 0.07488232 0.058955785 0.07615339 0.07660687 -0.09407182 0.060029574 0.07796127
0.048006415 0.0130779855 0.11253008 -0.07555345 -0.044287615 0.041652493 -0.122503646 -0.08954631
-0.07021765 -0.058070872 0.057009198 0.059996616 0.044821523 0.074151404 0.108963385 -0.008270102
-0.08154597 -0.010682854 -0.017031997 -0.026954656 -0.052533183 -0.08336228 -0.11847354 -0.09543895
-0.044559743 -0.10661266 0.01810576 -0.05976387 0.041697595 0.10210781 -0.07159308 0.03407092
0.053244893 0.05275477 0.034253452 0.005776692 -0.04020313 -0.04020624 0.058144126 -0.00063353346
0.09946421 0.036146566 -0.017186532 -0.06421792 -0.055826984 -0.02474693 -0.068099305 0.02825978
-0.09221119 0.0009308772 0.04190953 0.0607707 0.116440825 0.08759718 0.11636228 0.03629721
0.020665633 0.011726443 0.091229886 0.019323492 0.13455881 0.066274606 -7.726893e-05 0.067224115

bias f4 [32]
00000000: 6766 afbd a594 453d 9d00 0e3e 3b08 cfbd
00000010: 8482 b4bc 5a11 7f3c bdd1 14bd 626a 1e3e
00000020: 0c25 97bd 5509 713d 2a39 bbbc ceeb bebd
00000030: aa06 003d da70 8abd 389d f83d be25 1a3e
00000040: da1f aa3d 22ec b6bc 68b0 d93d ee86 8a3d
00000050: b564 f73c 7dac 033e 6475 883d c342 6d3e
00000060: 30ed 63bd d533 59bd 5ab7 243d c50b 083e
00000070: 9a23 dabd 3d3a f3bc 3a2b 013e ec6d eb3d
-0.085644536 0.04823746 0.13867421 -0.10108992 -0.022034891 0.015568102 -0.036332835 0.1547027
-0.07380113 0.05884679 -0.022854406 -0.0932232 0.031256355 -0.06759806 0.12139362 0.1505346
0.083068565 -0.022329394 0.1062935 0.06764017 0.030199388 0.12858768 0.066630155 0.23169999
-0.05564612 -0.053027947 0.04021392 0.1328574 -0.10651322 -0.029690856 0.12614146 0.11495575

weight f4 [32, 16, 3, 3]
00000000: a08e 4fbd b8c2 96bd 4f73 0bbd 3d80 adbc
00000010: 90af d73b cb6d 60bc 8c0c 25bd 645e b7bc
00000020: 667b d9bc 5b96 7c3d ae50 3a3d b834 0e3e
00000030: 3e46 c03d aab7 903c 4b21 6d3d 606b 1b3d
00000040: bdc0 f33d abd9 a13d b01c 07bd 1e7b 03be
00000050: 7dc6 48bd 2592 f4bd 70ea c4bd 226f 18bc
00000060: be60 fabc 416e 18be e6d1 71b9 7109 db3c
00000070: 2e05 6bbd d986 f5bc d28f adbd 47c9 00bd
00000080: ab74 a4bc 0434 d83d a235 f33d 1ff9 ac3c
00000090: 38e2 80bc 7c2c 63bc 511a 963d 0e02 13be
000000a0: f311 17bd 6a32 52bd 6826 eabd 47d9 62bd
000000b0: 85cb 31bd 5bb2 d0bd 012e 40bd 7bf7 563c
000000c0: d3c8 04bd 483a ecbc b551 fb3c 6465 8ebd
000000d0: 6b46 afbd 802c 05bd 6939 75bd 6ae6 e33d
000000e0: e046 413d b20e 83bc 7c89 1f3b 6be7 463d
000000f0: 25ab 85bd 323f 08bd e85c c03d a714 0c3e
00000100: 95cd 873d fd12 123d 150f 51bd 5801 db3c
00000110: 695d 0e3d 83bb 93bd 93b5 64bd b919 00bd
00000120: aa02 1b3b 7b41 dfbd fd73 b7bd 64d7 30bc
00000130: 53ec 07be ea9f e5bd 6715 fabd 74fb b3bd
00000140: 0603 c8bd 57a7 bdbd 2e37 3ebc 0629 603d
00000150: 5751 1bbe 9558 56be 67b3 92bc 1828 ecbd
00000160: 5c4a 25be 34e5 14be 9e3d 4dbc 603a 79bd
00000170: ed1b c1bd 394e 60bd 3909 8fbc 0874 093c
00000180: 9c98 90bd e20c 62bd 00c3 25be f9e7 ba3d
00000190: af9a d9bc ece3 87bd 1eb5 c83d 8cb1 40bd
000001a0: cbbb 703c f708 5c3d 760c 5f3b fc25 32bc
000001b0: 93ea 9c3b a268 b9bd 4396 d3bd ab20 663d
000001c0: 3d10 c73c 23b4 983d 02c7 dfbc 98f8 c9bc
000001d0: 0ec8 f53d c088 d8bd c5ef ed3b c2fe 8fbc
000001e0: c034 82bd bc93 fcbd f9f2 62bd cf86 bdbd
000001f0: 6709 2abe 0988 0bbe 8efb 23bd 6b41 21be
00000200: fb68 5abd f5f6 cebd 0d89 9fbd 21e3 eabd
00000210: 565c 19bd a275 3dbd 0245 b5bd 2dab b5bd
00000220: b528 1d3d 6acf 873d 6d83 2dbd ee79 f1bc
00000230: 9a31 103e 2b6b bb3a c91f dd3d e045 9a3d
00000240: 64f6 b43d d9c5 c83c ae97 083d 6ff0 18bd
00000250: e79e 883d 4c3a 323c ecf6 403d 10e0 33bd
00000260: c1da f73c 8f07 1dbe 874f 9abd 817c e93c
00000270: c766 81be 2236 11bd 498e 4f3d 5195 7fbe
00000280: a974 d83c e8b9 77bb 7ca2 513d cc68 843d
00000290: a081 98bc cde7 06bd 8086 773d 67f1 cdbc
000002a0: 6a02 77bd 7be3 d63c 0bd0 85bd b3f7 a0bd
000002b0: 1162 08be 5e7d 26bd 5819 84bd f3f8 a13c
000002c0: 26ff 133d a0d2 15bd 483b 3bbc e1ed c8bd
000002d0: 1246 7ebd 8df6 88bd 537b 23bd b7cd ccbd
000002e0: c7cc f4bd 7023 a43c 03c0 02bc 7b9c 8fbd
000002f0: 8808 04bc 1aa7 04be dd14 a1bd d0de 0ebe
00000300: e261 7bbc 2024 023d ca15 133e 6380 3c3c
00000310: 2cd1 7a3d e713 803d 9673 d7bc 07f7 143d
00000320: 7078 d03d c7ee b7bd b18d 68be 55ca f9bd
00000330: 6c51 f8bc b1b5 bdbd 1897 20bd 0872 073e
00000340: 9ebd 51bd 4d7f 91bc 3433 06bd 3dda a8bd
00000350: f828 c1bd 9593 053d 3112 e3ba e055 dd3c
00000360: d29b eebd 9974 03be 61cd bbbd c187 28bd
00000370: f36a e7bd 9ced bebd f778 e7bd f59f 7fbd
00000380: bf10 b4bc a32b 673b db3d 20bd 52fc 6ebc
00000390: 380e 1abd 950e 67bd 29f7 a2bb 6bcc f7bd
000003a0: c97e f5bd 7fec f83b 99b0 8f3c 1cf8 47bd
000003b0: 6dfb 1abd 1fd2 49bd 409d 093c 9abd 07be
000003c0: d9ef e2bd 8880 c8bc 85ab aebd c25b 8d3e
000003d0: 050c dd3d 6cbf b53d 156c e03d 0484 143b
000003e0: 5135 403d 85f1 7c3e 6b62 1b3e 2016 503e
000003f0: 60bd 013c 2272 ddbd ceed 3dbd f588 a73c
-0.050673127 -0.073613584 -0.034045514 -0.021179313 0.006582208 -0.013698052 -0.04029517 -0.022383876
-0.026548099 0.061666828 0.0454871 0.13887298 0.09388398 0.017665703 0.05789308 0.037944198
0.11901996 0.07902845 -0.032986343 -0.12839934 -0.04901742 -0.11941937 -0.09615028 -0.00930384
-0.030563708 -0.14885809 -0.00023061744 0.0267379 -0.057377987 -0.029971527 -0.08474697 -0.031441953
-0.020075163 0.10556796 0.11875464 0.021114884 -0.01573287 -0.013865586 0.07329238 -0.14356253
-0.036882352 -0.05131761 -0.11433107 -0.055382993 -0.043406982 -0.101902686 -0.046918873 0.013120527
-0.032418083 -0.028836384 0.03067861 -0.069529325 -0.08558353 -0.03251314 -0.059869204 0.11127932
0.047186732 -0.015998218 0.0024343422 0.04856054 -0.06526784 -0.033263393 0.093927205 0.13679753
0.066310085 0.03566264 -0.051039774 0.02673404 0.03475705 -0.072134994 -0.055837225 -0.03127453
0.002365271 -0.10901161 -0.0895767 -0.010793541 -0.13273744 -0.11212142 -0.122111134 -0.08788195
-0.09766202 -0.09260433 -0.011609836 0.054726623 -0.15167747 -0.20932229 -0.017907811 -0.11531085
-0.16141647 -0.14540559 -0.012526898 -0.060846686 -0.094291545 -0.0547621 -0.017460452 0.00838948
-0.07060358 -0.055188067 -0.16187668 0.091262765 -0.026563017 -0.066352695 0.0980017 -0.047044322
0.014693211 0.053719487 0.0034034527 -0.010873314 0.0047887056 -0.0905316 -0.103313945 0.0561835
0.024299735 0.07456233 -0.027316574 -0.024654672 0.12001048 -0.10572958 0.007261249 -0.017577533
-0.063577175 -0.123328656 -0.055407498 -0.09254228 -0.16605149 -0.13626112 -0.040034823 -0.15747611
-0.053322773 -0.10105697 -0.07789812 -0.11469103 -0.037441574 -0.04625476 -0.08851053 -0.0887054
0.0383689 0.06631358 -0.042361666 -0.029477086 0.14081421 0.0014298906 0.10797078 0.07532859
0.08836058 0.024508404 0.033347778 -0.03733867 0.06670933 0.010878157 0.047110483 -0.043914855
0.030255677 -0.15334915 -0.075347 0.02850175 -0.25273725 -0.035452016 0.050672803 -0.24959303
0.026422815 -0.0037800018 0.051180348 0.06465301 -0.018616498 -0.032935906 0.060431004 -0.025139524
-0.060305037 0.026231518 -0.06533822 -0.07859745 -0.1331866 -0.040646903 -0.064501464 0.019772029
0.036132 -0.03657782 -0.011427708 -0.09810997 -0.062078543 -0.06687651 -0.039912533 -0.100001745
-0.11953121 0.02003643 -0.0079803495 -0.07012268 -0.008058675 -0.12954369 -0.078653075 -0.13952184
-0.015343161 0.031772733 0.1436378 0.011505219 0.061234638 0.06253796 -0.026300233 0.036368396
0.10179222 -0.0898109 -0.22710301 -0.12196795 -0.030312262 -0.092631705 -0.039206594 0.13227093
-0.051206224 -0.017760897 -0.032763675 -0.08244751 -0.09431642 0.03261145 -0.0017324147 0.027018487
-0.11650814 -0.12837447 -0.09170032 -0.04114509 -0.11299696 -0.09322664 -0.11302369 -0.062408406
-0.021980641 0.0035273812 -0.03912149 -0.014586525 -0.037611216 -0.05641039 -0.0049733114 -0.120995365
-0.11987073 0.007596552 0.017540263 -0.0488206 -0.037837435 -0.049272653 0.008399308 -0.13255921
-0.110809036 -0.024475351 -0.085288085 0.27609068 0.10793308 0.088744015 0.10958115 0.0022661695
0.046925846 0.24701507 0.15174262 0.2032094 0.007918686 -0.10812785 -0.046369366 0.020451048

bias f4 [16]
00000000: 5556 523e 3b6b ffbd d4a5 4a3e 85fa 663e
00000010: 1612 aebd 95d1 d9bd 1e5a 483b fdb8 cb3d
00000020: af98 febd b230 933d b190 d9bd 5a9a d63d
00000030: e914 3a3d dc85 d43d a850 d9bd 814c 6f3d
0.20540746 -0.124716245 0.19789821 0.22556503 -0.08499543 -0.10635678 0.0030571292 0.09947393
-0.12431466 0.07187022 -0.10623301 0.10478659 0.045430098 0.10377094 -0.10611087 0.05842257

weight f4 [16, 1, 3, 3]
00000000: 7e29 a6be 85ec 81be 3d3b 17be b560 cb3d
00000010: fb88 303e 74e7 abbe a05f 72be 4a2c 83be
00000020: 1eb0 e93d 828b 533e 2373 b73d d01d fbbd
00000030: da04 833e d011 66be 642c b33e 3f8b 243e
00000040: 4536 753e 92cc 1f3e 9eb3 163e 5b72 0a3e
00000050: 1cfc bfbe 12fe 01be ea2c c5be 99fb 67be
00000060: c2f8 41be eb40 aabe 47a7 4b3d 7b28 7f3e
00000070: e5ff 0e3e 28e9 6f3d 091a 4cbe c929 5dbe
00000080: 7c4a 833e 9f5f b5be 5ac9 d6bd bd67 abbe
00000090: caf4 9fbe f2b9 3ebd b4a3 d7be 390c ce3d
000000a0: 1d68 813e 9154 55be d7a2 3c3e 5fcb 8e3e
000000b0: a9a3 0c3e 4295 2b3e f3dc a8be d5e3 89bd
000000c0: e729 3d3d 107a 353d 28f2 073c 7122 da3c
000000d0: 309f 40be 149b cbbe 08d5 95bc 6719 373e
000000e0: 917f a6be 7a7b 463e c927 9abe 661d 1ebd
000000f0: 373b 9b3e fe0c 263e 6685 ebbd 4afa 25be
00000100: a8b7 72be 33b4 133e bdb0 dd3d 2335 90be
00000110: e7ab 7fbe fbc4 c1bd 749e 8a3e c974 9c3e
00000120: b50a 8ebe 54d9 303c 0b9c 10be 7164 87bd
00000130: 3d8d 8cbd f05e bebd 4618 2a3e 48ed b13e
00000140: 03ef a53d 8656 313d c8f2 a8be e78b 1ebc
00000150: 8b62 5e3e e939 92be a18f 72be 7097 343e
00000160: b200 13bd 6739 9dbe 10f6 8d3e 78ee 463e
00000170: 71ae 18be 144c 493e 67ee 13be 8362 7f3e
00000180: 3b1e 4abe 55ac b8be cd3b 133e c9ab 50be
00000190: f456 67bb f01e 1f3e c636 b9be 8db4 d13c
000001a0: f2bb 743e adbf 1ebe 4059 943d b242 4abe
000001b0: 489f 973e cfa9 a23e 6d56 abbe 80a4 79bc
000001c0: f09d cfbd c053 76be 0e7f e83d e750 84be
000001d0: f396 3e3e bef2 28be aa9e 21be 1016 82bd
000001e0: 1a0e a6be 8b56 98be b76b 95be 451b 843d
000001f0: eddb 39be 6117 f43d d1ee 27bf abc6 323e
00000200: 1c24 df3d dd0f 5a3e d1f0 31be 2e09 e43d
00000210: de5d 593e 5fc1 efbd b5df 453e fb57 203c
00000220: dac7 f8ba 1792 1bbc 49a0 d13c dfc9 413e
00000230: 3966 97be c721 583e 6f75 e7bd a513 78be
-0.3245353 -0.25375763 -0.14768691 0.09930555 0.17239754 -0.33575022 -0.2366929 -0.25619727
0.11410545 0.20658687 0.089575075 -0.12261546 0.2558964 -0.22467732 0.34994805 0.16068743
0.23946483 0.15605381 0.14716956 0.13520186 -0.37497032 -0.12694576 -0.3851083 -0.2265457
-0.1894255 -0.33252653 0.049720075 0.24917786 0.13964804 0.058571965 -0.19931807 -0.21597971
0.25642765 -0.35424516 -0.104876235 -0.33477584 -0.31241447 -0.04656405 -0.42117083 0.10060925
0.25274745 -0.20833041 0.18421493 0.27889535 0.13734306 0.16756156 -0.3298107 -0.06732909
0.04618254 0.04430586 0.008297481 0.026627751 -0.18810725 -0.39766753 -0.018290058 0.17880784
-0.325192 0.1938304 -0.3010848 -0.038602255 0.30318615 0.16215894 -0.11500053 -0.16208759
-0.23702872 0.1442421 0.10824726 -0.2816554 -0.2496792 -0.09461399 0.27074015 0.3055785
-0.27742544 0.010794003 -0.14122026 -0.066109546 -0.068628766 -0.09295452 0.16610822 0.34751344
0.081022285 0.043295406 -0.32997727 -0.00967691 0.21717279 -0.28559807 -0.23687603 0.17635894
-0.035889335 -0.30707857 0.27726793 0.19426906 -0.14910294 0.19657928 -0.14446412 0.24939923
-0.19738095 -0.3606898 0.14378281 -0.20378031 -0.003529963 0.15539145 -0.361746 0.025598789
0.2389982 -0.15502806 0.072435856 -0.19752005 0.2961371 0.3177018 -0.33464375 -0.015236974
-0.10137546 -0.24055386 0.11352359 -0.25842974 0.1861227 -0.16498849 -0.15783182 -0.06351864
-0.32432634 -0.29753527 -0.29183742 0.06450514 -0.18150301 0.11918522 -0.6559878 0.17458598
0.10895559 0.21295114 -0.1737702 0.111345634 0.21227214 -0.117068045 0.19323619 0.009786601
-0.0018980459 -0.00949528 0.025589125 0.18924664 -0.29570177 0.21106635 -0.113016956 -0.24226244
