output/model_20.pth (torch, 193666 bytes, 11 tensors)

weight f4 [16, 1, 3, 3]
000000 c9 4d e6 3c ad b3 33 3e c8 04 41 3e 53 4b b6 3e
       0.028113263 0.1754901 0.1884948 0.35604343
000010 65 b9 85 bd b3 16 e0 3d a1 cf 16 be 9f d6 80 3e
       -0.06529502 0.109418295 -0.14727642 0.25163743
000020 8b 88 7f 3e 66 76 7f be 9e 79 83 be b8 85 33 be
       0.24954431 -0.24947509 -0.25678724 -0.17531478
000030 86 d3 1d be 97 bf 8f be 30 84 fc 3d 90 d1 da 3c
       -0.15412721 -0.2807586 0.123299 0.026711255
000040 28 ae ae be d0 12 d2 3d 39 79 7e bd 3b e2 bd 3c
       -0.34117246 0.102574944 -0.062127326 0.023179164
000050 7e dd 7a be c8 bc b9 be 7f 97 d1 bd a6 db ad be
       -0.24498555 -0.3627684 -0.10233974 -0.3395664
000060 1f 7b 02 3e 6c 54 a4 be f1 0d 73 3d 99 7e c8 3e
       0.1274228 -0.3209566 0.059339467 0.39159086
000070 3a e4 48 be e5 e7 44 be 13 86 90 bd 4a 3e 3b 3f
       -0.19618312 -0.19229086 -0.07056823 0.7314192
000080 52 7f 32 3e 0d 50 54 be 50 41 24 3e b0 88 59 bd
       0.17431381 -0.20733662 0.1604054 -0.05310887
000090 98 44 35 be d7 5d c4 bd 8b f7 81 be 1e ab 7a be
       -0.17701948 -0.09588211 -0.25384173 -0.24479339
0000a0 19 73 f8 be f0 5f 3b 3e 60 f0 1b be 1d 61 15 3e
       -0.48525313 0.18298316 -0.15228415 0.14587827
0000b0 71 f8 cc 3e c8 d7 b8 bc c4 82 96 3d 2e f4 55 3e
       0.40033296 -0.02256383 0.0734916 0.20893928
0000c0 0c 84 5f 3d 56 72 bc 3e 6c 3a 07 3e 2a 0a 9a 3e
       0.05456929 0.3680598 0.1320588 0.3008588
0000d0 e6 52 8f 3e d5 7f df 3d 94 92 77 be 6e ae 9b 3e
       0.27992934 0.10913054 -0.24177009 0.30406517
0000e0 45 0c a9 3e 79 69 e5 3d b8 a2 7d 3d 89 88 80 be
       0.33017173 0.11201758 0.06192276 -0.25104168
0000f0 28 22 54 3d e2 54 be be 1c 25 c1 be a6 da 86 bd
       0.051790386 -0.37174135 -0.37723625 -0.06584673
000100 b8 c8 74 be c1 d0 89 3e 40 52 f1 be ac fb c9 3d
       -0.23904693 0.2691708 -0.47133064 0.09862456
000110 fa e3 3b 3e 7f 8c 93 be d9 87 20 bd 7f 52 02 3d
       0.18348685 -0.28818128 -0.039192054 0.031816956
000120 a2 8e 94 3e ab 1d 74 be 16 87 c2 3d 4b 5c 0d 3e
       0.2901507 -0.23839442 0.09498422 0.13804738
000130 1f b7 bb 3e e2 b5 61 3e c2 e0 8d 3e 6a b0 4e bd
       0.36663148 0.22042039 0.2771054 -0.05046121
000140 d5 d1 7d be 2a 1d 5f 3e 5a 11 69 be 08 88 0b bf
       -0.24787076 0.21788469 -0.22760525 -0.5450444
000150 d7 39 da be d9 d7 d0 be 9c ee dc be d4 3e 38 bf
       -0.42622253 -0.4078968 -0.43150795 -0.7197087
000160 b7 bf 3b bf b3 a0 4c bf 71 2d 96 3e 8b 1d d3 3c
       -0.7333941 -0.7993271 0.29331544 0.025770923
000170 42 01 52 be e0 1c c1 3e 14 a5 85 be ab 25 8f be
       -0.20508292 0.37717342 -0.26102507 -0.27958426
000180 90 56 82 3e dc cd 2a 3e 0b de 8a 3d 76 cc 25 bd
       0.25456667 0.16680092 0.067806326 -0.040478192
000190 d9 3c d3 be c2 58 b7 bf 62 d8 63 3e db 69 e0 be
       -0.4125736 -1.4323962 0.22250512 -0.4383076
0001a0 81 0a 9f bf f1 18 2e be a7 25 18 be 53 af 86 bf
       -1.242508 -0.17001702 -0.14858113 -1.0522255
0001b0 48 38 d5 bd 14 2d 1f be 43 3e 8b be ea 03 6a be
       -0.104111254 -0.1554454 -0.2719594 -0.22853056
0001c0 1d a9 c0 bc 51 cc b7 bd 7e c4 f4 3d 0b 60 21 3d
       -0.02351814 -0.08974517 0.119515404 0.039398234
0001d0 dd 84 d4 bd fe df de 39 30 13 9d 3d 52 af d3 3d
       -0.10376904 0.00042510027 0.07669675 0.10336174
0001e0 ff 75 7b bd b1 d7 75 3e 74 28 88 be c7 68 df bd
       -0.061391827 0.24008061 -0.26593363 -0.109086566
0001f0 94 d3 8c 3e c4 79 36 be a8 cf 0a 3e 5a c2 b4 3a
       0.2750517 -0.17819887 0.13555777 0.0013790831
000200 43 9a ba be ef eb 05 be e3 92 f2 bd 3f af fc 3d
       -0.36445817 -0.13078283 -0.11844423 0.12338113
000210 43 4e 2e be 49 b2 87 3e 2f d2 7d 3e e1 01 25 be
       -0.17022042 0.26503208 0.2478721 -0.16113998
000220 b3 a5 3e 3e dd 79 9c bd 1f 31 ad be 56 e0 28 ba
       0.18617897 -0.07640431 -0.3382654 -0.000644212
000230 7a 28 4a be 54 70 a8 be 47 76 d3 bd 3e a0 17 3e
       -0.19742003 -0.328982 -0.10325294 0.14807221

bias f4 [16]
000000 db cc 30 be e7 c2 b1 be 6b a1 43 3e 45 c6 6b 3e
       -0.17265646 -0.3471901 0.19104545 0.23024853
000010 9e c5 71 3c e8 63 6e be 8c b4 60 39 a0 cf ba b8
       0.014756588 -0.23280299 0.00021429564 -8.907844e-05
000020 2a aa 7b bb f9 b3 fe 3d 95 1d 4a 3c e3 29 b9 3d
       -0.0038400986 0.12436671 0.0123361545 0.090411924
000030 d8 e5 25 3e ec 54 88 be 7e 82 f8 3d 91 bd 80 be
       0.1620096 -0.2662729 0.121342644 -0.25144628

weight f4 [32, 16, 3, 3]
000000 9a d7 c5 bd ef b9 a6 bd 07 ed 0c bd 63 cf 17 be
       -0.09660263 -0.08140933 -0.034405734 -0.14825206
000010 e3 b4 e9 bc af d9 56 bd 61 08 c1 bc 8d 61 a3 bc
       -0.028528636 -0.052453693 -0.023563566 -0.019943977
000020 a3 b8 0f bd fc 8d fb 3c 2a 80 4d 3d e0 17 43 bb
       -0.035088193 0.030707352 0.050171055 -0.002976887
000030 56 60 2d 3d 48 ba 31 3c 4b 5c 9f 3d 16 06 31 3d
       0.0423282 0.010847636 0.07781275 0.043218695
000040 80 d2 1d 3d ac 0e ab bc 9a 2e 2c bc b5 b7 53 bd
       0.038530827 -0.02088102 -0.010509158 -0.05168887
000050 25 28 18 be c5 e2 b9 bd 41 65 40 bc e1 d5 01 3c
       -0.14859064 -0.09076456 -0.011742891 0.007924528
000060 cb f9 92 bd 5c 40 13 bd 6d fd 4e bd 45 50 5a 3d
       -0.071765505 -0.03595005 -0.050534654 0.053299207
000070 ad a3 23 bd 5f b3 51 bd 54 74 10 bc 5c 33 ef bd
       -0.039951015 -0.051196452 -0.008816797 -0.11679718
000080 5b 54 ce bd 91 5f f1 bd d4 e1 c8 bc d5 46 08 ba
       -0.10074683 -0.11785806 -0.024521746 -0.0005198543
000090 45 5a b3 3c 9d b9 30 3c ac 79 db bd 70 49 a9 bc
       0.02189363 0.010786441 -0.107165664 -0.0206649
0000a0 89 ea a4 bd 02 d6 d3 bd f6 52 17 be c3 6f 0f bd
       -0.080525465 -0.10343553 -0.14777741 -0.035018694
0000b0 8c 11 fa bd 70 c2 08 be 94 b7 e2 bd 41 bb 01 3c
       -0.12210378 -0.13355422 -0.11070171 0.00791818
0000c0 c1 a5 d8 bd 2e bc be bd d8 70 bd bd 96 e4 6d 3a
       -0.1057849 -0.09313236 -0.09250039 0.00090748945
0000d0 f4 73 06 be 75 24 10 bd 40 ad cc bd 69 f5 51 bd
       -0.1313017 -0.035191018 -0.09993982 -0.051259432
0000e0 61 9e 45 3b 3b 49 15 be b1 69 93 bc 5e cd 60 bd
       0.0030154216 -0.14578716 -0.017994734 -0.054883353
0000f0 da 00 26 3d 38 06 8f 3c ea ad a8 bc 68 02 e8 bc
       0.040528156 0.01745902 -0.020590741 -0.02832146
000100 f8 8f da bd b0 2e fd bd 62 66 b0 bb d9 57 e3 bd
       -0.10671991 -0.123624206 -0.0053832987 -0.1110074
000110 26 0b d0 bd b7 bb b4 bc 97 41 45 bd 90 15 b1 bd
       -0.101583764 -0.022062166 -0.048158254 -0.08646691
000120 a0 02 ae bc 1a b7 15 3d a5 df d5 bd b8 dc e1 bd
       -0.021241486 0.036551572 -0.104430474 -0.11028427
000130 b4 da bb bd ee e8 20 bd 54 85 11 be 9f e7 bc bd
       -0.09172574 -0.03928464 -0.14211017 -0.09223866
000140 57 80 5e bd 46 b1 00 be db 80 d1 bd 7c 41 81 bc
       -0.054321613 -0.12567624 -0.10229655 -0.015778296
000150 9c 24 14 be 72 fb 13 be 40 cd 8e bc 41 8d 81 bd
       -0.1446709 -0.14451388 -0.017431855 -0.0632577
000160 01 a4 e0 bd 53 b4 f1 bc 80 d4 3e bd 06 68 4e bd
       -0.10968781 -0.02950493 -0.046589375 -0.050392173
000170 a2 db 3e bd ca d1 5d bd ba dd 01 be a6 72 1a be
       -0.046596177 -0.05415515 -0.12682238 -0.15082797
000180 04 5e 87 bc b8 aa 9e bc d2 bb c7 3c 89 ee e4 bd
       -0.016524322 -0.019368514 0.024381552 -0.111783095
000190 a8 26 1f bd d2 66 af bb 22 c9 1a be 7c d6 40 3d
       -0.038855225 -0.0053528333 -0.15115789 0.04707955
0001a0 28 e6 51 bd b9 05 85 bd 41 bb 7e bd 89 b9 1c 3d
       -0.051244885 -0.06495232 -0.062190298 0.038262878
0001b0 d8 8b 02 be 11 6a 84 bd 39 1d ef bd e8 4d c7 bd
       -0.12748659 -0.06465543 -0.11675496 -0.09731656
0001c0 bf f7 ba bd e4 37 4f bd 5c 5d 02 be fc 7c 09 3c
       -0.09129285 -0.05059041 -0.12730926 0.008391615
0001d0 45 f0 10 be 7f 74 d7 3d 21 ed 54 3d c1 ef 2f 3d
       -0.14154156 0.10520267 0.051983956 0.042953257
0001e0 e5 98 99 3d 60 96 97 3c 8a b9 84 bc e3 96 a2 3d
       0.074998654 0.018504322 -0.016201753 0.079389356
0001f0 17 dd 14 3d 18 c1 3b bd ad 0e d7 bd 4c c4 22 be
       0.03634366 -0.045838445 -0.10500846 -0.15895194
000200 35 6a ba bd 60 bc 20 be 73 d4 89 bd bb ee 21 bd
       -0.09102289 -0.1569686 -0.067299746 -0.03953431
000210 f2 81 95 bd 6d 27 c4 bd ee fc f5 bd aa 76 ba bc
       -0.07300176 -0.09577832 -0.12011133 -0.022761662
000220 a6 05 09 bd e0 9d 0d be 6d 6c c5 3c e2 1d f7 3b
       -0.033452652 -0.13829756 0.024099553 0.007541404
000230 45 6b 05 bd c7 a8 30 bd d9 db 0b be e2 85 7c bc
       -0.032573003 -0.04312971 -0.13658084 -0.0154127795
000240 01 4b 53 3c 99 66 86 bc 26 3b 08 be 40 65 74 bd
       0.0128963 -0.016406344 -0.13303813 -0.059666872
000250 56 dd 0d be 25 c1 99 bd 0b fb c7 3c c0 bb 0b bd
       -0.13853964 -0.075075425 0.024411699 -0.0341146
000260 fe 5a 6b bc df 0b ba bd 62 1d 49 3d ce 8b 50 3d
       -0.014364956 -0.090842955 0.049100287 0.05091458
000270 24 c7 b3 3c d0 fb c9 3d 5c 02 00 bc ca 67 7f 3d
       0.021945544 0.098624825 -0.0078130625 0.06235484
000280 e9 0a 81 3b 5d 2e 95 3d 9b bd fa bd d7 b2 85 bd
       0.003938068 0.07284234 -0.122431956 -0.065282516
000290 84 db 84 3b 82 74 14 be 00 6a f2 bd 24 75 d0 bd
       0.0040544886 -0.14497569 -0.11836624 -0.10178593
0002a0 e8 35 8c bd 4f 38 e1 bc 58 14 07 bd 6e 3f f5 bc
       -0.06846219 -0.02749267 -0.032978386 -0.029937472
0002b0 c7 e5 ad bd 9e aa 08 be 87 54 27 bb bb e8 05 be
       -0.08491092 -0.13346335 -0.002553256 -0.13077061
0002c0 a8 67 17 bd 47 f3 5b bd 9b c3 09 be 20 27 d6 bc
       -0.03696409 -0.053698804 -0.13453524 -0.026141703
0002d0 00 68 89 bd a7 1a c0 3b 89 2e 9d bd a7 74 06 be
       -0.067092896 0.005862552 -0.076748915 -0.13130437
0002e0 aa b6 14 bd ca 12 35 3d ba c2 d6 bd 53 8c 45 bd
       -0.036307015 0.04420737 -0.1048636 -0.048229527
0002f0 d6 6f 89 bd bf f4 e0 bd 63 c8 3e bd 19 cf 1b bd
       -0.06710784 -0.109841816 -0.046577822 -0.0380393
000300 1a 0b 00 be 2d 37 86 bd e6 f0 9d bc 6b 6c a6 bc
       -0.12504235 -0.06553493 -0.019279908 -0.02031537
000310 f3 84 eb bc f7 fb f7 3b bb 5c 2b bd 76 93 02 be
       -0.028749919 0.0075678783 -0.04183648 -0.12751564
000320 57 7f f1 bd d7 e0 b4 bd f0 19 03 be e7 49 a6 bd
       -0.11791866 -0.08831947 -0.12802863 -0.081195645
000330 ce 57 ef bd 21 da 84 bc 78 5a 0b be d0 b5 22 bd
       -0.11686669 -0.016217293 -0.1360873 -0.03972417
000340 96 43 d4 bd c8 39 d5 bd 6c 8e cb bc 6f b2 d1 bd
       -0.103644535 -0.104114115 -0.024848185 -0.10239112
000350 a4 4d aa bd 6b 7e 47 bd 9a 0d 0e bd 1c aa 3c bd
       -0.0831559 -0.048704546 -0.03468094 -0.046060666
000360 0e 34 53 3c 1c 96 43 3c 23 85 c0 bd eb aa 08 bd
       0.012890829 0.011937644 -0.09400394 -0.033366125
000370 18 ad 8c bc c6 e5 c6 bc 49 c2 92 3c 79 6d b9 3c
       -0.017172381 -0.024279486 0.017914908 0.022635208
000380 72 eb f0 bd 78 32 56 bd 06 6a 32 bd fb 78 02 be
       -0.11763658 -0.052294225 -0.043558143 -0.12741463
000390 ba 82 75 bd 4f 3d f3 bd 91 d7 f8 bd b8 bf a7 bb
       -0.059939124 -0.11876928 -0.12150491 -0.00511929
0003a0 53 c6 07 bc c4 d5 56 3a 00 a5 5f bd a6 8f 09 bd
       -0.00828703 0.00081953057 -0.054600716 -0.03358426
0003b0 f0 3a b8 bd c2 5a f3 3c 23 7f 01 3a 22 0e 02 3c
       -0.089956164 0.029706363 0.00049399043 0.00793794
0003c0 2e 4a fe bd f2 2f a6 bd ce 6e e1 3c 2b 09 dc bd
       -0.124164924 -0.081146136 0.027518656 -0.10743936
0003d0 04 4d b4 3c cd c8 f0 bd 38 b7 96 bd 18 7e 33 bd
       0.02200938 -0.1175705 -0.07359165 -0.043821424
0003e0 c6 7b be 3c 47 68 e5 bd 5b b9 d1 bd cf 08 f3 bd
       0.02325238 -0.1120153 -0.10240432 -0.118669145
0003f0 ae 60 41 bd a0 e3 98 bd 21 c9 f1 bd 11 62 11 bd
       -0.04721134 -0.07465291 -0.118059404 -0.035493914

bias f4 [32]
000000 22 14 33 bd f9 73 d4 bd 1f 65 c8 3d ee b6 14 bd
       -0.043720372 -0.103736825 0.09784912 -0.036307268
000010 68 19 c9 bd b0 2c 0c 3d 7e 04 74 bd ab 7e 10 bd
       -0.09819299 0.034222305 -0.059574597 -0.03527705
000020 f6 0e 47 bd b1 0f c8 bd be e6 22 bd c5 5f d1 bd
       -0.048598252 -0.09768618 -0.039770834 -0.10223345
000030 28 fa dc bd 01 77 88 bd 12 58 4c 3d fd 14 da bd
       -0.10789901 -0.06663323 0.049888678 -0.106485344
000040 e0 ec 1d bb f9 a5 cb 3d e6 c3 ed bd 80 0e 02 be
       -0.0024097487 0.09943766 -0.1160963 -0.12700844
000050 6b f4 4e 3d 79 61 81 bb 52 57 86 bd 0c e9 96 3d
       0.050526064 -0.003948387 -0.06559624 0.07368669
000060 d9 64 7e bd 2a 5c 7e bc 25 7d cf bd a8 a9 bc bd
       -0.062107895 -0.015524903 -0.10131291 -0.09212047
000070 d9 f9 05 3d 3b e8 6e bd 74 96 7d 3d 38 3d 05 be
       0.032708976 -0.05832694 0.06191106 -0.13011634

weight f4 [64, 32, 3, 3]
000000 6d bd e2 bd 1c 52 f2 bd 64 57 d6 bd 7f 90 8e bb
       -0.11071286 -0.11832067 -0.10465887 -0.0043507214
000010 be 3d 39 bb 66 e6 d6 bd c9 73 72 bd 77 1c 9a bd
       -0.002826556 -0.10493164 -0.059192453 -0.075249605
000020 23 8c ea bd c5 e0 ae 3c 9f dc d0 3c 99 c3 2d 3d
       -0.1145251 0.021347413 0.025495825 0.042422865
000030 c8 5e 49 3d 57 1a b1 3d 7d 1a af bd ea c0 98 bc
       0.049162656 0.08647602 -0.08549974 -0.018646676
000040 69 32 2f bc a3 1d 7c bd 52 e0 9b bd 9c b8 12 bd
       -0.010693171 -0.0615517 -0.07611145 -0.03582059
000050 65 e1 00 bd d3 be e9 bb 13 6d 1a bd 9f 14 bb bd
       -0.031464953 -0.0071333437 -0.037701678 -0.091347925
000060 39 f7 03 bd c8 5a de bd e6 c1 8e bc 9b dd 52 bb
       -0.03221819 -0.10857159 -0.017426442 -0.0032175544
000070 a7 f7 44 3d ee 4b b1 3d 47 07 44 3d d8 91 17 3d
       0.048087742 0.086570606 0.047858503 0.03700432
000080 f5 c9 c1 3d 89 34 27 3b 2a 34 d7 3d a2 22 38 3d
       0.09462348 0.002551349 0.105079964 0.044954903
000090 d5 bd aa bd 0f 8f 6c 3d 1f d8 cd 3c 1c 01 4f bb
       -0.08336989 0.05775362 0.025127469 -0.0031586355
0000a0 86 41 5a 3c ed 84 f7 3c ea f0 12 3c b3 8b d2 3d
       0.013321286 0.030214751 0.008968571 0.10280552
0000b0 ff 11 25 3d e9 c2 91 bd cf 06 9d bc 33 7f f3 bd
       0.040300366 -0.07117254 -0.019168286 -0.11889496
0000c0 67 a2 ce bd b8 14 80 bc e7 a3 94 bd c5 51 51 bd
       -0.100895695 -0.01563488 -0.072578244 -0.051103372
0000d0 f2 fd e5 bb 3a b3 c1 bd 38 ae f1 bd eb c4 e1 bd
       -0.007018798 -0.09458013 -0.11800808 -0.11023887
0000e0 fe c4 a2 bd 31 50 ba bd 29 91 f1 bd 0b 40 47 3b
       -0.079477295 -0.090973265 -0.11795265 0.0030403163
0000f0 bd 5a 1f bb ce 6f 5f bb 30 3d c2 bc fd 8e f6 bc
       -0.002431556 -0.003409374 -0.023710817 -0.030097479
000100 dd 5a 5f bd 8f 3e 78 bd e3 ff db bd 43 9f 8d bd
       -0.054530013 -0.060606536 -0.10742166 -0.069151424
000110 51 41 e0 bc a8 1a 5c bc 0c 95 21 bd 88 8e d5 bd
       -0.027374895 -0.01343409 -0.039448783 -0.10427576
000120 80 c3 95 3d bd 23 69 3d d7 35 9d 3d 81 da 61 3d
       0.07312679 0.05691885 0.07676285 0.055140022
000130 90 7b 53 3d 0a a7 0d be 5f f0 40 bd 63 e5 cb bd
       0.05163151 -0.13833252 -0.047104236 -0.099558614
000140 4d 9e f6 bc e8 a3 e8 bc 35 4b c7 3d c6 b2 92 3d
       -0.03010478 -0.02839847 0.097311415 0.071630046
000150 9d e7 04 bc 95 d8 5e bd ab 4c bb bd b7 c1 ca bd
       -0.008111862 -0.054405767 -0.09145483 -0.099002294
000160 0e de 8c bd a5 ce 99 bc 42 66 81 3d 71 e0 04 3b
       -0.06878291 -0.018775294 0.06318332 0.002027538
000170 c5 d3 3c 3d c8 5a 11 3d ff 44 c1 3d be 2a 09 be
       0.046100397 0.035486966 0.09436988 -0.13395211
000180 23 97 a8 3d 6a c9 7d bd 99 3d d1 bd 9d ef 36 3d
       0.08231952 -0.06195966 -0.10216827 0.044662107
000190 d6 3d a2 bc 7d 4e 5e bc e5 34 57 bd 87 20 2a bd
       -0.019804876 -0.013568518 -0.05254068 -0.041534927
0001a0 51 68 92 bd bb 12 76 bd 99 cb e3 bd 30 a0 6b bd
       -0.07148803 -0.060076457 -0.111228175 -0.057525814
0001b0 b4 3e a6 bd 2c b4 ae bd 27 f7 fe bc 0b fb d8 bc
       -0.081174284 -0.08530459 -0.03112371 -0.026486894
0001c0 4c be 74 bd b0 39 8b bd f7 b5 06 bd 64 61 e3 bd
       -0.059751794 -0.067981124 -0.03288838 -0.1110256
0001d0 fe 97 c6 bd 02 09 17 bd d2 6a a8 bd 56 46 81 bd
       -0.09696959 -0.036873825 -0.08223499 -0.06312244
0001e0 cd f5 8e 3d 2a 47 2c 3d 72 cd 2f bd 5f 14 c0 bb
       0.069804765 0.042060055 -0.042920537 -0.0058618034
0001f0 f9 25 8c 3d be ab 6b bb 25 ae 4b 3d 08 6f 9a 3c
       0.0684318 -0.003596052 0.049726624 0.018851772
000200 df 93 8b 3b d2 87 76 bb 6b 6c ec bc ec 28 eb bd
       0.004259571 -0.0037617576 -0.028860291 -0.114824146
000210 03 1a a2 bc 39 2c c8 bd 6c a9 a1 bd df 55 87 bd
       -0.019787794 -0.0977406 -0.07893643 -0.066081755
000220 d0 3e 7b 3d 9d a0 1a 3d 9b be 20 bc 2b 26 83 3c
       0.0613392 0.03775083 -0.009811069 0.01600941
000230 b5 19 f2 3d df 66 a8 3d cb a2 95 3c ff 40 43 3c
       0.118213095 0.08222746 0.018266102 0.011917352
000240 09 e2 a4 bd b0 6d 6e bd e7 e4 95 bd a7 49 02 bd
       -0.08050925 -0.058210075 -0.0731905 -0.03180852
000250 d2 5e cb bc 72 d9 1d bd 96 54 9a bd 40 02 64 bd
       -0.024825487 -0.03853745 -0.07535665 -0.05566621
000260 00 39 80 bd cd 48 ce bc bb 73 bf bd f5 10 a7 bc
       -0.06260872 -0.025181198 -0.09348246 -0.020393828
000270 5c 31 4f bd c1 f5 05 be c1 6f 02 3d 78 a8 a5 bd
       -0.050584182 -0.13082029 0.031844858 -0.080887735
000280 5c bc 3d bc 31 41 97 bd 65 e8 b6 bd ad e9 c1 bd
       -0.011580553 -0.07385481 -0.089310445 -0.09468398
000290 a5 4f b6 bd 34 c1 44 bc 2f d2 8b bd 8c 35 29 bd
       -0.0890191 -0.012008954 -0.06827199 -0.041310832
0002a0 35 be d7 bd f5 8a c9 bd 2b ff c8 bc 17 bf 20 3b
       -0.10534326 -0.09840957 -0.024535736 0.002452796
0002b0 6f 1f d7 3b a8 1e b1 bd 2d 5a d9 bb 79 0c 9e bd
       0.0065650265 -0.08648425 -0.0066330642 -0.07717223
0002c0 2b 34 19 bd ad ab 2b 3c 3d 79 95 3c dd 12 f8 bc
       -0.037403267 0.010477942 0.018246287 -0.030282432
0002d0 79 bc 6e bd 7a 4c 9b bd 0f 06 e3 bc d4 23 4e bd
       -0.05828521 -0.07582946 -0.02771285 -0.050327137
0002e0 59 ed b4 bc d6 72 d7 bd 01 d4 a4 bd 44 0f a3 bd
       -0.022085832 -0.1051995 -0.08048249 -0.07961896
0002f0 dc 28 c1 bd 87 9d c5 bd cd 04 86 bd ec ea ef bc
       -0.094316214 -0.096491866 -0.065438844 -0.029286824
000300 19 51 01 bd e1 1c 0f bd 7e 6f b3 bd 05 40 ab bd
       -0.03157148 -0.03493965 -0.087615 -0.0836182
000310 be 59 98 bd f4 19 a1 bd 0b eb f0 bd 28 91 07 3c
       -0.07438992 -0.07866278 -0.11763581 0.008274354
000320 4a 57 ae 3c ee 00 5a 39 28 0f d2 3b e8 84 5e 3d
       0.021281857 0.00020790446 0.006410498 0.054325968
000330 1d 1d 8a 3d 36 fa b2 3c f0 89 bb 3d 9b 1e f3 bd
       0.06743834 0.021847825 0.09157169 -0.11871072
000340 55 05 7c bd 13 36 c5 bc 78 ef 80 bd 3b bb c0 bd
       -0.061528523 -0.024073636 -0.06295675 -0.094107114
000350 d0 dd 2a bc 7c 1b 38 bd e4 14 ea bc 02 f0 98 bd
       -0.010428861 -0.044948086 -0.028574415 -0.07467653
000360 b6 60 92 bd 46 4d ab bd c7 d0 bc bd 5f 81 8c bd
       -0.071473524 -0.08364348 -0.092195086 -0.06860613
000370 49 c7 28 bd 80 96 04 bd 5d 59 e5 bc 72 1a 95 bd
       -0.041205678 -0.03237009 -0.027996713 -0.07280435
000380 bc dd c6 bc 02 3d de bd 8e bd 7d bd 54 61 a8 bd
       -0.024275653 -0.1085148 -0.06194835 -0.08221689
000390 c6 41 cf bd 44 35 b5 bd c9 5e d4 bd ca fa d0 bd
       -0.10119967 -0.0884805 -0.10369641 -0.10204084
0003a0 e5 a7 eb bd 50 99 83 bd e8 76 9c 3d 5a e6 eb 3a
       -0.11506633 -0.064257264 0.07639867 0.0017997727
0003b0 51 a7 d2 3d 03 70 bd 3c 11 f3 a4 3c 7c eb 8f 3d
       0.10285819 0.0231247 0.020135434 0.07027337
0003c0 89 8d f9 3b 27 28 5a 3b 28 e7 d3 3b 75 75 55 bd
       0.0076157493 0.0033288093 0.006466765 -0.05211397
0003d0 3d 5d 6c 3d f6 fe 99 3d e3 f5 a6 3d dd 19 d5 3c
       0.057706106 0.07519333 0.08152368 0.02601331
0003e0 0c 07 c9 3c dc b9 88 3d 1c a0 16 3d 0e 54 10 3d
       0.024539493 0.06676075 0.036773786 0.03523641
0003f0 17 c4 40 bd a5 b2 e9 bd 89 3b f2 bc b7 22 cd bd
       -0.047062006 -0.11411027 -0.029569404 -0.10016387

bias f4 [64]
000000 aa 4d a6 bd bb 48 ad bb 06 41 aa bb fd 69 2c bd
       -0.08120282 -0.005288211 -0.0051957397 -0.042093266
000010 aa 18 8e bd 34 8b 85 bd fb 46 d8 3d c9 ab 99 3d
       -0.06938298 -0.065206915 0.105604135 0.075034685
000020 4f f7 f9 ba 0d 04 26 be a8 6d bb 3c 2c 40 ce b9
       -0.0019070896 -0.16212483 0.022879437 -0.00039339194
000030 b3 da 91 3c 01 5e 95 bd d8 b8 96 bd 38 29 24 bd
       0.01780448 -0.072933204 -0.07359475 -0.04007837
000040 10 f1 c9 bd 90 39 89 bd f7 c3 d6 bd ef 60 d7 3c
       -0.09860432 -0.06700432 -0.10486596 0.026291339
000050 05 b8 d5 bd a9 38 dd bc d5 74 5d 3d d3 2f c8 bd
       -0.104354896 -0.027004557 0.054066498 -0.09774747
000060 89 f3 98 3c 65 1a 1e 3e 68 8b 18 bd 53 44 cc bc
       0.018670814 0.15439756 -0.037242323 -0.024934923
000070 fc dc 4d bd c2 54 ed bb 38 ff 7f bc aa 37 4e bd
       -0.050259575 -0.00724277 -0.015624814 -0.050346054
000080 35 7d a2 bd 12 f0 93 bc 4d c2 a9 bd e3 f4 f8 bc
       -0.079340376 -0.01805881 -0.08289013 -0.030390209
000090 42 14 07 3d cd 44 f7 3a 48 a0 be 3c dc c1 d3 bc
       0.032978304 0.0018865109 0.023269787 -0.025849275
0000a0 a4 02 8d bd bb 37 0d be f5 ad 0c bd be 6e f0 bd
       -0.06885269 -0.1379079 -0.034345586 -0.117398724
0000b0 15 ee 11 bd ee df 46 bc 81 15 4c bc 01 e3 ec bd
       -0.035627443 -0.01213835 -0.012456299 -0.11566735
0000c0 11 a1 ae bd c9 ce 84 bc 6a d6 48 3d 54 7b 4a bd
       -0.08526815 -0.016211884 0.049032606 -0.04943402
0000d0 03 7b e9 bc 75 02 38 3e 2e b2 18 bd 9f 86 e7 39
       -0.02850104 0.17969687 -0.0372793 0.00044160054
0000e0 ad 57 04 be 8b 4d 80 3a 34 0c be bc b1 a6 a5 bd
       -0.1292407 0.0009788735 -0.023199178 -0.080884345
0000f0 43 bc 34 bd 18 86 81 3d a2 7d 8d bd 9d 9c 1c 3d
       -0.044124853 0.063244045 -0.06908728 0.038235296

weight f4 [64, 32, 3, 3]
000000 19 7e 97 3d a2 e0 a6 3d 80 ae 70 bd f0 a0 29 3d
       0.07397098 0.08148314 -0.058760166 0.041413248
000010 68 c8 08 3d 28 af 07 3c b8 f3 13 3d 6b 1e 4d 3d
       0.033394247 0.008281507 0.0361211 0.050077837
000020 ce d7 04 3d 52 8f 94 3d 11 d6 be 3d ce 0b a7 3c
       0.03243237 0.07253899 0.09318174 0.020391371
000030 6e ab b7 3d 9e 70 91 3d a9 0e ae 3d 68 cd 60 3d
       0.089682445 0.07101558 0.0849889 0.05488339
000040 2e 93 5f 3d 47 c7 f1 3d d8 4e 97 3d 2b ca 82 3d
       0.05458372 0.11805587 0.07388085 0.06386217
000050 f4 62 65 3c 71 76 9a 3c dc e3 e3 3b 90 4e 2b 3d
       0.014000643 0.018855305 0.006954653 0.04182297
000060 c1 c2 60 3b 3d dd 25 3d 8a 72 19 3b f8 e4 23 bc
       0.003429577 0.040494192 0.0023414218 -0.010003321
000070 2c 24 7f bd 3c 82 6f bd 9c 55 1d 3c b0 20 9e bd
       -0.062290356 -0.05847381 0.00960293 -0.077210784
000080 f2 a3 04 bd 4a 5c d0 bc c8 a7 bc bd cc 2c 21 bd
       -0.032382913 -0.025434632 -0.09211689 -0.039349362
000090 6c 79 0e bd 57 b8 d1 bd 40 25 a7 bd a7 2d 2f bb
       -0.034783766 -0.10240238 -0.08161402 -0.0026730092
0000a0 83 70 cb bd 0c eb c9 bc 80 f7 a5 bb f0 ba 65 bc
       -0.09933569 -0.024648212 -0.0050649047 -0.01402162
0000b0 06 f7 e5 bd c8 52 6f bd 7a f8 a0 bc 80 49 40 bb
       -0.112287566 -0.058428556 -0.019649733 -0.0029340684
0000c0 68 06 05 bd 20 98 7c bc ce 22 03 bd e9 fe 82 bd
       -0.032476813 -0.015417129 -0.032015614 -0.063962765
0000d0 15 2b 7c bd 5f 94 c2 bd fc 8b 5f bd 4d b0 97 bd
       -0.061564524 -0.09500956 -0.05457686 -0.074066736
0000e0 dc c2 2a 3c 45 d4 1a 3d 48 39 7e bc 20 bd 7d 3c
       0.010422435 0.037800092 -0.015516587 0.015486985
0000f0 0a cc 63 bd 7d ea 3a 3b c8 91 6a bd 8f 02 c0 bd
       -0.05561451 0.0028521114 -0.057267934 -0.09375488
000100 87 a5 e4 bb 4d f5 41 3d 16 8c c4 3d 4c a7 92 3d
       -0.00697774 0.047353078 0.09597032 0.071608156
000110 12 56 a8 3c ef a8 00 3b 02 74 0e 3c ee dc 4d 3d
       0.020548854 0.0019631942 0.008694651 0.050259523
000120 d9 f1 a0 bd 00 5f e4 bd d0 a4 b8 bd 95 0f 30 bd
       -0.07858629 -0.11150932 -0.090158105 -0.04298361
000130 d0 96 a7 bc 6a 90 11 bd f3 2e f1 bd 2e d9 8c bd
       -0.020457655 -0.035538115 -0.11776533 -0.06877361
000140 ed 79 ca bd 38 a7 cd bb 11 82 03 3d ac 2d 10 bc
       -0.09886537 -0.0062760375 0.032106463 -0.0087999515
000150 d8 ab 2f bc 20 1c 91 ba 14 30 68 3c 40 e4 2e bd
       -0.010722123 -0.0011071004 0.014171619 -0.042698145
000160 40 7a 40 3b 33 b8 0c 3d 3d 0c 91 3c 16 0a 47 3d
       0.0029369742 0.034355354 0.017706031 0.048593603
000170 86 7e 13 3d 68 5b 75 3d 79 ac 43 3d f3 b7 cc 3d
       0.036009334 0.059901625 0.047771905 0.09996023
000180 87 ec a8 bd 63 91 61 3d 6e 4f a1 bd 2f 72 9e bd
       -0.08248239 0.055070292 -0.07876478 -0.077366225
000190 cc 51 b8 bc 83 90 7e bc 2f e0 cb bd cf 18 4d bd
       -0.022499941 -0.015537384 -0.09954869 -0.050072487
0001a0 e2 a5 af bd 3e 1d 10 bd df fe f4 bc 51 e5 d0 bd
       -0.085765615 -0.035184138 -0.029906688 -0.10199989
0001b0 92 65 96 bd 93 2c ec bc a4 11 af bc 81 76 6a bc
       -0.07343592 -0.028829848 -0.021370716 -0.01431048
0001c0 52 50 a1 bd df 79 e7 bd 0b eb dc bd b7 00 92 bc
       -0.07876648 -0.11302542 -0.107870184 -0.017822606
0001d0 2c 51 1b bd f2 ae b3 bc 90 f8 4b bc cc 43 2a bc
       -0.03791921 -0.021934006 -0.012449399 -0.010392141
0001e0 91 97 51 3d 29 cb 50 bd 52 77 9a bb 59 12 ea 39
       0.051169936 -0.050975 -0.004713931 0.00044645628
0001f0 4c 9b f5 3c 23 c0 7c 3c eb 9b 9a bb 95 70 b8 3d
       0.029981278 0.015426668 -0.004718294 0.09005848
000200 33 51 93 3d 90 aa 6d 3d 19 57 cb 3d 90 5f d4 3d
       0.07193222 0.05802399 0.09928722 0.103697896
000210 60 65 90 3d 3b 84 bc 3d b6 cc 92 3b d7 95 9a bc
       0.07050586 0.092049085 0.00447997 -0.018870277
000220 09 73 27 bd d2 d9 a5 3d ef 5c c9 bd b1 0a de bc
       -0.04088119 0.080981866 -0.09832179 -0.027104707
000230 45 d5 e2 3d 5f 90 b3 bd e9 bb df bc 08 77 b3 bd
       0.11075834 -0.08767771 -0.027311282 -0.08762938
000240 60 6f c2 3c 5e 39 a4 3d 1b 3d 8c 3c b1 9d dd 3c
       0.023734748 0.080187544 0.017118981 0.027052732
000250 b1 2f 87 3d 9f dc 95 bd 0c 96 84 bd 95 f7 5f bd
       0.06600893 -0.07317471 -0.06473932 -0.054679472
000260 a5 c5 60 bd 1e fe c2 bd 47 4f b7 3c 63 f5 89 3d
       -0.05487599 -0.09521125 0.02237667 0.06736257
000270 ad 2e ab 3d 58 35 38 3c 45 d2 b3 3d bf c7 a8 3d
       0.08358512 0.011243187 0.0878034 0.082412235
000280 eb d8 41 3d 5e f7 54 3d 05 9b b3 bd b2 e6 3c 3d
       0.04732601 0.05199372 -0.08769802 0.046118446
000290 b8 1c b8 3d a6 41 9e bd 1e cc 82 bd 43 36 cc 3d
       0.08989853 -0.07727365 -0.063865885 0.09971287
0002a0 d5 6b b1 bd 37 6d bc bd f3 20 72 bc 95 a0 a5 bd
       -0.086631455 -0.092005186 -0.0147783635 -0.08087269
0002b0 6d 30 a8 bd 1b 75 dd bd 9e da 5c bd 36 d5 bd bc
       -0.082123615 -0.10813352 -0.053919427 -0.023172956
0002c0 bf 94 69 bd 9c 98 a3 bc 87 b8 36 bd 27 0a 1e bc
       -0.05702662 -0.01997023 -0.044609573 -0.009645975
0002d0 a6 b0 2d 3b ad e7 33 ba 03 77 ab 3d 83 82 b7 3d
       0.0026502996 -0.00068628305 0.08372309 0.0896044
0002e0 71 c3 9d 3d e7 5b 99 3d 9f 7b 71 3d 4f f6 9b 3d
       0.07703293 0.07488232 0.058955785 0.07615339
0002f0 10 e4 9c 3d ba a8 c0 bd 92 e1 75 3d 29 aa 9f 3d
       0.07660687 -0.09407182 0.060029574 0.07796127
000300 60 a2 44 3d 0c 45 56 3c 2c 76 e6 3d c4 bb 9a bd
       0.048006415 0.0130779855 0.11253008 -0.07555345
000310 ee 66 35 bd ce 9b 2a 3d 31 e3 fa bd 0e 64 b7 bd
       -0.044287615 0.041652493 -0.122503646 -0.08954631
000320 45 ce 8f bd b9 db 6d bd 7a 82 69 3d 03 bf 75 3d
       -0.07021765 -0.058070872 0.057009198 0.059996616
000330 c6 96 37 3d b1 dc 97 3d 32 28 df 3d 52 7f 07 bc
       0.044821523 0.074151404 0.108963385 -0.008270102
000340 93 01 a7 bd 23 07 2f bc b0 86 8b bc 03 d0 dc bc
       -0.08154597 -0.010682854 -0.017031997 -0.026954656
000350 09 2d 57 bd d8 b9 aa bd 41 a2 f2 bd 7f 75 c3 bd
       -0.052533183 -0.08336228 -0.11847354 -0.09543895
000360 47 84 36 bd bd 57 da bd 88 52 94 3c f6 ca 74 bd
       -0.044559743 -0.10661266 0.01810576 -0.05976387
000370 19 cb 2a 3d e6 1d d1 3d 65 9f 92 bd f3 8d 0b 3d
       0.041697595 0.10210781 -0.07159308 0.03407092
000380 51 17 5a 3d 63 15 58 3d 59 4d 0c 3d 68 4a bd 3b
       0.053244893 0.05275477 0.034253452 0.005776692
000390 0a ac 24 bd 4c af 24 bd 89 28 6e 3d b6 13 26 ba
       -0.04020313 -0.04020624 0.058144126 -0.00063353346
0003a0 e4 b3 cb 3d 6c 0e 14 3d c5 ca 8c bc af 84 83 bd
       0.09946421 0.036146566 -0.017186532 -0.06421792
0003b0 d6 aa 64 bd 13 ba ca bc a6 77 8b bd 0e 81 e7 3c
       -0.055826984 -0.02474693 -0.068099305 0.02825978
0003c0 38 d9 bc bd 1d 06 74 3a 54 a9 2b 3d b3 ea 78 3d
       -0.09221119 0.0009308772 0.04190953 0.0607707
0003d0 87 78 ee 3d 26 66 b3 3d 59 4f ee 3d 62 ac 14 3d
       0.116440825 0.08759718 0.11636228 0.03629721
0003e0 f9 4a a9 3c 44 20 40 3c bc d6 ba 3d 4d 4c 9e 3c
       0.020665633 0.011726443 0.091229886 0.019323492
0003f0 c9 c9 09 3e fb ba 87 3d 71 0b a2 b8 cc ac 89 3d
       0.13455881 0.066274606 -7.726893e-05 0.067224115

bias f4 [32]
000000 26 45 ce bd a6 f6 43 3d 06 14 0e 3e 3b 08 cf bd
       -0.10071783 0.047842644 0.13874826 -0.10108992
000010 84 82 b4 bc a8 7c 88 3c 26 01 d6 bc cd 21 20 3e
       -0.022034891 0.016661003 -0.026123594 0.15637894
000020 0c 25 97 bd 13 f5 c1 3d 2a 39 bb bc ce eb be bd
       -0.07380113 0.09470572 -0.022854406 -0.0932232
000030 88 d6 2d 3d da 70 8a bd 91 78 f7 3d d7 a7 1a 3e
       0.04244092 -0.06759806 0.12083543 0.15103088
000040 b9 00 b2 3d 22 ec b6 bc 2b 9e e4 3d 5a 79 79 3d
       0.08691544 -0.022329394 0.11162981 0.060906745
000050 83 57 22 3d 32 cd 03 3e 0a 1f 88 3d 6b a5 72 3e
       0.03963424 0.12871245 0.06646545 0.23695914
000060 25 25 84 bd ea 33 59 bd 53 e4 24 3d 37 64 08 3e
       -0.06452397 -0.053028025 0.04025681 0.13319479
000070 56 e7 de bd 3d 3a f3 bc 0e a1 01 3e 29 c4 ec 3d
       -0.108839676 -0.029690856 0.12659094 0.11560852

weight f4 [32, 16, 3, 3]
000000 4c bb 13 bd fe f3 71 bd fc 34 55 bc b5 2e 74 bc
       -0.036067292 -0.05907058 -0.013013121 -0.014903714
000010 a2 35 d5 39 14 c8 db bc 8a 62 21 bd 22 3e b9 bc
       0.00040666485 -0.026828803 -0.039400615 -0.022612635
000020 63 6f 09 bd 46 23 81 3d d0 91 3a 3d 01 5d 11 3e
       -0.033553492 0.06305556 0.045549214 0.14195634
000030 ea a9 c8 3d 45 fa b2 3c 22 0e 83 3d 1c 4c 33 3d
       0.097980335 0.021847853 0.0639918 0.043773755
000040 6f c1 fb 3d e9 d6 ac 3d 16 d8 d0 bc db 2e 0c be
       0.12292754 0.08439428 -0.025493663 -0.13689749
000050 de 23 83 bd f9 e3 f4 bd 38 71 d3 bd e3 38 c5 bc
       -0.064033255 -0.11957545 -0.10324329 -0.024074977
000060 b9 d4 e3 bc 5e bc 17 be e9 05 17 bc b6 0e b1 3c
       -0.027811395 -0.1481795 -0.009217718 0.02161346
000070 f2 d3 6d bd 9e 6d e3 bc d9 a5 b1 bd 95 6f 02 bd
       -0.058063455 -0.02776223 -0.08674211 -0.031844694
000080 74 b5 ad bc 6e e1 d5 3d ef 15 fa 3d 2a e0 b1 3c
       -0.021204688 0.10443388 0.12211215 0.021713335
000090 68 0c 12 3c 94 a2 ad 3c d2 00 ad 3d 11 2d 10 be
       0.008914091 0.021195687 0.08447422 -0.14079691
0000a0 f1 74 08 bd 47 0b 2d bd 6b ed f0 bd 6d 18 73 bd
       -0.03331465 -0.042247083 -0.11764034 -0.059349466
0000b0 50 9f 1b bd 5b b2 d0 bd 01 2e 40 bd 7b f7 56 3c
       -0.03799373 -0.101902686 -0.046918873 0.013120527
0000c0 d3 c8 04 bd 48 3a ec bc b5 51 fb 3c 64 65 8e bd
       -0.032418083 -0.028836384 0.03067861 -0.069529325
0000d0 6b 46 af bd 80 2c 05 bd 95 9b 55 bd 64 d2 e9 3d
       -0.08558353 -0.03251314 -0.052150328 0.11417082
0000e0 11 1f 42 3d 29 5a a8 bc dd 93 a3 3b 39 7d 5b 3d
       0.04739291 -0.020550804 0.004991992 0.05358622
0000f0 f4 68 49 bd f6 93 c8 bc b6 84 be 3d 64 89 0d 3e
       -0.049172357 -0.024484616 0.09302656 0.13821942
000100 58 0a 8c 3d e8 c8 e3 3c ab 12 39 bd 1a e1 dd 3c
       0.068379104 0.02780576 -0.04518382 0.027084876
000110 8f 1a e4 3c bf 8e 8e bd cf a2 77 bd af c6 08 bd
       0.027844695 -0.069608204 -0.060458 -0.033392604
000120 aa 02 1b 3b 7b 41 df bd fd 73 b7 bd 64 d7 30 bc
       0.002365271 -0.10901161 -0.0895767 -0.010793541
000130 53 ec 07 be ea 9f e5 bd 67 15 fa bd 74 fb b3 bd
       -0.13273744 -0.11212142 -0.122111134 -0.08788195
000140 06 03 c8 bd 2f 8b ea bd ac 0d 8d bc dd 84 83 3d
       -0.09766202 -0.114523284 -0.017218433 0.06421826
000150 5e a1 1d be 5d b8 57 be aa fd 8c bc 92 f9 e8 bd
       -0.15393588 -0.21066423 -0.0172108 -0.11375727
000160 46 7f 30 be f1 85 1d be 9e 3d 4d bc 60 3a 79 bd
       -0.17236051 -0.15383126 -0.012526898 -0.060846686
000170 ed 1b c1 bd 39 4e 60 bd 39 09 8f bc 08 74 09 3c
       -0.094291545 -0.0547621 -0.017460452 0.00838948
000180 9c 98 90 bd e2 0c 62 bd 00 c3 25 be 17 0c b4 3d
       -0.07060358 -0.055188067 -0.16187668 0.087913685
000190 ba 24 ab bc 37 3b 76 bd 68 cc ca 3d 36 c6 2f bd
       -0.020891536 -0.060115065 0.09902269 -0.042913638
0001a0 91 07 71 3c 85 26 5f 3d 7e d6 af 3b e4 da 3d bc
       0.014711277 0.054480094 0.0053661456 -0.011587832
0001b0 40 e5 f3 3c 26 66 aa bd 9c 59 e6 bd 5d e6 4f 3d
       0.0297724 -0.083202645 -0.112475604 0.0507568
0001c0 d7 54 c3 3c 09 ee 9d 3d 1a 94 a4 bc 6c 9e 4b bc
       0.023844166 0.07711417 -0.020090152 -0.012427907
0001d0 c9 fd 04 3e 53 32 c3 bd 17 44 1b 3c 28 29 a3 bc
       0.12987436 -0.09531083 0.009476683 -0.019917086
0001e0 cb 7d 9b bd b8 2d 09 be 40 10 8a bd 9e 67 de bd
       -0.075923525 -0.13396347 -0.06741381 -0.10859607
0001f0 2c cf 31 be 82 a9 11 be 36 41 b0 bc 4a df 26 be
       -0.17364186 -0.14224818 -0.02151547 -0.16296116
000200 26 78 7a bd d2 fa 6d bd 28 8f c0 bd d5 13 07 be
       -0.06114974 -0.05810053 -0.09402305 -0.13191159
000210 40 ab e5 bc b8 56 84 bd 5e 48 bd bd 77 93 a1 bd
       -0.02803576 -0.06461853 -0.092423186 -0.07889455
000220 fb 81 54 3d ff 83 87 3d 73 3a 29 bd b7 72 a7 bc
       0.05188177 0.06616973 -0.041315507 -0.020440442
000230 5d 5c 0f 3e 28 7a 36 bb 35 ec e8 3d 2a ab 8b 3d
       0.14000078 -0.0027843807 0.11373178 0.06819756
000240 eb ae b6 3d cf 84 c4 3c 6a 54 02 3d 1c 7b 11 bd
       0.08920082 0.02398911 0.031818785 -0.035517797
000250 d2 fe 84 3d c2 eb 1b 3c 0d 32 3f 3d de 79 36 bd
       0.064939156 0.009516658 0.04667859 -0.044549815
000260 c1 3a e9 3c 22 ff 45 be ad 5d 2f bd c0 82 44 3d
       0.028470399 -0.19335607 -0.042813946 0.047976255
000270 3f 9a 86 be 4b fd 00 bc a9 65 10 3d 39 a7 3b be
       -0.26289555 -0.00787289 0.0352532 -0.18325509
000280 44 ab 3b 3b 5c 78 40 bc ff 50 4e 3d 7d 7e 80 3d
       0.0028636018 -0.011747446 0.050370213 0.06274126
000290 b3 e4 ad bc b1 dc 0c bd d9 3e 71 3d 95 45 dd bc
       -0.021227216 -0.034390155 0.058897827 -0.027010718
0002a0 26 60 80 bd a6 a7 c3 3c 1d 02 8b bd 30 44 99 bd
       -0.06268339 0.023883652 -0.067875125 -0.07483709
0002b0 00 2f 06 be e8 db 1b bd d2 63 86 bd 72 69 d0 3c
       -0.13103867 -0.038051516 -0.06562008 0.025440905
0002c0 42 4f 13 3d b8 42 39 bd 67 68 69 bc 40 09 be bd
       0.035964258 -0.045229644 -0.014246083 -0.09279108
0002d0 eb 61 81 bd 5d 4c 8a bd 95 3b 1f bd 78 03 cc bd
       -0.063175045 -0.067528464 -0.03887518 -0.09961599
0002e0 72 1c f4 bd 7a a7 a4 3c f3 73 04 bc 7b 9c 8f bd
       -0.11919488 0.02009939 -0.008084285 -0.07012268
0002f0 5e 55 04 bc 1a a7 04 be dd 14 a1 bd d0 de 0e be
       -0.008076994 -0.12954369 -0.078653075 -0.13952184
000300 e2 61 7b bc 20 24 02 3d ca 15 13 3e 63 80 3c 3c
       -0.015343161 0.031772733 0.1436378 0.011505219
000310 2c d1 7a 3d e7 13 80 3d cb ae 6b bd 1c db eb bd
       0.061234638 0.06253796 -0.057539742 -0.11516401
000320 a8 a3 eb 3d 90 3c d1 bd d4 ce 8b be 41 40 03 be
       0.11505824 -0.102166295 -0.27306235 -0.1281748
000330 d8 18 40 bc d1 62 aa bd 8d 0e 95 3c 78 50 09 3e
       -0.011724673 -0.08319629 0.018195415 0.13409603
000340 2f 40 4f bd 96 45 b4 bc 45 22 df bc 20 16 a7 bd
       -0.05059832 -0.022005837 -0.02723802 -0.08158517
000350 82 96 cd bd da 4a 1d 3d a3 4d 9e ba cd 5c af 3c
       -0.10038473 0.038401462 -0.0012077581 0.021406556
000360 d2 9b ee bd 99 74 03 be 61 cd bb bd c1 87 28 bd
       -0.11650814 -0.12837447 -0.09170032 -0.04114509
000370 f3 6a e7 bd 9c ed be bd f7 78 e7 bd f5 9f 7f bd
       -0.11299696 -0.09322664 -0.11302369 -0.062408406
000380 bf 10 b4 bc 6f 54 6f 3b 6e 8c 26 bd c7 32 a3 bc
       -0.021980641 0.0036518832 -0.040661268 -0.019921673
000390 20 e2 11 bd 89 bf 68 bd be e8 e5 bb 2d 47 f6 bd
       -0.03561604 -0.056823287 -0.0070162704 -0.120252945
0003a0 8f a4 f8 bd 85 72 cb 3b 99 b0 8f 3c 1c f8 47 bd
       -0.12140762 0.00620872 0.017540263 -0.0488206
0003b0 6d fb 1a bd 1f d2 49 bd 40 9d 09 3c 9a bd 07 be
       -0.037837435 -0.049272653 0.008399308 -0.13255921
0003c0 d9 ef e2 bd 88 80 c8 bc 85 ab ae bd 84 b9 9b 3e
       -0.110809036 -0.024475351 -0.085288085 0.30414975
0003d0 2e a0 0c 3e 0c 43 b1 3d 38 f0 f6 3d d3 8d 29 3d
       0.13732979 0.08655366 0.12057537 0.04139502
0003e0 f9 58 21 3d b4 bb 7f 3e 6b 84 2b 3e f4 30 4e 3e
       0.03939149 0.24973947 0.16749732 0.20135862
0003f0 4a c5 b1 3b d2 0d e8 bd e2 b6 38 bd 15 34 99 3c
       0.00542513 -0.11330761 -0.045096286 0.018701592

bias f4 [16]
000000 a1 38 57 3e 75 a4 19 be cc d4 49 3e 2f 5b 73 3e
       0.21017696 -0.15004142 0.19710082 0.23765253
000010 1b 8c a5 bd 95 d1 d9 bd 9b c6 5d 3c 5f b6 cb 3d
       -0.080833636 -0.10635678 0.013536121 0.09946894
000020 af 98 fe bd a6 83 8f 3d b1 90 d9 bd 8b 0e f0 3d
       -0.12431466 0.07007532 -0.10623301 0.11721524
000030 2a 13 55 3d e1 b5 d3 3d 17 e8 d2 bd 1b 92 79 3d
       0.05202023 0.10337425 -0.10298174 0.060930353

weight f4 [16, 1, 3, 3]
000000 a0 7b a3 be 70 16 81 be 92 f4 11 be f4 a7 dc 3d
       -0.31930256 -0.2521243 -0.14253452 0.10774222
000010 9b 87 37 3e c1 01 aa be 33 e1 76 be f9 9a 85 be
       0.17922823 -0.33204463 -0.24109344 -0.26094797
000020 98 19 e1 3d a7 23 4c 3e 6f 71 ba 3d 7d 8d f0 bd
       0.1099121 0.19935475 0.09103667 -0.11745737
000030 fa c7 84 3e a1 99 62 be 99 bd b4 3e d3 10 30 3e
       0.2593382 -0.22128917 0.35300902 0.17193918
000040 a9 4e 7e 3e 20 c5 2a 3e d2 f8 15 3e 3e 9c 0a 3e
       0.24834694 0.1667676 0.14645699 0.13536164
000050 cb 09 ba be 54 39 06 be 65 97 ca be 55 4d 79 be
       -0.36335596 -0.13107806 -0.3956863 -0.24345906
000060 0e c4 57 be 90 aa b5 be d9 9b f6 3c 29 c5 82 3e
       -0.21070883 -0.3548169 0.03010361 0.25541046
000070 9d a4 1e 3e 78 59 82 3d 58 8e 44 be 43 79 4d be
       0.15492482 0.06364721 -0.19194925 -0.20065789
000080 26 d3 87 3e 42 eb bd be 10 7b da bd e5 7c ae be
       0.2652828 -0.3709355 -0.106680036 -0.34079662
000090 06 bf a9 be 4f 64 f2 bd 97 69 f8 be e5 71 f8 3d
       -0.33153552 -0.118355386 -0.4851806 0.12131099
0000a0 fb 65 88 3e 3b e8 33 be 80 fa 0c 3e 2d a7 98 3e
       0.26640305 -0.17569058 0.13767433 0.29815045
0000b0 72 34 09 3e 42 95 2b 3e f3 dc a8 be d5 e3 89 bd
       0.13398913 0.16756156 -0.3298107 -0.06732909
0000c0 e7 29 3d 3d 10 7a 35 3d 28 f2 07 3c 71 22 da 3c
       0.04618254 0.04430586 0.008297481 0.026627751
0000d0 30 9f 40 be 14 9b cb be a3 25 ce bc dd 78 3d 3e
       -0.18810725 -0.39766753 -0.025164431 0.18503137
0000e0 b3 cd a9 be 58 f3 42 3e dd 82 9c be e5 1e 23 bd
       -0.3316475 0.19038141 -0.3056859 -0.039824385
0000f0 c2 fb 9a 3e 74 72 3a 3e 6b b9 ed bd 48 38 1c be
       0.302702 0.18207723 -0.11607631 -0.15255845
000100 f3 89 79 be f3 10 10 3e 0b c1 ce 3d 8a 69 93 be
       -0.2436903 0.14068966 0.10095414 -0.28791457
000110 db 9a 7f be 81 d7 c4 bd 50 3b 8e 3e c6 61 9d 3e
       -0.24961416 -0.096114166 0.27779627 0.30738658
000120 b5 0a 8e be 54 d9 30 3c 0b 9c 10 be 71 64 87 bd
       -0.27742544 0.010794003 -0.14122026 -0.066109546
000130 3d 8d 8c bd f0 5e be bd 46 18 2a 3e 48 ed b1 3e
       -0.068628766 -0.09295452 0.16610822 0.34751344
000140 03 ef a5 3d 7b 43 0f 3d 38 78 af be bf d8 57 bc
       0.081022285 0.034976464 -0.34271407 -0.013174235
000150 0d 22 5e 3e 64 d9 98 be 04 cd 84 be f9 7e 2f 3e
       0.21692677 -0.29853356 -0.25937665 0.1713828
000160 14 ea 76 bd ac 3a af be 10 f6 8d 3e 78 ee 46 3e
       -0.060281828 -0.3422445 0.27726793 0.19426906
000170 71 ae 18 be 14 4c 49 3e 67 ee 13 be 83 62 7f 3e
       -0.14910294 0.19657928 -0.14446412 0.24939923
000180 3b 1e 4a be 55 ac b8 be cd 3b 13 3e bd 1c 54 be
       -0.19738095 -0.3606898 0.14378281 -0.20714088
000190 db 13 a8 bb c0 83 20 3e e5 55 bc be 5f c7 e0 3c
       -0.00512932 0.15675259 -0.36784282 0.027438818
0001a0 52 d6 7a 3e c4 e1 21 be 32 b7 94 3d 9c c4 43 be
       0.24495819 -0.15808779 0.07261504 -0.1911797
0001b0 51 15 92 3e fa 81 c7 3e 3e d6 ad be 89 95 84 bd
       0.28531888 0.38966352 -0.33952516 -0.06473834
0001c0 17 28 45 bd 69 2a 86 be ea 70 80 3d ed d9 44 be
       -0.048133936 -0.2620423 0.06271537 -0.19223757
0001d0 4c be 2b 3e ec 7e 2c be b4 f6 25 be 86 4d 70 bd
       0.16771811 -0.16845292 -0.16207391 -0.058667682
0001e0 d0 1e ab be b0 6e a0 be 72 95 9a be b7 29 75 3d
       -0.33421946 -0.31334448 -0.30192143 0.059854236
0001f0 26 2b 43 be eb dd da 3d 45 86 4d bf d0 5b 09 3e
       -0.19059429 0.10686859 -0.80283004 0.1341393
000200 84 db 0c 3e 4e 80 54 3e 73 42 01 be 08 59 06 3e
       0.13755614 0.2075207 -0.12623005 0.131199
000210 3d 06 6f 3e 6c 8f d9 bd 28 56 60 3e 7a 26 a2 3c
       0.23342223 -0.10623059 0.21907866 0.019793738
000220 fc 1e dd 3b 65 1e 66 bc d2 78 ef 3c ec 39 57 3e
       0.0067480784 -0.014045333 0.029232416 0.21018189
000230 45 1a 9c be 4a 06 4a 3e b8 03 d0 bd 48 b3 82 be
       -0.30488792 0.19728962 -0.10156959 -0.25527406
