output/model_30.pth (torch, 193666 bytes, 11 tensors)

weight f4 [16, 1, 3, 3]
0	0x3cc02c25	0.02345855
1	0x3e2877f2	0.16452006
2	0x3e3c1018	0.18365514
3	0x3eb66564	0.3562423
4	0xbd9cb12a	-0.07650979
5	0x3dea428f	0.11438476
6	0xbe279a2a	-0.16367403
7	0x3e7cffcf	0.24706958
8	0x3e78a0b5	0.24280055
9	0xbe7f7666	-0.24947509
10	0xbe83799e	-0.25678724
11	0xbe3385b8	-0.17531478
12	0xbe1dd386	-0.15412721
13	0xbe8fbf97	-0.2807586
14	0x3dfc8430	0.123299
15	0x3cdad190	0.026711255
16	0xbeaeae28	-0.34117246
17	0x3dd212d0	0.102574944
18	0xbd6238fe	-0.055230133
19	0x3ca00d09	0.019537466
20	0xbe782757	-0.24233757
21	0xbebbdb88	-0.36690927
22	0xbddcd6af	-0.10783135
23	0xbeaf3258	-0.34218097
24	0x3dee49d8	0.11635178
25	0xbead9638	-0.3390367
26	0x3d5ae32b	0.0534393
27	0x3eb39d8e	0.35081142
28	0xbe5dc5da	-0.21657506
29	0xbe1350e6	-0.14386329
30	0xbda3034d	-0.07959614
31	0x3f4c47d2	0.7979709
32	0x3e0daede	0.13836238
33	0xbe19eb06	-0.1503106
34	0x3dcd5b0c	0.100271314
35	0xbc5ec34a	-0.013596365
36	0xbe60df16	-0.219601
37	0xbd456e3b	-0.048200827
38	0xbe66f05b	-0.22552626
39	0xbe298a56	-0.16556677
40	0xbf1060a2	-0.5639745
41	0x3e3189d5	0.17337735
42	0xbe0fe4cf	-0.14052127
43	0x3e29cb0a	0.1658136
44	0x3ebff9ca	0.3749526
45	0xbd0cc0e5	-0.034363646
46	0x3d889f87	0.066710524
47	0x3e462c63	0.1935287
48	0x3d564487	0.052311447
49	0x3ebcc8d3	0.36871967
50	0x3e02f88f	0.1279013
51	0x3e9bbdc3	0.30418214
52	0x3e91e59f	0.284955
53	0x3de72cb4	0.11287823
54	0xbe81f350	-0.25380945
55	0x3e8fb3ec	0.28066957
56	0x3e9fb5e8	0.3119347
57	0x3dbba414	0.09162155
58	0x3d6934cf	0.056935128
59	0xbe90c369	-0.28274086
60	0x3d32889a	0.043587305
61	0xbec59905	-0.38593307
62	0xbf005b55	-0.5013936
63	0xbd9b1536	-0.07572405
64	0xbe66faf1	-0.22556664
65	0x3e8d8004	0.2763673
66	0xbef98c4b	-0.48739848
67	0x3dcc8789	0.09986789
68	0x3e3a296a	0.1817986
69	0xbe9c79eb	-0.30561766
70	0xbd730819	-0.059333894
71	0x3c3962e5	0.011315082
72	0x3e904a2f	0.28181598
73	0xbe81ac47	-0.2532675
74	0x3db7bfe7	0.08972149
75	0x3e14a34f	0.14515422
76	0x3ebe62d1	0.37184766
77	0x3e627b16	0.22117266
78	0x3e95e25b	0.29274258
79	0xbd86be8a	-0.06579311
80	0xbe745105	-0.23859031
81	0x3e50db13	0.2039607
82	0xbe828eff	-0.25499722
83	0xbf0b9c10	-0.5453501
84	0xbee2aab5	-0.44270864
85	0xbee7e2a8	-0.45290112
86	0xbef16133	-0.4714447
87	0xbf5afe03	-0.8554384
88	0xbf5c4672	-0.8604499
89	0xbf78f8ee	-0.97254837
90	0x3e92fec8	0.28710008
91	0x3ccde072	0.025131438
92	0xbe4c49c3	-0.19950013
93	0x3ec291f3	0.38001975
94	0xbe7ae2ca	-0.24500576
95	0xbe8ac610	-0.27104235
96	0x3e87c7a9	0.26519516
97	0x3e21608e	0.15759489
98	0x3de29b9b	0.11064836
99	0xbdb6c859	-0.08924932
100	0xbf17103a	-0.59009135
101	0xbffe22c3	-1.9854358
102	0x3e0fda83	0.140482
103	0xbf0871e9	-0.53298813
104	0xbfc9561e	-1.5729406
105	0xbdd4e8d3	-0.1039597
106	0xbe08dab7	-0.13364683
107	0xbfc902a3	-1.570393
108	0xbdd316f3	-0.103071116
109	0xbe1feddc	-0.1561808
110	0xbe8bb0d6	-0.27283353
111	0xbe66bc89	-0.22532858
112	0xbca711d0	-0.020394236
113	0xbdafd260	-0.08585048
114	0x3e00cae1	0.12577392
115	0x3d38c158	0.045106262
116	0xbdbc7fcb	-0.09204062
117	0x3c508b80	0.012728572
118	0x3d4e77fd	0.0504074
119	0x3debabbb	0.11507364
120	0xbd431f30	-0.047637165
121	0x3ebfc091	0.37451604
122	0xbe848438	-0.25882125
123	0xbcc84db4	-0.024451114
124	0x3e032a77	0.12809168
125	0xbdb16390	-0.08661568
126	0x3dfa3b12	0.12218298
127	0xbb8733cd	-0.004126048
128	0xbec0bb28	-0.3764279
129	0xbe05b9c2	-0.13059142
130	0xbdf09e59	-0.117489524
131	0x3e008352	0.12550095
132	0xbe229c08	-0.15879834
133	0x3e8da2ed	0.27663365
134	0x3e82e44a	0.25564796
135	0xbe2501e1	-0.16113998
136	0x3e3ea5b3	0.18617897
137	0xbd9c79dd	-0.07640431
138	0xbead311f	-0.3382654
139	0xba28e056	-0.000644212
140	0xbe4a287a	-0.19742003
141	0xbea87054	-0.328982
142	0xbdd37647	-0.10325294
143	0x3e17a03e	0.14807221

bias f4 [16]
0	0xbe4be5c8	-0.19911873
1	0xbeb1c2e7	-0.3471901
2	0x3e463b0d	0.19358464
3	0x3e75556a	0.23958364
4	0x3ca21412	0.01978496
5	0xbe817789	-0.2528651
6	0xb9bed8da	-0.0003640119
7	0xba94ff57	-0.0011367601
8	0xbbcd05d4	-0.0062567983
9	0x3dd5a3d4	0.10431638
10	0x3c453e43	0.01203877
11	0x3db0e41f	0.08637261
12	0x3e2d0f86	0.16900453
13	0xbeb6b869	-0.3568757
14	0x3ddda204	0.10821918
15	0xbe80bd91	-0.25144628

weight f4 [32, 16, 3, 3]
0	0xbdc5d79a	-0.09660263
1	0xbda6b9ef	-0.08140933
2	0xbd0ced07	-0.034405734
3	0xbe17cf63	-0.14825206
4	0xbce9b4e3	-0.028528636
5	0xbd56d9af	-0.052453693
6	0xbcc10861	-0.023563566
7	0xbca3618d	-0.019943977
8	0xbd0fb8a3	-0.035088193
9	0x3cfb8dfc	0.030707352
10	0x3d4d802a	0.050171055
11	0xbb4317e0	-0.002976887
12	0x3d2d6056	0.0423282
13	0x3c31ba48	0.010847636
14	0x3d9f5c4b	0.07781275
15	0x3d310616	0.043218695
16	0x3d1dd280	0.038530827
17	0xbcab0eac	-0.02088102
18	0xbc2c2e9a	-0.010509158
19	0xbd53b7b5	-0.05168887
20	0xbe182825	-0.14859064
21	0xbdb9e2c5	-0.09076456
22	0xbc406541	-0.011742891
23	0x3c01d5e1	0.007924528
24	0xbd92f9cb	-0.071765505
25	0xbd13405c	-0.03595005
26	0xbd4efd6d	-0.050534654
27	0x3d5a5045	0.053299207
28	0xbd23a3ad	-0.039951015
29	0xbd51b35f	-0.051196452
30	0xbc107454	-0.008816797
31	0xbdef335c	-0.11679718
32	0xbdce545b	-0.10074683
33	0xbdf15f91	-0.11785806
34	0xbcc8e1d4	-0.024521746
35	0xba0846d5	-0.0005198543
36	0x3cb35a45	0.02189363
37	0x3c30b99d	0.010786441
38	0xbddb79ac	-0.107165664
39	0xbca94970	-0.0206649
40	0xbda4ea89	-0.080525465
41	0xbdd3d602	-0.10343553
42	0xbe1752f6	-0.14777741
43	0xbd0f6fc3	-0.035018694
44	0xbdfa118c	-0.12210378
45	0xbe08c270	-0.13355422
46	0xbde2b794	-0.11070171
47	0x3c01bb41	0.00791818
48	0xbdd8a5c1	-0.1057849
49	0xbdbebc2e	-0.09313236
50	0xbdbd70d8	-0.09250039
51	0x3a6de496	0.00090748945
52	0xbe0673f4	-0.1313017
53	0xbd102475	-0.035191018
54	0xbdccad40	-0.09993982
55	0xbd51f569	-0.051259432
56	0x3b459e61	0.0030154216
57	0xbe15493b	-0.14578716
58	0xbc9369b1	-0.017994734
59	0xbd60cd5e	-0.054883353
60	0x3d2600da	0.040528156
61	0x3c8f0638	0.01745902
62	0xbca8adea	-0.020590741
63	0xbce80268	-0.02832146
64	0xbdda8ff8	-0.10671991
65	0xbdfd2eb0	-0.123624206
66	0xbbb06662	-0.0053832987
67	0xbde357d9	-0.1110074
68	0xbdd00b26	-0.101583764
69	0xbcb4bbb7	-0.022062166
70	0xbd454197	-0.048158254
71	0xbdb11590	-0.08646691
72	0xbcae02a0	-0.021241486
73	0x3d15b71a	0.036551572
74	0xbdd5dfa5	-0.104430474
75	0xbde1dcb8	-0.11028427
76	0xbdbbdab4	-0.09172574
77	0xbd20e8ee	-0.03928464
78	0xbe118554	-0.14211017
79	0xbdbce79f	-0.09223866
80	0xbd5e8057	-0.054321613
81	0xbe00b146	-0.12567624
82	0xbdd180db	-0.10229655
83	0xbc81417c	-0.015778296
84	0xbe14249c	-0.1446709
85	0xbe13fb72	-0.14451388
86	0xbc8ecd40	-0.017431855
87	0xbd818d41	-0.0632577
88	0xbde0a401	-0.10968781
89	0xbcf1b453	-0.02950493
90	0xbd3ed480	-0.046589375
91	0xbd4e6806	-0.050392173
92	0xbd3edba2	-0.046596177
93	0xbd5dd1ca	-0.05415515
94	0xbe01ddba	-0.12682238
95	0xbe1a72a6	-0.15082797
96	0xbc875e04	-0.016524322
97	0xbc9eaab8	-0.019368514
98	0x3cc7bbd2	0.024381552
99	0xbde4ee89	-0.111783095
100	0xbd1f26a8	-0.038855225
101	0xbbaf66d2	-0.0053528333
102	0xbe1ac922	-0.15115789
103	0x3d40d67c	0.04707955
104	0xbd51e628	-0.051244885
105	0xbd8505b9	-0.06495232
106	0xbd7ebb41	-0.062190298
107	0x3d1cb989	0.038262878
108	0xbe028bd8	-0.12748659
109	0xbd846a11	-0.06465543
110	0xbdef1d39	-0.11675496
111	0xbdc74de8	-0.09731656
112	0xbdbaf7bf	-0.09129285
113	0xbd4f37e4	-0.05059041
114	0xbe025d5c	-0.12730926
115	0x3c097cfc	0.008391615
116	0xbe10f045	-0.14154156
117	0x3dd7747f	0.10520267
118	0x3d54ed21	0.051983956
119	0x3d2fefc1	0.042953257
120	0x3d9998e5	0.074998654
121	0x3c979660	0.018504322
122	0xbc84b98a	-0.016201753
123	0x3da296e3	0.079389356
124	0x3d14dd17	0.03634366
125	0xbd3bc118	-0.045838445
126	0xbdd70ead	-0.10500846
127	0xbe22c44c	-0.15895194
128	0xbdba6a35	-0.09102289
129	0xbe20bc60	-0.1569686
130	0xbd89d473	-0.067299746
131	0xbd21eebb	-0.03953431
132	0xbd9581f2	-0.07300176
133	0xbdc4276d	-0.09577832
134	0xbdf5fcee	-0.12011133
135	0xbcba76aa	-0.022761662
136	0xbd0905a6	-0.033452652
137	0xbe0d9de0	-0.13829756
138	0x3cc56c6d	0.024099553
139	0x3bf71de2	0.007541404
140	0xbd056b45	-0.032573003
141	0xbd30a8c7	-0.04312971
142	0xbe0bdbd9	-0.13658084
143	0xbc7c85e2	-0.0154127795
144	0x3c534b01	0.0128963
145	0xbc866699	-0.016406344
146	0xbe083b26	-0.13303813
147	0xbd746540	-0.059666872
148	0xbe0ddd56	-0.13853964
149	0xbd99c125	-0.075075425
150	0x3cc7fb0b	0.024411699
151	0xbd0bbbc0	-0.0341146
152	0xbc6b5afe	-0.014364956
153	0xbdba0bdf	-0.090842955
154	0x3d491d62	0.049100287
155	0x3d508bce	0.05091458
156	0x3cb3c724	0.021945544
157	0x3dc9fbd0	0.098624825
158	0xbc00025c	-0.0078130625
159	0x3d7f67ca	0.06235484
160	0x3b810ae9	0.003938068
161	0x3d952e5d	0.07284234
162	0xbdfabd9b	-0.122431956
163	0xbd85b2d7	-0.065282516
164	0x3b84db84	0.0040544886
165	0xbe147482	-0.14497569
166	0xbdf26a00	-0.11836624
167	0xbdd07524	-0.10178593
168	0xbd8c35e8	-0.06846219
169	0xbce1384f	-0.02749267
170	0xbd071458	-0.032978386
171	0xbcf53f6e	-0.029937472
172	0xbdade5c7	-0.08491092
173	0xbe08aa9e	-0.13346335
174	0xbb275487	-0.002553256
175	0xbe05e8bb	-0.13077061
176	0xbd1767a8	-0.03696409
177	0xbd5bf347	-0.053698804
178	0xbe09c39b	-0.13453524
179	0xbcd62720	-0.026141703
180	0xbd896800	-0.067092896
181	0x3bc01aa7	0.005862552
182	0xbd9d2e89	-0.076748915
183	0xbe0674a7	-0.13130437
184	0xbd14b6aa	-0.036307015
185	0x3d3512ca	0.04420737
186	0xbdd6c2ba	-0.1048636
187	0xbd458c53	-0.048229527
188	0xbd896fd6	-0.06710784
189	0xbde0f4bf	-0.109841816
190	0xbd3ec863	-0.046577822
191	0xbd1bcf19	-0.0380393
192	0xbe000b1a	-0.12504235
193	0xbd86372d	-0.06553493
194	0xbc9df0e6	-0.019279908
195	0xbca66c6b	-0.02031537
196	0xbceb84f3	-0.028749919
197	0x3bf7fbf7	0.0075678783
198	0xbd2b5cbb	-0.04183648
199	0xbe029376	-0.12751564
200	0xbdf17f57	-0.11791866
201	0xbdb4e0d7	-0.08831947
202	0xbe0319f0	-0.12802863
203	0xbda649e7	-0.081195645
204	0xbdef57ce	-0.11686669
205	0xbc84da21	-0.016217293
206	0xbe0b5a78	-0.1360873
207	0xbd22b5d0	-0.03972417
208	0xbdd44396	-0.103644535
209	0xbdd539c8	-0.104114115
210	0xbccb8e6c	-0.024848185
211	0xbdd1b26f	-0.10239112
212	0xbdaa4da4	-0.0831559
213	0xbd477e6b	-0.048704546
214	0xbd0e0d9a	-0.03468094
215	0xbd3caa1c	-0.046060666
216	0x3c53340e	0.012890829
217	0x3c43961c	0.011937644
218	0xbdc08523	-0.09400394
219	0xbd08aaeb	-0.033366125
220	0xbc8cad18	-0.017172381
221	0xbcc6e5c6	-0.024279486
222	0x3c92c249	0.017914908
223	0x3cb96d79	0.022635208
224	0xbdf0eb72	-0.11763658
225	0xbd563278	-0.052294225
226	0xbd326a06	-0.043558143
227	0xbe0278fb	-0.12741463
228	0xbd7582ba	-0.059939124
229	0xbdf33d4f	-0.11876928
230	0xbdf8d791	-0.12150491
231	0xbba7bfb8	-0.00511929
232	0xbc07c653	-0.00828703
233	0x3a56d5c4	0.00081953057
234	0xbd5fa500	-0.054600716
235	0xbd098fa6	-0.03358426
236	0xbdb83af0	-0.089956164
237	0x3cf35ac2	0.029706363
238	0x3a017f23	0.00049399043
239	0x3c020e22	0.00793794
240	0xbdfe4a2e	-0.124164924
241	0xbda62ff2	-0.081146136
242	0x3ce16ece	0.027518656
243	0xbddc092b	-0.10743936
244	0x3cb44d04	0.02200938
245	0xbdf0c8cd	-0.1175705
246	0xbd96b738	-0.07359165
247	0xbd337e18	-0.043821424
248	0x3cbe7bc6	0.02325238
249	0xbde56847	-0.1120153
250	0xbdd1b95b	-0.10240432
251	0xbdf308cf	-0.118669145
252	0xbd4160ae	-0.04721134
253	0xbd98e3a0	-0.07465291
254	0xbdf1c921	-0.118059404
255	0xbd116211	-0.035493914

bias f4 [32]
0	0xbd331422	-0.043720372
1	0xbdd473f9	-0.103736825
2	0x3dc86cc7	0.09786373
3	0xbd14b6ee	-0.036307268
4	0xbdc91968	-0.09819299
5	0x3d11626d	0.035494257
6	0xbd74047e	-0.059574597
7	0xbd107eab	-0.03527705
8	0xbd470ef6	-0.048598252
9	0xbdc80fb1	-0.09768618
10	0xbd22e6be	-0.039770834
11	0xbdd15fc5	-0.10223345
12	0xbddcfa28	-0.10789901
13	0xbd887701	-0.06663323
14	0x3d4b04b7	0.049565043
15	0xbdda14fd	-0.106485344
16	0xbb1dece0	-0.0024097487
17	0x3dc4e381	0.096137054
18	0xbdedc3e6	-0.1160963
19	0xbe020e80	-0.12700844
20	0x3d50a976	0.05094286
21	0xbbef3c8b	-0.0073009185
22	0xbd865752	-0.06559624
23	0x3d952943	0.07283261
24	0xbd7ed199	-0.062211607
25	0xbc7e5c2a	-0.015524903
26	0xbdcf7d25	-0.10131291
27	0xbdbca9a8	-0.09212047
28	0x3d05f9d9	0.032708976
29	0xbd6e616c	-0.058198377
30	0x3d61ff18	0.055174917
31	0xbe053d38	-0.13011634

weight f4 [64, 32, 3, 3]
0	0xbde2bd6d	-0.11071286
1	0xbdf2521c	-0.11832067
2	0xbdd65764	-0.10465887
3	0xbb8e907f	-0.0043507214
4	0xbb393dbe	-0.002826556
5	0xbdd6e666	-0.10493164
6	0xbd7273c9	-0.059192453
7	0xbd9a1c77	-0.075249605
8	0xbdea8c23	-0.1145251
9	0x3caee0c5	0.021347413
10	0x3cd0dc9f	0.025495825
11	0x3d2dc399	0.042422865
12	0x3d495ec8	0.049162656
13	0x3db11a57	0.08647602
14	0xbdaf1a7d	-0.08549974
15	0xbc98c0ea	-0.018646676
16	0xbc2f3269	-0.010693171
17	0xbd7c1da3	-0.0615517
18	0xbd9be052	-0.07611145
19	0xbd12b89c	-0.03582059
20	0xbd00e165	-0.031464953
21	0xbbe9bed3	-0.0071333437
22	0xbd1a6d13	-0.037701678
23	0xbdbb149f	-0.091347925
24	0xbd03f739	-0.03221819
25	0xbdde5ac8	-0.10857159
26	0xbc8ec1e6	-0.017426442
27	0xbb52dd9b	-0.0032175544
28	0x3d44f7a7	0.048087742
29	0x3db14bee	0.086570606
30	0x3d440747	0.047858503
31	0x3d1791d8	0.03700432
32	0x3dc1c9f5	0.09462348
33	0x3b273489	0.002551349
34	0x3dd7342a	0.105079964
35	0x3d3822a2	0.044954903
36	0xbdaabdd5	-0.08336989
37	0x3d6c8f0f	0.05775362
38	0x3ccdd81f	0.025127469
39	0xbb4f011c	-0.0031586355
40	0x3c5a4186	0.013321286
41	0x3cf784ed	0.030214751
42	0x3c12f0ea	0.008968571
43	0x3dd28bb3	0.10280552
44	0x3d2511ff	0.040300366
45	0xbd91c2e9	-0.07117254
46	0xbc9d06cf	-0.019168286
47	0xbdf37f33	-0.11889496
48	0xbdcea267	-0.100895695
49	0xbc8014b8	-0.01563488
50	0xbd94a3e7	-0.072578244
51	0xbd5151c5	-0.051103372
52	0xbbe5fdf2	-0.007018798
53	0xbdc1b33a	-0.09458013
54	0xbdf1ae38	-0.11800808
55	0xbde1c4eb	-0.11023887
56	0xbda2c4fe	-0.079477295
57	0xbdba5031	-0.090973265
58	0xbdf19129	-0.11795265
59	0x3b47400b	0.0030403163
60	0xbb1f5abd	-0.002431556
61	0xbb5f6fce	-0.003409374
62	0xbcc23d30	-0.023710817
63	0xbcf68efd	-0.030097479
64	0xbd5f5add	-0.054530013
65	0xbd783e8f	-0.060606536
66	0xbddbffe3	-0.10742166
67	0xbd8d9f43	-0.069151424
68	0xbce04151	-0.027374895
69	0xbc5c1aa8	-0.01343409
70	0xbd21950c	-0.039448783
71	0xbdd58e88	-0.10427576
72	0x3d95c380	0.07312679
73	0x3d6923bd	0.05691885
74	0x3d9d35d7	0.07676285
75	0x3d61da81	0.055140022
76	0x3d537b90	0.05163151
77	0xbe0da70a	-0.13833252
78	0xbd40f05f	-0.047104236
79	0xbdcbe563	-0.099558614
80	0xbcf69e4d	-0.03010478
81	0xbce8a3e8	-0.02839847
82	0x3dc74b35	0.097311415
83	0x3d92b2c6	0.071630046
84	0xbc04e79d	-0.008111862
85	0xbd5ed895	-0.054405767
86	0xbdbb4cab	-0.09145483
87	0xbdcac1b7	-0.099002294
88	0xbd8cde0e	-0.06878291
89	0xbc99cea5	-0.018775294
90	0x3d816642	0.06318332
91	0x3b04e071	0.002027538
92	0x3d3cd3c5	0.046100397
93	0x3d115ac8	0.035486966
94	0x3dc144ff	0.09436988
95	0xbe092abe	-0.13395211
96	0x3da89723	0.08231952
97	0xbd7dc96a	-0.06195966
98	0xbdd13d99	-0.10216827
99	0x3d36ef9d	0.044662107
100	0xbca23dd6	-0.019804876
101	0xbc5e4e7d	-0.013568518
102	0xbd5734e5	-0.05254068
103	0xbd2a2087	-0.041534927
104	0xbd926851	-0.07148803
105	0xbd7612bb	-0.060076457
106	0xbde3cb99	-0.111228175
107	0xbd6ba030	-0.057525814
108	0xbda63eb4	-0.081174284
109	0xbdaeb42c	-0.08530459
110	0xbcfef727	-0.03112371
111	0xbcd8fb0b	-0.026486894
112	0xbd74be4c	-0.059751794
113	0xbd8b39b0	-0.067981124
114	0xbd06b5f7	-0.03288838
115	0xbde36164	-0.1110256
116	0xbdc697fe	-0.09696959
117	0xbd170902	-0.036873825
118	0xbda86ad2	-0.08223499
119	0xbd814656	-0.06312244
120	0x3d8ef5cd	0.069804765
121	0x3d2c472a	0.042060055
122	0xbd2fcd72	-0.042920537
123	0xbbc0145f	-0.0058618034
124	0x3d8c25f9	0.0684318
125	0xbb6babbe	-0.003596052
126	0x3d4bae25	0.049726624
127	0x3c9a6f08	0.018851772
128	0x3b8b93df	0.004259571
129	0xbb7687d2	-0.0037617576
130	0xbcec6c6b	-0.028860291
131	0xbdeb28ec	-0.114824146
132	0xbca21a03	-0.019787794
133	0xbdc82c39	-0.0977406
134	0xbda1a96c	-0.07893643
135	0xbd8755df	-0.066081755
136	0x3d7b3ed0	0.0613392
137	0x3d1aa09d	0.03775083
138	0xbc20be9b	-0.009811069
139	0x3c83262b	0.01600941
140	0x3df219b5	0.118213095
141	0x3da866df	0.08222746
142	0x3c95a2cb	0.018266102
143	0x3c4340ff	0.011917352
144	0xbda4e209	-0.08050925
145	0xbd6e6db0	-0.058210075
146	0xbd95e4e7	-0.0731905
147	0xbd0249a7	-0.03180852
148	0xbccb5ed2	-0.024825487
149	0xbd1dd972	-0.03853745
150	0xbd9a5496	-0.07535665
151	0xbd640240	-0.05566621
152	0xbd803900	-0.06260872
153	0xbcce48cd	-0.025181198
154	0xbdbf73bb	-0.09348246
155	0xbca710f5	-0.020393828
156	0xbd4f315c	-0.050584182
157	0xbe05f5c1	-0.13082029
158	0x3d026fc1	0.031844858
159	0xbda5a878	-0.080887735
160	0xbc3dbc5c	-0.011580553
161	0xbd974131	-0.07385481
162	0xbdb6e865	-0.089310445
163	0xbdc1e9ad	-0.09468398
164	0xbdb64fa5	-0.0890191
165	0xbc44c134	-0.012008954
166	0xbd8bd22f	-0.06827199
167	0xbd29358c	-0.041310832
168	0xbdd7be35	-0.10534326
169	0xbdc98af5	-0.09840957
170	0xbcc8ff2b	-0.024535736
171	0x3b20bf17	0.002452796
172	0x3bd71f6f	0.0065650265
173	0xbdb11ea8	-0.08648425
174	0xbbd95a2d	-0.0066330642
175	0xbd9e0c79	-0.07717223
176	0xbd19342b	-0.037403267
177	0x3c2babad	0.010477942
178	0x3c95793d	0.018246287
179	0xbcf812dd	-0.030282432
180	0xbd6ebc79	-0.05828521
181	0xbd9b4c7a	-0.07582946
182	0xbce3060f	-0.02771285
183	0xbd4e23d4	-0.050327137
184	0xbcb4ed59	-0.022085832
185	0xbdd772d6	-0.1051995
186	0xbda4d401	-0.08048249
187	0xbda30f44	-0.07961896
188	0xbdc128dc	-0.094316214
189	0xbdc59d87	-0.096491866
190	0xbd8604cd	-0.065438844
191	0xbcefeaec	-0.029286824
192	0xbd015119	-0.03157148
193	0xbd0f1ce1	-0.03493965
194	0xbdb36f7e	-0.087615
195	0xbdab4005	-0.0836182
196	0xbd9859be	-0.07438992
197	0xbda119f4	-0.07866278
198	0xbdf0eb0b	-0.11763581
199	0x3c079128	0.008274354
200	0x3cae574a	0.021281857
201	0x395a00ee	0.00020790446
202	0x3bd20f28	0.006410498
203	0x3d5e84e8	0.054325968
204	0x3d8a1d1d	0.06743834
205	0x3cb2fa36	0.021847825
206	0x3dbb89f0	0.09157169
207	0xbdf31e9b	-0.11871072
208	0xbd7c0555	-0.061528523
209	0xbcc53613	-0.024073636
210	0xbd80ef78	-0.06295675
211	0xbdc0bb3b	-0.094107114
212	0xbc2addd0	-0.010428861
213	0xbd381b7c	-0.044948086
214	0xbcea14e4	-0.028574415
215	0xbd98f002	-0.07467653
216	0xbd9260b6	-0.071473524
217	0xbdab4d46	-0.08364348
218	0xbdbcd0c7	-0.092195086
219	0xbd8c815f	-0.06860613
220	0xbd28c749	-0.041205678
221	0xbd049680	-0.03237009
222	0xbce5595d	-0.027996713
223	0xbd951a72	-0.07280435
224	0xbcc6ddbc	-0.024275653
225	0xbdde3d02	-0.1085148
226	0xbd7dbd8e	-0.06194835
227	0xbda86154	-0.08221689
228	0xbdcf41c6	-0.10119967
229	0xbdb53544	-0.0884805
230	0xbdd45ec9	-0.10369641
231	0xbdd0faca	-0.10204084
232	0xbdeba7e5	-0.11506633
233	0xbd839950	-0.064257264
234	0x3d9c76e8	0.07639867
235	0x3aebe65a	0.0017997727
236	0x3dd2a751	0.10285819
237	0x3cbd7003	0.0231247
238	0x3ca4f311	0.020135434
239	0x3d8feb7c	0.07027337
240	0x3bf98d89	0.0076157493
241	0x3b5a2827	0.0033288093
242	0x3bd3e728	0.006466765
243	0xbd557575	-0.05211397
244	0x3d6c5d3d	0.057706106
245	0x3d99fef6	0.07519333
246	0x3da6f5e3	0.08152368
247	0x3cd519dd	0.02601331
248	0x3cc9070c	0.024539493
249	0x3d88b9dc	0.06676075
250	0x3d16a01c	0.036773786
251	0x3d10540e	0.03523641
252	0xbd40c417	-0.047062006
253	0xbde9b2a5	-0.11411027
254	0xbcf23b89	-0.029569404
255	0xbdcd22b7	-0.10016387

bias f4 [64]
0	0xbda64daa	-0.08120282
1	0x3ccf0b04	0.025273807
2	0xbbaa4106	-0.0051957397
3	0xbd2c69fd	-0.042093266
4	0xbd8e18aa	-0.06938298
5	0xbd858b34	-0.065206915
6	0x3d97c251	0.0741011
7	0x3da87ad5	0.08226553
8	0x3bcfc78a	0.0063409256
9	0xbe97253c	-0.29520595
10	0x3c57aa57	0.013163171
11	0x3a517525	0.0007990173
12	0x3d68a880	0.05680132
13	0xbd955e01	-0.072933204
14	0xbd96b8d8	-0.07359475
15	0xbd42ef8d	-0.047591735
16	0xbdc9f110	-0.09860432
17	0xbd893990	-0.06700432
18	0xbdd6c3f7	-0.10486596
19	0x3cbbef99	0.022941398
20	0xbdd5b805	-0.104354896
21	0xbcdd38a9	-0.027004557
22	0x3d610d79	0.05494449
23	0xbdc82fd3	-0.09774747
24	0x3c7cc5db	0.015428032
25	0x3e39ba00	0.1813736
26	0xbd188b68	-0.037242323
27	0xbcb759af	-0.022381632
28	0xbd4ddcfc	-0.050259575
29	0xbb9ef2d6	-0.0048507256
30	0xbcee93b0	-0.029123157
31	0xbd1b724a	-0.03795079
32	0xbda27d35	-0.079340376
33	0xbc992ef3	-0.018699145
34	0xbda9c24d	-0.08289013
35	0xbd0b3df0	-0.033994615
36	0xbd5e4151	-0.05426151
37	0xbaa17ef3	-0.0012321159
38	0x3cb6777e	0.022273775
39	0xbcd3d1a7	-0.025856806
40	0xbd8d02a4	-0.06885269
41	0xbe0d37bb	-0.1379079
42	0xbca396a3	-0.01996929
43	0xbdf06ebe	-0.117398724
44	0xbd16fa20	-0.03685963
45	0xbc189d59	-0.009314858
46	0xbc6919aa	-0.01422731
47	0xbe25f4ab	-0.16206615
48	0xbdaea111	-0.08526815
49	0xbc941642	-0.01807702
50	0x3d18a51d	0.03726684
51	0xbd4a7b54	-0.04943402
52	0xbce97b03	-0.02850104
53	0x3e41438f	0.18873428
54	0xbd18b22e	-0.0372793
55	0xbb1d223d	-0.0023976706
56	0xbe1127bc	-0.14175314
57	0xbb256993	-0.002523993
58	0xbcbe0c34	-0.023199178
59	0xbda5a6b1	-0.080884345
60	0xbd34bc43	-0.044124853
61	0x3d817795	0.063216366
62	0xbd8d7da2	-0.06908728
63	0x3d1235f2	0.035695978

weight f4 [64, 32, 3, 3]
0	0x3d977e19	0.07397098
1	0x3da6e0a2	0.08148314
2	0xbd70ae80	-0.058760166
3	0x3d29a0f0	0.041413248
4	0x3d08c868	0.033394247
5	0x3c07af28	0.008281507
6	0x3d13f3b8	0.0361211
7	0x3d4d1e6b	0.050077837
8	0x3d04d7ce	0.03243237
9	0x3d948f52	0.07253899
10	0x3dbed611	0.09318174
11	0x3ca70bce	0.020391371
12	0x3db7ab6e	0.089682445
13	0x3d91709e	0.07101558
14	0x3dae0ea9	0.0849889
15	0x3d60cd68	0.05488339
16	0x3d5f932e	0.05458372
17	0x3df1c747	0.11805587
18	0x3d974ed8	0.07388085
19	0x3d82ca2b	0.06386217
20	0x3c6562f4	0.014000643
21	0x3c9a7671	0.018855305
22	0x3be3e3dc	0.006954653
23	0x3d2b4e90	0.04182297
24	0x3b60c2c1	0.003429577
25	0x3d25dd3d	0.040494192
26	0x3b19728a	0.0023414218
27	0xbc23e4f8	-0.010003321
28	0xbd7f242c	-0.062290356
29	0xbd6f823c	-0.05847381
30	0x3c1d559c	0.00960293
31	0xbd9e20b0	-0.077210784
32	0xbd04a3f2	-0.032382913
33	0xbcd05c4a	-0.025434632
34	0xbdbca7c8	-0.09211689
35	0xbd212ccc	-0.039349362
36	0xbd0e796c	-0.034783766
37	0xbdd1b857	-0.10240238
38	0xbda72540	-0.08161402
39	0xbb2f2da7	-0.0026730092
40	0xbdcb7083	-0.09933569
41	0xbcc9eb0c	-0.024648212
42	0xbba5f780	-0.0050649047
43	0xbc65baf0	-0.01402162
44	0xbde5f706	-0.112287566
45	0xbd6f52c8	-0.058428556
46	0xbca0f87a	-0.019649733
47	0xbb404980	-0.0029340684
48	0xbd050668	-0.032476813
49	0xbc7c9820	-0.015417129
50	0xbd0322ce	-0.032015614
51	0xbd82fee9	-0.063962765
52	0xbd7c2b15	-0.061564524
53	0xbdc2945f	-0.09500956
54	0xbd5f8bfc	-0.05457686
55	0xbd97b04d	-0.074066736
56	0x3c2ac2dc	0.010422435
57	0x3d1ad445	0.037800092
58	0xbc7e3948	-0.015516587
59	0x3c7dbd20	0.015486985
60	0xbd63cc0a	-0.05561451
61	0x3b3aea7d	0.0028521114
62	0xbd6a91c8	-0.057267934
63	0xbdc0028f	-0.09375488
64	0xbbe4a587	-0.00697774
65	0x3d41f54d	0.047353078
66	0x3dc48c16	0.09597032
67	0x3d92a74c	0.071608156
68	0x3ca85612	0.020548854
69	0x3b00a8ef	0.0019631942
70	0x3c0e7402	0.008694651
71	0x3d4ddcee	0.050259523
72	0xbda0f1d9	-0.07858629
73	0xbde45f00	-0.11150932
74	0xbdb8a4d0	-0.090158105
75	0xbd300f95	-0.04298361
76	0xbca796d0	-0.020457655
77	0xbd11906a	-0.035538115
78	0xbdf12ef3	-0.11776533
79	0xbd8cd92e	-0.06877361
80	0xbdca79ed	-0.09886537
81	0xbbcda738	-0.0062760375
82	0x3d038211	0.032106463
83	0xbc102dac	-0.0087999515
84	0xbc2fabd8	-0.010722123
85	0xba911c20	-0.0011071004
86	0x3c683014	0.014171619
87	0xbd2ee440	-0.042698145
88	0x3b407a40	0.0029369742
89	0x3d0cb833	0.034355354
90	0x3c910c3d	0.017706031
91	0x3d470a16	0.048593603
92	0x3d137e86	0.036009334
93	0x3d755b68	0.059901625
94	0x3d43ac79	0.047771905
95	0x3dccb7f3	0.09996023
96	0xbda8ec87	-0.08248239
97	0x3d619163	0.055070292
98	0xbda14f6e	-0.07876478
99	0xbd9e722f	-0.077366225
100	0xbcb851cc	-0.022499941
101	0xbc7e9083	-0.015537384
102	0xbdcbe02f	-0.09954869
103	0xbd4d18cf	-0.050072487
104	0xbdafa5e2	-0.085765615
105	0xbd101d3e	-0.035184138
106	0xbcf4fedf	-0.029906688
107	0xbdd0e551	-0.10199989
108	0xbd966592	-0.07343592
109	0xbcec2c93	-0.028829848
110	0xbcaf11a4	-0.021370716
111	0xbc6a7681	-0.01431048
112	0xbda15052	-0.07876648
113	0xbde779df	-0.11302542
114	0xbddceb0b	-0.107870184
115	0xbc9200b7	-0.017822606
116	0xbd1b512c	-0.03791921
117	0xbcb3aef2	-0.021934006
118	0xbc4bf890	-0.012449399
119	0xbc2a43cc	-0.010392141
120	0x3d519791	0.051169936
121	0xbd50cb29	-0.050975
122	0xbb9a7752	-0.004713931
123	0x39ea1259	0.00044645628
124	0x3cf59b4c	0.029981278
125	0x3c7cc023	0.015426668
126	0xbb9a9beb	-0.004718294
127	0x3db87095	0.09005848
128	0x3d935133	0.07193222
129	0x3d6daa90	0.05802399
130	0x3dcb5719	0.09928722
131	0x3dd45f90	0.103697896
132	0x3d906560	0.07050586
133	0x3dbc843b	0.092049085
134	0x3b92ccb6	0.00447997
135	0xbc9a95d7	-0.018870277
136	0xbd277309	-0.04088119
137	0x3da5d9d2	0.080981866
138	0xbdc95cef	-0.09832179
139	0xbcde0ab1	-0.027104707
140	0x3de2d545	0.11075834
141	0xbdb3905f	-0.08767771
142	0xbcdfbbe9	-0.027311282
143	0xbdb37708	-0.08762938
144	0x3cc26f60	0.023734748
145	0x3da4395e	0.080187544
146	0x3c8c3d1b	0.017118981
147	0x3cdd9db1	0.027052732
148	0x3d872fb1	0.06600893
149	0xbd95dc9f	-0.07317471
150	0xbd84960c	-0.06473932
151	0xbd5ff795	-0.054679472
152	0xbd60c5a5	-0.05487599
153	0xbdc2fe1e	-0.09521125
154	0x3cb74f47	0.02237667
155	0x3d89f563	0.06736257
156	0x3dab2ead	0.08358512
157	0x3c383558	0.011243187
158	0x3db3d245	0.0878034
159	0x3da8c7bf	0.082412235
160	0x3d41d8eb	0.04732601
161	0x3d54f75e	0.05199372
162	0xbdb39b05	-0.08769802
163	0x3d3ce6b2	0.046118446
164	0x3db81cb8	0.08989853
165	0xbd9e41a6	-0.07727365
166	0xbd82cc1e	-0.063865885
167	0x3dcc3643	0.09971287
168	0xbdb16bd5	-0.086631455
169	0xbdbc6d37	-0.092005186
170	0xbc7220f3	-0.0147783635
171	0xbda5a095	-0.08087269
172	0xbda8306d	-0.082123615
173	0xbddd751b	-0.10813352
174	0xbd5cda9e	-0.053919427
175	0xbcbdd536	-0.023172956
176	0xbd6994bf	-0.05702662
177	0xbca3989c	-0.01997023
178	0xbd36b887	-0.044609573
179	0xbc1e0a27	-0.009645975
180	0x3b2db0a6	0.0026502996
181	0xba33e7ad	-0.00068628305
182	0x3dab7703	0.08372309
183	0x3db78283	0.0896044
184	0x3d9dc371	0.07703293
185	0x3d995be7	0.07488232
186	0x3d717b9f	0.058955785
187	0x3d9bf64f	0.07615339
188	0x3d9ce410	0.07660687
189	0xbdc0a8ba	-0.09407182
190	0x3d75e192	0.060029574
191	0x3d9faa29	0.07796127
192	0x3d44a260	0.048006415
193	0x3c56450c	0.0130779855
194	0x3de6762c	0.11253008
195	0xbd9abbc4	-0.07555345
196	0xbd3566ee	-0.044287615
197	0x3d2a9bce	0.041652493
198	0xbdfae331	-0.122503646
199	0xbdb7640e	-0.08954631
200	0xbd8fce45	-0.07021765
201	0xbd6ddbb9	-0.058070872
202	0x3d69827a	0.057009198
203	0x3d75bf03	0.059996616
204	0x3d3796c6	0.044821523
205	0x3d97dcb1	0.074151404
206	0x3ddf2832	0.108963385
207	0xbc077f52	-0.008270102
208	0xbda70193	-0.08154597
209	0xbc2f0723	-0.010682854
210	0xbc8b86b0	-0.017031997
211	0xbcdcd003	-0.026954656
212	0xbd572d09	-0.052533183
213	0xbdaab9d8	-0.08336228
214	0xbdf2a241	-0.11847354
215	0xbdc3757f	-0.09543895
216	0xbd368447	-0.044559743
217	0xbdda57bd	-0.10661266
218	0x3c945288	0.01810576
219	0xbd74caf6	-0.05976387
220	0x3d2acb19	0.041697595
221	0x3dd11de6	0.10210781
222	0xbd929f65	-0.07159308
223	0x3d0b8df3	0.03407092
224	0x3d5a1751	0.053244893
225	0x3d581563	0.05275477
226	0x3d0c4d59	0.034253452
227	0x3bbd4a68	0.005776692
228	0xbd24ac0a	-0.04020313
229	0xbd24af4c	-0.04020624
230	0x3d6e2889	0.058144126
231	0xba2613b6	-0.00063353346
232	0x3dcbb3e4	0.09946421
233	0x3d140e6c	0.036146566
234	0xbc8ccac5	-0.017186532
235	0xbd8384af	-0.06421792
236	0xbd64aad6	-0.055826984
237	0xbccaba13	-0.02474693
238	0xbd8b77a6	-0.068099305
239	0x3ce7810e	0.02825978
240	0xbdbcd938	-0.09221119
241	0x3a74061d	0.0009308772
242	0x3d2ba954	0.04190953
243	0x3d78eab3	0.0607707
244	0x3dee7887	0.116440825
245	0x3db36626	0.08759718
246	0x3dee4f59	0.11636228
247	0x3d14ac62	0.03629721
248	0x3ca94af9	0.020665633
249	0x3c402044	0.011726443
250	0x3dbad6bc	0.091229886
251	0x3c9e4c4d	0.019323492
252	0x3e09c9c9	0.13455881
253	0x3d87bafb	0.066274606
254	0xb8a20b71	-7.726893e-05
255	0x3d89accc	0.067224115

bias f4 [32]
0	0xbde1c419	-0.11023731
1	0x3d3d6f4f	0.04624873
2	0x3e0deea3	0.13860564
3	0xbdcf083b	-0.10108992
4	0xbcb48284	-0.022034891
5	0x3c92e1a6	0.017929863
6	0xbc7814e9	-0.015141704
7	0x3e224855	0.15847905
8	0xbd97250c	-0.07380113
9	0x3debab16	0.115072414
10	0xbcbb392a	-0.022854406
11	0xbdbeebce	-0.0932232
12	0x3d507a9a	0.050898172
13	0xbd8a70da	-0.06759806
14	0x3dee646e	0.11640249
15	0x3e1c7d7b	0.15282242
16	0x3dc1eff0	0.094695926
17	0xbcb6ec22	-0.022329394
18	0x3decf715	0.11570565
19	0x3da5dbec	0.080985874
20	0x3d40035c	0.046878204
21	0x3e03dd51	0.12877394
22	0x3d95ffc2	0.073241726
23	0x3e6d58e3	0.23178439
24	0xbda652c3	-0.08121254
25	0xbd5933ea	-0.053028025
26	0x3d25c482	0.040470608
27	0x3e093118	0.13397634
28	0xbde5ded0	-0.11224139
29	0xbcf33a3d	-0.029690856
30	0x3e021db5	0.12706645
31	0x3ded9f07	0.11602598

weight f4 [32, 16, 3, 3]
0	0xbcd4272c	-0.025897585
1	0xbd4be8ed	-0.049782682
2	0xbb2299c0	-0.002481088
3	0xbc02a42f	-0.007973715
4	0xbc0135e5	-0.007886385
5	0xbd117f0d	-0.035521556
6	0xbd06df3d	-0.03292774
7	0xbcb0d79d	-0.021587187
8	0xbd011fb8	-0.03152439
9	0x3d7b0f35	0.0612938
10	0x3d38373b	0.044974547
11	0x3e1310b3	0.14361839
12	0x3dcd8f1f	0.10037064
13	0x3cca08c6	0.024662387
14	0x3d8cc2d2	0.068730965
15	0x3d417ca9	0.047238026
16	0x3dff9474	0.12479487
17	0x3db9c098	0.090699375
18	0xbc7f36a7	-0.015576995
19	0xbe11d66e	-0.14241955
20	0xbd9b17d0	-0.07572901
21	0xbdfbcb5e	-0.122946486
22	0xbde67f5f	-0.11254763
23	0xbd1431da	-0.036180355
24	0xbcb34533	-0.021883583
25	0xbe1dde08	-0.1541673
26	0xbc5a89a8	-0.013338484
27	0x3ca13743	0.019679671
28	0xbd62ba82	-0.05535365
29	0xbcaf4d52	-0.021399174
30	0xbdba3c2f	-0.0909351
31	0xbd047fd7	-0.03234848
32	0xbcd5a99b	-0.02608185
33	0x3dd35ce7	0.10320454
34	0x3e0106ef	0.12600301
35	0x3c953172	0.018212054
36	0x3cd644b5	0.026155809
37	0x3d1f51da	0.03889642
38	0x3d9ba64b	0.07600077
39	0xbe0aa594	-0.13539726
40	0xbd035bbd	-0.03206991
41	0xbd3ed665	-0.04659118
42	0xbdfb0cde	-0.122583136
43	0xbd8c7de7	-0.068599515
44	0xbd36bc4d	-0.04461317
45	0xbdd0b25b	-0.101902686
46	0xbd402e01	-0.046918873
47	0x3c56f77b	0.013120527
48	0xbd04c8d3	-0.032418083
49	0xbcec3a48	-0.028836384
50	0x3cfb51b5	0.03067861
51	0xbd8e6564	-0.069529325
52	0xbdaf466b	-0.08558353
53	0xbd052c80	-0.03251314
54	0xbd3b1f6e	-0.04568427
55	0x3deb7359	0.1149661
56	0x3d4926eb	0.04910938
57	0xbcd727df	-0.02626413
58	0x3b8b4d1f	0.004251137
59	0x3d6e6cb7	0.058209147
60	0xbd20f95a	-0.0393003
61	0xbcd23ea6	-0.025664639
62	0x3dba5cc0	0.09099722
63	0x3e0cbf49	0.13744844
64	0x3d8a6a61	0.067585714
65	0x3c9546f4	0.01822231
66	0xbd2aefee	-0.04173272
67	0x3cf3cb41	0.029760005
68	0x3cc7e5a3	0.024401492
69	0xbd8091c4	-0.062778026
70	0xbd623092	-0.0552221
71	0xbceb212c	-0.028702341
72	0x3b1b02aa	0.002365271
73	0xbddf417b	-0.10901161
74	0xbdb773fd	-0.0895767
75	0xbc30d764	-0.010793541
76	0xbe07ec53	-0.13273744
77	0xbde59fea	-0.11212142
78	0xbdfa1567	-0.122111134
79	0xbdb3fb74	-0.08788195
80	0xbdc80306	-0.09766202
81	0xbe057b16	-0.13035235
82	0xbc94fdae	-0.01818737
83	0x3d963a3a	0.073353246
84	0xbe1e7a80	-0.15476418
85	0xbe59d40a	-0.21272293
86	0xbcb01c8a	-0.021497983
87	0xbdd57c49	-0.10424096
88	0xbe35d607	-0.17757426
89	0xbe28aa36	-0.1647118
90	0xbc4d3d9e	-0.012526898
91	0xbd793a60	-0.060846686
92	0xbdc11bed	-0.094291545
93	0xbd604e39	-0.0547621
94	0xbc8f0939	-0.017460452
95	0x3c097408	0.00838948
96	0xbd90989c	-0.07060358
97	0xbd620ce2	-0.055188067
98	0xbe25c300	-0.16187668
99	0x3db63705	0.08897213
100	0xbc737682	-0.014859797
101	0xbd5b8e75	-0.053602654
102	0x3dcbfb75	0.09960071
103	0xbd2194db	-0.0394486
104	0x3c709583	0.014684084
105	0x3d6385fe	0.055547707
106	0x3c0fcdbb	0.008777077
107	0xbc480559	-0.012208306
108	0x3d15caf0	0.03657049
109	0xbdaa79bf	-0.083240025
110	0xbde415b0	-0.11136949
111	0x3d331a07	0.043725993
112	0x3c065ffb	0.008201594
113	0x3d938c06	0.07204442
114	0xbc6dabec	-0.014506321
115	0xbc2fffec	-0.010742169
116	0x3e0b3102	0.13592914
117	0xbdb6b8f0	-0.08921993
118	0x3c9737e2	0.018459264
119	0xbcac8994	-0.021061696
120	0xbda1c734	-0.07899323
121	0xbe088359	-0.13331355
122	0xbd988895	-0.07447926
123	0xbde319cf	-0.11088907
124	0xbe2f4fea	-0.17120329
125	0xbe13458f	-0.14382003
126	0x3c9276bb	0.01787888
127	0xbe280d13	-0.16411237
128	0xbd915353	-0.07095971
129	0x3d100379	0.03515956
130	0xbdbbe364	-0.09174231
131	0xbe0a7fd1	-0.1352532
132	0x3d76434c	0.060122773
133	0xbd755cb9	-0.05990288
134	0xbdb44ab0	-0.08803308
135	0xbd8ed5f8	-0.06974405
136	0x3d736dae	0.05943077
137	0x3d90a5bb	0.070628606
138	0xbd27ffd5	-0.041015465
139	0xbc7886c3	-0.015168848
140	0x3e0ff66d	0.14058848
141	0xbc1467a6	-0.009057915
142	0x3dedd340	0.11612558
143	0x3d890439	0.066902585
144	0x3db8bf6d	0.090208866
145	0x3cbbeb88	0.022939458
146	0x3cf8fb67	0.030393315
147	0xbd07deb3	-0.033171367
148	0x3d814dc7	0.06313663
149	0x3bf604d6	0.0075079007
150	0x3d43a601	0.047765736
151	0xbd31dc1a	-0.043422796
152	0x3cdea664	0.02717895
153	0xbe725540	-0.23665333
154	0x3d3e63e9	0.046482
155	0x3d3dbe36	0.046323977
156	0xbe89384e	-0.2680077
157	0x3d060ce1	0.032727126
158	0x3c66d730	0.014089391
159	0xbe21d5ee	-0.15804264
160	0xbd820e33	-0.063503645
161	0xbcaeb126	-0.021324705
162	0x3d51a042	0.051178224
163	0x3d7a3a2f	0.061090644
164	0xbcb961e6	-0.02262969
165	0xbd0edcce	-0.034878545
166	0x3d6c8d19	0.05775175
167	0xbceb7615	-0.02874283
168	0xbd84dc4d	-0.064873315
169	0x3cba46b4	0.022738792
170	0xbd8ee761	-0.06977726
171	0xbd904a36	-0.070454046
172	0xbe002c46	-0.12516889
173	0xbd0d427b	-0.03448723
174	0xbd8d256f	-0.068919055
175	0x3d000275	0.031252343
176	0x3d0ec540	0.03485608
177	0xbd47b68e	-0.048758082
178	0xbc68637b	-0.014183874
179	0xbdacb45d	-0.08432839
180	0xbd828dde	-0.06374715
181	0xbd8aeb12	-0.06783117
182	0xbd1bdb2f	-0.038050827
183	0xbdcb1f31	-0.09918059
184	0xbdf4146f	-0.1191796
185	0x3ca39ce3	0.01997227
186	0xbc04662a	-0.008080998
187	0xbd8f9c7b	-0.07012268
188	0xbc04269c	-0.008065846
189	0xbe04a71a	-0.12954369
190	0xbda114dd	-0.078653075
191	0xbe0eded0	-0.13952184
192	0xbc7b61e2	-0.015343161
193	0x3d022420	0.031772733
194	0x3e1315ca	0.1436378
195	0x3c3c8063	0.011505219
196	0x3d7ad12c	0.061234638
197	0x3d8013e7	0.06253796
198	0xbdb7c06f	-0.08972251
199	0xbe6a82f2	-0.22901514
200	0x3deaf185	0.114718474
201	0xbdcd54cb	-0.100259386
202	0xbea2e113	-0.31812343
203	0xbdf47011	-0.119354375
204	0xbba0b9b5	-0.0049049505
205	0xbda452e3	-0.08023622
206	0x3d8fcffa	0.0702209
207	0x3e0ad9c9	0.13559641
208	0xbd5a0562	-0.05322779
209	0xbccc2def	-0.024924247
210	0xbcac1764	-0.021007247
211	0xbd9dc479	-0.0770349
212	0xbdde2948	-0.108477175
213	0x3d1cca1e	0.03827869
214	0xbaa4745a	-0.0012546882
215	0x3c80170f	0.015635995
216	0xbdee9bd2	-0.11650814
217	0xbe037499	-0.12837447
218	0xbdbbcd61	-0.09170032
219	0xbd2887c1	-0.04114509
220	0xbde76af3	-0.11299696
221	0xbdbeed9c	-0.09322664
222	0xbde778f7	-0.11302369
223	0xbd7f9ff5	-0.062408406
224	0xbcb410bf	-0.021980641
225	0x3b73f665	0.003722572
226	0xbd2ebb13	-0.042658877
227	0xbcd2b5de	-0.025721487
228	0xbd0819de	-0.033227794
229	0xbd6c336d	-0.05766623
230	0xbc288f2f	-0.010288044
231	0xbdf30693	-0.11866488
232	0xbdfd6d22	-0.12374331
233	0x3b923038	0.0044613145
234	0x3c8fb099	0.017540263
235	0xbd47f81c	-0.0488206
236	0xbd1afb6d	-0.037837435
237	0xbd49d21f	-0.049272653
238	0x3c099d40	0.008399308
239	0xbe07bd9a	-0.13255921
240	0xbde2efd9	-0.110809036
241	0xbcc88088	-0.024475351
242	0xbdaeab85	-0.085288085
243	0x3ea50d99	0.32236937
244	0x3e21c9c7	0.15799628
245	0x3dc84c6d	0.09780202
246	0x3dec7056	0.11544864
247	0x3daca406	0.084297225
248	0x3d3cd5b7	0.04610225
249	0x3e814346	0.25246638
250	0x3e41fdf9	0.18944539
251	0x3e52c06a	0.20581213
252	0x3b9dcbda	0.0048155608
253	0xbde3390e	-0.11094867
254	0xbd3be688	-0.04587415
255	0x3caae580	0.020861387

bias f4 [16]
0	0x3e5ab8e9	0.213596
1	0xbe2dc0fd	-0.1696815
2	0x3e495e69	0.19664921
3	0x3e7bade4	0.24578053
4	0xbd9a19d2	-0.07524456
5	0xbdd9d195	-0.10635678
6	0x3c42ffe3	0.011901828
7	0x3dcbaf28	0.09945518
8	0xbdfe98af	-0.12431466
9	0x3d91519e	0.07095645
10	0xbdd990b1	-0.10623301
11	0x3e0338b2	0.12814596
12	0x3d6a0ab9	0.057139132
13	0x3dd2a43d	0.10285232
14	0xbdc7a3a9	-0.097480126
15	0x3d7cd2e1	0.061724547

weight f4 [16, 1, 3, 3]
0	0xbea2e7fd	-0.31817618
1	0xbe82678a	-0.2546962
2	0xbe10e83e	-0.14151093
3	0x3de5758c	0.11204061
4	0x3e416273	0.18885212
5	0xbea85d65	-0.32883754
6	0xbe77f59d	-0.24214788
7	0xbe895648	-0.2682364
8	0x3dd17473	0.10227289
9	0x3e413e73	0.18871479
10	0x3db5d0a2	0.08877684
11	0xbde90217	-0.11377352
12	0x3e84a3a7	0.25906107
13	0xbe62983c	-0.22128385
14	0x3eb5a454	0.35476935
15	0x3e32ae4a	0.17449299
16	0x3e80b391	0.25136998
17	0x3e30ce3a	0.17266169
18	0x3e13910b	0.14410798
19	0x3e0487ef	0.1294248
20	0xbeb7e152	-0.35914093
21	0xbe07ffb6	-0.1328114
22	0xbece8080	-0.40332413
23	0xbe819745	-0.25310722
24	0xbe635bf7	-0.2220305
25	0xbec1b8da	-0.37836343
26	0x3c47db83	0.012198332
27	0x3e860a56	0.2617976
28	0x3e2c8fe7	0.1685177
29	0x3d81c5c5	0.0633655
30	0xbe413b55	-0.1887029
31	0xbe4b55d1	-0.19856955
32	0x3e8a3392	0.2699247
33	0xbec73d68	-0.38914037
34	0xbde03a9c	-0.10948679
35	0xbeb02826	-0.3440563
36	0xbeab8e68	-0.33507085
37	0xbe3a1616	-0.18172488
38	0xbf06fb54	-0.52727246
39	0x3dfa92c8	0.122350276
40	0x3e846340	0.25856972
41	0xbe2b95f7	-0.16756426
42	0x3e089990	0.1333983
43	0x3ea00711	0.3125539
44	0x3df140f2	0.117799655
45	0x3e2b9542	0.16756156
46	0xbea8dcf3	-0.3298107
47	0xbd89e3d5	-0.06732909
48	0x3d3d29e7	0.04618254
49	0x3d357a10	0.04430586
50	0x3c07f228	0.008297481
51	0x3cda2271	0.026627751
52	0xbe409f30	-0.18810725
53	0xbecb9b14	-0.39766753
54	0xbcfaee39	-0.030631172
55	0x3e3752ec	0.17902726
56	0xbea6df1a	-0.32592088
57	0x3e41c810	0.18923974
58	0xbea57d7c	-0.323223
59	0xbd38dd91	-0.045133177
60	0x3e9bee75	0.30455366
61	0x3e46356f	0.19356321
62	0xbdee5fad	-0.116393425
63	0xbe13b506	-0.14424524
64	0xbe78ab90	-0.24284196
65	0x3e10d674	0.14144307
66	0x3dc07453	0.09397187
67	0xbe9615b7	-0.29313442
68	0xbe7ee4a9	-0.24891914
69	0xbdd0fc5c	-0.10204384
70	0x3e8fe705	0.2810594
71	0x3e9d8a12	0.30769402
72	0xbe8e0ab5	-0.27742544
73	0x3c30d954	0.010794003
74	0xbe109c0b	-0.14122026
75	0xbd876471	-0.066109546
76	0xbd8c8d3d	-0.068628766
77	0xbdbe5ef0	-0.09295452
78	0x3e2a1846	0.16610822
79	0x3eb1ed48	0.34751344
80	0x3da5ef03	0.081022285
81	0x3cc74611	0.024325402
82	0xbeb5c77f	-0.35503766
83	0xbc601bc9	-0.0136784995
84	0x3e59889b	0.21243517
85	0xbea01a6a	-0.31270152
86	0xbe8ddc45	-0.27707115
87	0x3e2ab8ab	0.16672008
88	0xbda800cf	-0.08203279
89	0xbebfb300	-0.37441254
90	0x3e8df610	0.27726793
91	0x3e46ee78	0.19426906
92	0xbe18ae71	-0.14910294
93	0x3e494c14	0.19657928
94	0xbe13ee67	-0.14446412
95	0x3e7f6283	0.24939923
96	0xbe4a1e3b	-0.19738095
97	0xbeb8ac55	-0.3606898
98	0x3e133bcd	0.14378281
99	0xbe5750c3	-0.21026902
100	0xbb9cba96	-0.004782985
101	0x3e1f859e	0.15578315
102	0xbebfc24f	-0.37452933
103	0x3cf8cd9c	0.03037148
104	0x3e7feffb	0.24993889
105	0xbe242c00	-0.1603241
106	0x3d9a88b1	0.07545603
107	0xbe404dcf	-0.18779682
108	0x3e911fc5	0.2834455
109	0x3ee0adee	0.43882698
110	0xbeab2835	-0.33429113
111	0xbdaf9c89	-0.085747786
112	0xbcc64b93	-0.024205958
113	0xbe872ff8	-0.26403785
114	0x3cdeed95	0.027212897
115	0xbe18de22	-0.14928487
116	0x3e1d1eef	0.15343831
117	0xbe2b1c50	-0.16710019
118	0xbe2b3a3d	-0.16721435
119	0xbd74ef2e	-0.059798412
120	0xbeac75c8	-0.3368361
121	0xbea6e32e	-0.325952
122	0xbe9cbee4	-0.30614388
123	0x3d60288c	0.05472617
124	0xbe49dcb9	-0.19713105
125	0x3dbc8ddc	0.09206745
126	0xbf65e4b9	-0.8980213
127	0x3e0415c9	0.12898935
128	0x3e0cb797	0.13741909
129	0x3e468b06	0.1938897
130	0xbdbb6753	-0.09150567
131	0x3e2be4b5	0.16786464
132	0x3e68f650	0.22750211
133	0xbdd55e4b	-0.104183756
134	0x3e81c2a4	0.25343812
135	0x3cbe7871	0.02325079
136	0x3c27d677	0.0102440035
137	0xbc460474	-0.012086023
138	0x3d001fc0	0.03128028
139	0x3e6aa5a7	0.22914754
140	0xbe9df30f	-0.30849501
141	0x3e47d1bf	0.19513606
142	0xbdcae36f	-0.09906661
143	0xbe84d8ba	-0.259466
