output/model_0.pth (torch, 193138 bytes, 11 tensors)

weight f4 [16, 1, 3, 3]
0	0x3d5a0ae1	0.05323303
1	0x3e60a33c	0.21937269
2	0x3e74018a	0.23828712
3	0x3eadd405	0.3395082
4	0xbdc58b80	-0.09645748
5	0x3dd280ba	0.10278459
6	0xbddfc299	-0.109257884
7	0x3e8396b7	0.25700924
8	0x3e8a5fb0	0.2702613
9	0xbe7f7666	-0.24947509
10	0xbe8369b7	-0.25666592
11	0xbe2ea2a2	-0.17054227
12	0xbe1dd386	-0.15412721
13	0xbe8e28f1	-0.2776561
14	0x3e031cc2	0.12803939
15	0x3cdad190	0.026711255
16	0xbeacf314	-0.33779204
17	0x3ddc2052	0.10748352
18	0xbd4e092a	-0.05030171
19	0x3d5f98f6	0.054589234
20	0xbe615bec	-0.22007722
21	0xbea74f30	-0.32677603
22	0xbd89b249	-0.06723458
23	0xbe909e5b	-0.28245816
24	0x3e0ec821	0.1394353
25	0xbe9c1642	-0.3048573
26	0x3da07335	0.07834474
27	0x3e936d68	0.28794408
28	0xbe9e7767	-0.30950472
29	0xbc5ae282	-0.013359668
30	0xbcecde2b	-0.028914532
31	0x3e72c344	0.237073
32	0x3e64c7c6	0.22341833
33	0xbe936004	-0.28784192
34	0xbc788309	-0.01516796
35	0xbe98d0bf	-0.2984676
36	0xbe839000	-0.256958
37	0x3e3253ee	0.17414829
38	0xbe87a6db	-0.26494488
39	0xbea2cc9d	-0.31796733
40	0x3d8942e6	0.06702213
41	0xbd455d36	-0.048184596
42	0xbeb7d52d	-0.35904828
43	0xbd0f237c	-0.03494595
44	0x3e3ee90c	0.18643588
45	0x3d85f2d7	0.06540459
46	0x3df434c0	0.11924124
47	0x3e98580d	0.29754677
48	0x3d702603	0.05863
49	0x3e98efb0	0.29870367
50	0x3e034944	0.12820917
51	0x3e9d82dd	0.30763903
52	0x3e86943a	0.26284963
53	0x3e14e40c	0.14540118
54	0xbe508634	-0.20363694
55	0x3ea70d45	0.3262731
56	0x3eb85f89	0.36010388
57	0x3d8a110b	0.06741532
58	0x3c52b552	0.012860613
59	0xbe3fe903	-0.1874123
60	0xbd47ff4c	-0.048827454
61	0xbe9d782e	-0.30755752
62	0xbe8a519a	-0.27015382
63	0x3d4fab6e	0.050700597
64	0xbe6b225b	-0.22962324
65	0x3e7a3529	0.24434341
66	0xbec58b45	-0.38582817
67	0x3dbd082e	0.09230076
68	0x3e1af9c6	0.15134344
69	0xbe93468b	-0.28764758
70	0x3bd6092a	0.006531854
71	0x3b18b6bc	0.0023302278
72	0x3ea96837	0.33087322
73	0xbe5a8b4e	-0.21342203
74	0x3e123664	0.14278561
75	0x3da231db	0.079196654
76	0x3e943289	0.28944805
77	0x3e5b9078	0.21441829
78	0x3e4dcf31	0.20098568
79	0xbd4820bc	-0.048859343
80	0xbe4fac69	-0.20280613
81	0x3e7f7290	0.24946046
82	0xbe03c03c	-0.128663
83	0xbecf54db	-0.40494427
84	0xbea37108	-0.31922174
85	0xbdab969a	-0.08378334
86	0xbd393555	-0.045216877
87	0xbe9d3c6d	-0.30710164
88	0xbe21ba9a	-0.15793839
89	0xbe92c1f0	-0.28663588
90	0x3e668026	0.22509822
91	0xbd80e929	-0.06294472
92	0xbe83812b	-0.25684485
93	0x3e8c01ce	0.27345127
94	0xbea269ef	-0.31721446
95	0xbe89c707	-0.26909658
96	0x3e392f48	0.18084443
97	0x3e35b78d	0.177458
98	0xbce93165	-0.028465936
99	0xbd50a71a	-0.05094061
100	0xbea8f285	-0.32997528
101	0xbe8d2b85	-0.27572265
102	0x3e5ed87f	0.21762274
103	0xbe5e6e85	-0.21721847
104	0xbe9abed7	-0.30223724
105	0xbe38e04d	-0.18054314
106	0xbd84818d	-0.06470022
107	0xbe8ff502	-0.28116614
108	0xbdbff3e7	-0.093726926
109	0xbe114104	-0.14184958
110	0xbe8183fa	-0.25296003
111	0xbe64ac66	-0.2233139
112	0xbc5c3b14	-0.01344182
113	0xbda15aca	-0.07878645
114	0x3df382ac	0.11890158
115	0x3d1ba2e8	0.037997156
116	0xbddbe405	-0.10736851
117	0xbd9a2a8c	-0.075276464
118	0x3d4d6080	0.050140858
119	0x3d912dee	0.070888385
120	0xbdcc878b	-0.0998679
121	0x3e22d1ba	0.15900317
122	0xbe8bd570	-0.27311277
123	0xbdfb02fe	-0.1225643
124	0x3e730c76	0.23735222
125	0xbe8ce96b	-0.27521834
126	0x3e147667	0.14498292
127	0x3a924dd2	0.0011162108
128	0xbeb05ec8	-0.34447312
129	0xbe1266ed	-0.14297076
130	0xbe082e03	-0.13298802
131	0x3dd70253	0.1049849
132	0xbe585a56	-0.2112821
133	0x3e639ef5	0.22228606
134	0x3e628373	0.22120456
135	0xbe225d83	-0.15855984
136	0x3e415f1f	0.18883942
137	0xbd970aac	-0.073750824
138	0xbeabd5fb	-0.33561692
139	0x3b05fb60	0.002044402
140	0xbe476c06	-0.19474801
141	0xbea71e2a	-0.326402
142	0xbdcdf888	-0.10057169
143	0x3e1a5bd7	0.15074097

bias f4 [16]
0	0xbdf70498	-0.12061423
1	0xbeaf41c0	-0.3422985
2	0x3e3969a3	0.18106703
3	0xbe475b41	-0.19468404
4	0xbdddbc38	-0.108269155
5	0xbe1e7913	-0.15475874
6	0xbbb85802	-0.0056257257
7	0xbcdf5315	-0.027261296
8	0xbd8f8797	-0.070082836
9	0x3dd269c3	0.10274079
10	0xbc3845f7	-0.01124715
11	0x3ca03406	0.019556057
12	0x3e1f2546	0.15541562
13	0xbe91812c	-0.28418863
14	0x3e011e5c	0.12609237
15	0xbe7ec17b	-0.24878494

weight f4 [32, 16, 3, 3]
0	0xbdc092e5	-0.09403018
1	0xbda1f5d0	-0.07908213
2	0xbd032bf0	-0.032024324
3	0xbe14f3ee	-0.14546177
4	0xbcd6a2fb	-0.026200762
5	0xbd4cdc62	-0.05001486
6	0xbca65a35	-0.020306686
7	0xbc887be8	-0.016660646
8	0xbd03a562	-0.032140143
9	0x3cfb8dfc	0.030707352
10	0x3d4d802a	0.050171055
11	0xbb4317e0	-0.002976887
12	0x3d2d6056	0.0423282
13	0x3c31ba48	0.010847636
14	0x3d9f5c4b	0.07781275
15	0x3d310616	0.043218695
16	0x3d1dd280	0.038530827
17	0xbcab0eac	-0.02088102
18	0xbbe9382b	-0.0071172914
19	0xbd45dc71	-0.048305932
20	0xbe14ca76	-0.14530358
21	0xbdb32fd1	-0.08749355
22	0xbc0ed714	-0.008718271
23	0x3c2ed3d2	0.010670619
24	0xbd8c79ba	-0.06859155
25	0xbd08053d	-0.03320812
26	0xbd44501d	-0.047927964
27	0x3d58a85b	0.05289493
28	0xbd169c65	-0.036770243
29	0xbd4870f9	-0.048935864
30	0xbbd8b527	-0.006613392
31	0xbdea993e	-0.1145501
32	0xbdc9b4b2	-0.09848918
33	0xbdecb5d5	-0.11558119
34	0xbcb653f1	-0.022256823
35	0x3ae4f392	0.0017467609
36	0x3cc5ec2e	0.02416047
37	0x3c55ea2f	0.013056322
38	0xbdd6a4a9	-0.10480625
39	0xbc962699	-0.018328952
40	0xbd9fa789	-0.07795627
41	0xbdcd5878	-0.1002664
42	0xbe1456da	-0.14486256
43	0xbd05c2a7	-0.032656338
44	0xbdf55084	-0.11978248
45	0xbe05bb77	-0.13059793
46	0xbddde60d	-0.10834894
47	0x3c27fd63	0.010253283
48	0xbdd1b3bf	-0.10239362
49	0xbdb9c00e	-0.09069835
50	0xbdb8a61d	-0.090160586
51	0x3b8453e5	0.0040383213
52	0xbe02fe6c	-0.12792367
53	0xbd03502e	-0.032058887
54	0xbdc728c4	-0.09724572
55	0xbd448e6e	-0.047987394
56	0x3b0af460	0.0021202788
57	0xbe123b81	-0.14280511
58	0xbc7b4b48	-0.015337773
59	0xbd578a57	-0.052622166
60	0x3d1e2874	0.038612798
61	0x3ca13fa1	0.019683661
62	0xbc962908	-0.018330112
63	0xbcce2a75	-0.02516673
64	0xbdd580e3	-0.10424974
65	0xbdf83c1f	-0.12120842
66	0xbb431147	-0.0029764937
67	0xbddeab60	-0.10872531
68	0xbdcb1f90	-0.099181294
69	0xbca21c62	-0.019788925
70	0xbd3bf388	-0.045886546
71	0xbdac3802	-0.0840912
72	0xbc99a3d0	-0.01875487
73	0x3d0e3952	0.034722634
74	0xbdd0eb66	-0.10201149
75	0xbddafcc8	-0.106927454
76	0xbdb6f45b	-0.08933326
77	0xbd1788be	-0.036995642
78	0xbe0e0bc8	-0.13871682
79	0xbdb75f51	-0.08953727
80	0xbd53ee0a	-0.051740684
81	0xbdfae105	-0.1224995
82	0xbdcb85d4	-0.09937635
83	0xbc5780c7	-0.0131532615
84	0xbe10cba8	-0.14140189
85	0xbe109485	-0.14119156
86	0xbc6f0c4d	-0.014590335
87	0xbd79bc14	-0.06097038
88	0xbddbed95	-0.107386746
89	0xbcd80fb4	-0.026374675
90	0xbd31883a	-0.043342806
91	0xbd44adf6	-0.048017465
92	0xbd355a8b	-0.0442758
93	0xbd514759	-0.051093433
94	0xbdfd875c	-0.123793334
95	0xbe172450	-0.14759946
96	0xbc68a307	-0.014199025
97	0xbc8de330	-0.017320246
98	0x3cd99265	0.026559064
99	0xbdde29bd	-0.10847805
100	0xbd16a1ac	-0.036775276
101	0xbb89b364	-0.004202293
102	0xbe17bc9f	-0.14818047
103	0x3d445d05	0.047940273
104	0xbd521211	-0.05128676
105	0xbd801641	-0.062542446
106	0xbd75da5d	-0.0600227
107	0x3d1fd492	0.039021082
108	0xbdfe277f	-0.12409877
109	0xbd7aed84	-0.06126167
110	0xbde82f44	-0.1133714
111	0xbdc07f78	-0.09399313
112	0xbdb41791	-0.087935574
113	0xbd41606d	-0.0472111
114	0xbdfe78c4	-0.12425378
115	0x3c399ac6	0.011328405
116	0xbe0df706	-0.13863763
117	0x3dd3309a	0.103120044
118	0x3d4cb6d8	0.04997906
119	0x3d26fd5f	0.040768977
120	0x3d956dcf	0.07296335
121	0x3c857088	0.01628901
122	0xbc667a96	-0.014067313
123	0x3d9f1a57	0.07768696
124	0x3d0c195b	0.03420387
125	0xbd329a28	-0.043604046
126	0xbdd02582	-0.10163404
127	0xbe1f7afb	-0.15574257
128	0xbdb405b0	-0.08790147
129	0xbe1d4e96	-0.1536201
130	0xbd83305f	-0.064057104
131	0xbd1454bb	-0.036213618
132	0xbd8ef109	-0.069795676
133	0xbdbd5f6d	-0.09246717
134	0xbdef2a42	-0.11677982
135	0xbca878f7	-0.020565493
136	0xbcff8310	-0.031190425
137	0xbe0b413f	-0.13599108
138	0x3cd6614c	0.026169442
139	0x3c20ae47	0.009807176
140	0xbcf88535	-0.030336956
141	0xbd29b870	-0.04143566
142	0xbe099039	-0.13433923
143	0xbc57a755	-0.013162454
144	0x3c7d113d	0.015446004
145	0xbc62f2a4	-0.013851795
146	0xbe0592d9	-0.13044299
147	0xbd6a0024	-0.05712904
148	0xbe0b3c3d	-0.13597198
149	0xbd946001	-0.07244874
150	0x3cdce730	0.026965708
151	0xbd011edb	-0.031523567
152	0xbc3f76e8	-0.011686064
153	0xbdb765c2	-0.08954956
154	0x3d47ce8d	0.048780967
155	0x3d507a42	0.050897844
156	0x3cbe1cb5	0.023207048
157	0x3dc760a6	0.09735231
158	0xbc04df57	-0.008109889
159	0x3d7dbe7e	0.061949246
160	0x3b3b888f	0.002861533
161	0x3d952e5d	0.07284234
162	0xbdf4d304	-0.119543105
163	0xbd7fd71c	-0.062461004
164	0x3bdfdbe7	0.0068316343
165	0xbe1147de	-0.14187571
166	0xbdecafa5	-0.11556939
167	0xbdcadc0e	-0.09905253
168	0xbd867ba5	-0.06566552
169	0xbccba7f5	-0.024860362
170	0xbcf8f814	-0.03039173
171	0xbcdda24c	-0.027054928
172	0xbda828d8	-0.08210915
173	0xbe05ce64	-0.13067013
174	0xb808fe18	-3.266157e-05
175	0xbe03457e	-0.12819478
176	0xbd0c96f7	-0.03432366
177	0xbd5217b0	-0.05129212
178	0xbe0732cb	-0.1320297
179	0xbcc0de12	-0.023543391
180	0xbd844376	-0.0645818
181	0x3c1133e6	0.008862471
182	0xbd9dc171	-0.07702912
183	0xbe0356b9	-0.12826051
184	0xbd095072	-0.033523984
185	0x3d33a26c	0.04385607
186	0xbdcf8e3c	-0.10134551
187	0xbd33bb69	-0.0438799
188	0xbd88820a	-0.06665428
189	0xbddbc405	-0.10730747
190	0xbd346449	-0.044040952
191	0xbd1146f5	-0.03546806
192	0xbdfaeddf	-0.122524016
193	0xbd80ff38	-0.06298679
194	0xbc8885a1	-0.016665282
195	0xbc91a243	-0.017777568
196	0xbcd63394	-0.026147641
197	0x3c28705a	0.010280693
198	0xbd1db868	-0.03850594
199	0xbdfe0b44	-0.124044925
200	0xbdeba022	-0.11505152
201	0xbdae11a4	-0.084994584
202	0xbe00155c	-0.12508148
203	0xbda110c0	-0.07864523
204	0xbde9e294	-0.114201695
205	0xbc5e7aa1	-0.013579042
206	0xbe08a9ac	-0.13345975
207	0xbd183c2f	-0.03716677
208	0xbdce8bba	-0.100852445
209	0xbdce9578	-0.10087103
210	0xbcb62a47	-0.022236956
211	0xbdcbaf78	-0.099455774
212	0xbda35a37	-0.079761915
213	0xbd3ca80c	-0.0460587
214	0xbd02326a	-0.03178636
215	0xbd2fb367	-0.0428957
216	0x3c7d3f14	0.0154569335
217	0x3c6d49ca	0.014482925
218	0xbdbb4fc3	-0.09146073
219	0xbcfc96e3	-0.030833667
220	0xbc700414	-0.01464941
221	0xbcb2221d	-0.021744782
222	0x3ca76133	0.02043209
223	0x3cce5844	0.025188573
224	0xbdeb947c	-0.115029305
225	0xbd4654b3	-0.04842062
226	0xbd251236	-0.04030057
227	0xbdff302b	-0.12460359
228	0xbd67dd36	-0.056607448
229	0xbded799e	-0.11595462
230	0xbdf39870	-0.118943095
231	0xbb116220	-0.0022183731
232	0xbbb8f05a	-0.0056438865
233	0x3b5bded9	0.0033549576
234	0xbd5509ff	-0.052011486
235	0xbcfe5f0f	-0.031051187
236	0xbdb3160f	-0.08744442
237	0x3d042ed5	0.032271225
238	0x3b47d6da	0.0030493052
239	0x3c2c2ee8	0.01050923
240	0xbdf92e43	-0.12167027
241	0xbda108dd	-0.07863019
242	0x3cf66e3b	0.030081859
243	0xbdd65add	-0.104665495
244	0x3cca1309	0.02466728
245	0xbdebb346	-0.11508803
246	0xbd918256	-0.07104938
247	0xbd28ad09	-0.041180644
248	0x3cd3a1d6	0.025834005
249	0xbde05527	-0.109537415
250	0xbdcc8a30	-0.09987295
251	0xbdedb2b2	-0.11606349
252	0xbd36978a	-0.044578113
253	0xbd937a23	-0.0720103
254	0xbdec4e77	-0.115384035
255	0xbd066442	-0.032810457

bias f4 [32]
0	0xbd253611	-0.040334765
1	0xbdceede5	-0.101039685
2	0x3dba04ae	0.09082924
3	0xbd0775cd	-0.033071328
4	0xbdc3a86c	-0.09553608
5	0x3d0fce10	0.035108626
6	0xbd69e184	-0.057099834
7	0xbcf52fa5	-0.029929945
8	0xbd33f927	-0.043938782
9	0xbdc36bfb	-0.0954208
10	0xbd0fb6e0	-0.035086513
11	0xbdc9c39b	-0.09851762
12	0xbdd6392c	-0.104601234
13	0xbd82292a	-0.06355508
14	0x3d236fa9	0.03990141
15	0xbdd4e77a	-0.10395713
16	0x3aa62124	0.0012674672
17	0x3d077a8c	0.033075854
18	0xbde80fdd	-0.11331151
19	0xbdfeeb79	-0.124472566
20	0x3d42b716	0.047537886
21	0xbcbe8dd0	-0.02326098
22	0xbd817ceb	-0.06322654
23	0x3da5368a	0.08067043
24	0xbd7f161b	-0.06227694
25	0xbc51768e	-0.012784613
26	0xbdcad989	-0.09904773
27	0xbdb760fa	-0.08954044
28	0x3d10f6a9	0.035391483
29	0xbd701ffc	-0.058624253
30	0x3d96af29	0.07357628
31	0xbe02ea83	-0.12784772

weight f4 [64, 32, 3, 3]
0	0xbdde191e	-0.108446345
1	0xbdedac6a	-0.11605151
2	0xbdd1b171	-0.102389224
3	0xbb08534d	-0.0020801604
4	0xba11b048	-0.0005557579
5	0xbdd23fdb	-0.10266086
6	0xbd6926b6	-0.056921683
7	0xbd9575dd	-0.07297871
8	0xbde5e58c	-0.11225423
9	0x3c9d909a	0.01923399
10	0x3cc01aa3	0.023450201
11	0x3d26121b	0.04054461
12	0x3d41121a	0.047136404
13	0x3dae12b8	0.08499664
14	0xbdaa1a6a	-0.08305819
15	0xbc837e88	-0.016051546
16	0xbc083b36	-0.008314898
17	0xbd72abc0	-0.059245825
18	0xbd97398b	-0.07384022
19	0xbd096b11	-0.033549372
20	0xbcef277c	-0.029193632
21	0xbb9f5270	-0.0048621222
22	0xbd111fa6	-0.035430573
23	0xbdb66e11	-0.08907712
24	0xbcf553df	-0.02994722
25	0xbdd9b447	-0.10630088
26	0xbc782402	-0.015145304
27	0xba785dfd	-0.00094744546
28	0x3d3bb743	0.04582907
29	0x3daca6d8	0.084302604
30	0x3d3abb36	0.045588695
31	0x3d0e4503	0.034733783
32	0x3dbd23a9	0.09235317
33	0x399335eb	0.00028078197
34	0x3dd28dac	0.10280928
35	0x3d2ed665	0.04268493
36	0xbda60f20	-0.081083536
37	0x3d639d73	0.055570077
38	0x3cbbf025	0.022941658
39	0xbb507299	-0.0031806587
40	0x3c374fce	0.0111884605
41	0x3ce60941	0.028080584
42	0x3be4aba9	0.0069784713
43	0x3dce3b52	0.10069908
44	0x3d1c3ff2	0.03814692
45	0xbd8cddff	-0.0687828
46	0xbc89d93a	-0.016827215
47	0xbdee9851	-0.11650146
48	0xbdc9e1d3	-0.09857526
49	0xbc5a15d6	-0.01331087
50	0xbd8faf03	-0.07015803
51	0xbd47f42d	-0.04881685
52	0xbb996a00	-0.0046818256
53	0xbdbcb939	-0.09215016
54	0xbdebad68	-0.11507684
55	0xbddbfaff	-0.10741233
56	0xbd9ca5f1	-0.07648838
57	0xbdb51a4e	-0.08842908
58	0xbdec660b	-0.11542901
59	0x3bb94eaf	0.005655132
60	0xb78d2be8	-1.6828955e-05
61	0xba42683d	-0.00074160454
62	0xbcabcb07	-0.020970834
63	0xbce3f5fd	-0.027827257
64	0xbd560e23	-0.052259576
65	0xbd6ef1b2	-0.058335967
66	0xbdd7597f	-0.10515117
67	0xbd88f8c3	-0.066880725
68	0xbccda72c	-0.025104128
69	0xbc36eb0d	-0.011164439
70	0xbd18489e	-0.03717863
71	0xbdd0e832	-0.10200538
72	0x3d939414	0.07205978
73	0x3d638e8f	0.055555876
74	0x3d9af51e	0.07566284
75	0x3d5f046a	0.05444757
76	0x3d4fb22f	0.05070704
77	0xbe0a1e97	-0.13488232
78	0xbd33b6b8	-0.043875426
79	0xbdc5e436	-0.096626684
80	0xbce20eed	-0.027595008
81	0xbcddcdf7	-0.02707575
82	0x3dc37c1c	0.09545156
83	0x3d8e9004	0.069610626
84	0xbbc566bb	-0.0060242093
85	0xbd56daf9	-0.052454922
86	0xbdb76dbd	-0.08956478
87	0xbdc68425	-0.09693173
88	0xbd88884e	-0.06666623
89	0xbc884250	-0.016633183
90	0x3d799632	0.060934253
91	0xb9689ade	-0.00022182937
92	0x3d33f562	0.043935187
93	0x3d081d3b	0.033231
94	0x3dbcb23d	0.09213684
95	0xbe05adb0	-0.13054538
96	0x3da3f7a7	0.0800622
97	0xbd74231a	-0.059603788
98	0xbdcc94dc	-0.0998933
99	0x3d2daedb	0.042403083
100	0xbc8fc612	-0.017550502
101	0xbc393442	-0.011303963
102	0xbd4e1731	-0.050315086
103	0xbd20e180	-0.039277554
104	0xbd8dcaf0	-0.06923473
105	0xbd6d4733	-0.05792923
106	0xbddf3cff	-0.10900306
107	0xbd62b94b	-0.05535249
108	0xbda199d6	-0.0789067
109	0xbdaa0ea4	-0.08303574
110	0xbcec5fb2	-0.028854225
111	0xbcc661f4	-0.02421663
112	0xbd6b71b9	-0.0574815
113	0xbd869378	-0.06571096
114	0xbcfad338	-0.030618295
115	0xbddebb66	-0.10875587
116	0xbdc1f276	-0.09470074
117	0xbd099bf8	-0.03359601
118	0xbda10b96	-0.07863538
119	0xbd73e583	-0.05954505
120	0x3d8efda7	0.06981974
121	0x3d2a8f9a	0.041640855
122	0xbd2e73d2	-0.042590924
123	0xbbec5f34	-0.0072134975
124	0x3d8966c5	0.06709055
125	0xbb9630c9	-0.0045834524
126	0x3d429139	0.047501776
127	0x3c880c84	0.01660753
128	0x3b0c4ddc	0.0021408712
129	0xbac3a9a5	-0.0014927877
130	0xbcd9d5f4	-0.026591279
131	0xbde6838b	-0.112555586
132	0xbc8f8306	-0.017518532
133	0xbdc38682	-0.0954714
134	0xbd9d03d5	-0.076667465
135	0xbd82afe9	-0.063812084
136	0x3d71f6ba	0.059073187
137	0x3d115eba	0.03549073
138	0xbbf741d7	-0.0075456905
139	0x3c6120fb	0.013740773
140	0x3ded7616	0.11594789
141	0x3da3c23e	0.07996033
142	0x3c831715	0.016002217
143	0x3c1e32b2	0.009655641
144	0xbd9e8e51	-0.077419885
145	0xbd65d42a	-0.05611054
146	0xbd8f0bdd	-0.069846846
147	0xbcec192b	-0.028820595
148	0xbcb10485	-0.0216086
149	0xbd1313f2	-0.035907693
150	0xbd954f7c	-0.07290551
151	0xbd5a234c	-0.053256318
152	0xbd768ef1	-0.060194913
153	0xbcbbca8f	-0.022923736
154	0xbdba3ada	-0.09093256
155	0xbca11106	-0.019661438
156	0xbd45f42e	-0.04832857
157	0xbe02d406	-0.12776193
158	0x3d09e471	0.033665124
159	0xbda10b99	-0.0786354
160	0xbc103243	-0.008801046
161	0xbd927f82	-0.071532264
162	0xbdb22c44	-0.08699849
163	0xbdbd242a	-0.09235413
164	0xbdb0f875	-0.086411394
165	0xbc1e9896	-0.009679934
166	0xbd86ae79	-0.06576247
167	0xbd1ad0bb	-0.037796717
168	0xbdd2a697	-0.10285681
169	0xbdc30a93	-0.09523501
170	0xbccc83e3	-0.024965232
171	0x3b2fb073	0.0026808053
172	0x3bdc58df	0.0067244614
173	0xbdafd811	-0.08586133
174	0xbbc166de	-0.0059021553
175	0xbd9c1337	-0.076208524
176	0xbd13d361	-0.03609026
177	0x3c389e1c	0.011268165
178	0x3c9d05c9	0.019167798
179	0xbcefb758	-0.02926223
180	0xbd656ed6	-0.056013905
181	0xbd96a5a8	-0.07355815
182	0xbcd05026	-0.025428843
183	0xbd44d637	-0.048055854
184	0xbca25243	-0.019814616
185	0xbdd2ba4b	-0.10289439
186	0xbda02d4f	-0.07821142
187	0xbd9e68a6	-0.07734804
188	0xbdbbf64d	-0.091778375
189	0xbdbff366	-0.093725964
190	0xbd8080e5	-0.06274585
191	0xbcda0117	-0.026611848
192	0xbcebfa05	-0.028805742
193	0xbd03df11	-0.032195155
194	0xbdadd2e5	-0.084874906
195	0xbda5922d	-0.080845214
196	0xbd92b1b8	-0.071628034
197	0xbd9b7828	-0.07591277
198	0xbdea6ab3	-0.114461325
199	0x3beaa52c	0.0071608033
200	0x3ca3d8c2	0.02000082
201	0xba20485a	-0.0006114297
202	0x3baa47e7	0.0051965597
203	0x3d59f3d2	0.05321104
204	0x3d879673	0.06620493
205	0x3ca92b32	0.02065048
206	0x3db9a4ee	0.09064661
207	0xbdee77d5	-0.1164395
208	0xbd72b68a	-0.059256114
209	0xbcb1738c	-0.021661542
210	0xbd789191	-0.060685698
211	0xbdbc0ec3	-0.09182503
212	0xbbfc06a2	-0.0076912204
213	0xbd2ece94	-0.042677477
214	0xbcd06762	-0.025439922
215	0xbd92bcc3	-0.0716491
216	0xbd8db5d8	-0.069194496
217	0xbda6a61d	-0.08137152
218	0xbdb8276e	-0.089918956
219	0xbd87dbbe	-0.06633709
220	0xbd1f7b8a	-0.038936175
221	0xbcf694c4	-0.030100234
222	0xbcd2c2e8	-0.025727704
223	0xbd9074a4	-0.070534974
224	0xbcb446a5	-0.022006342
225	0xbdd996dd	-0.10624478
226	0xbd74709b	-0.0596777
227	0xbda3bacd	-0.07994614
228	0xbdca9bcd	-0.09892998
229	0xbdb08ee0	-0.08621001
230	0xbdcfb867	-0.10142594
231	0xbdcc57a4	-0.099776536
232	0xbde7023f	-0.11279725
233	0xbd7de749	-0.06198815
234	0x3d97d9fa	0.074146226
235	0xb9f6b6a1	-0.00047056846
236	0x3dce00ed	0.1005877
237	0x3caad88a	0.020855207
238	0x3c9258f8	0.01786469
239	0x3d8b4513	0.06800284
240	0x3baf27dc	0.005345328
241	0x3a8aaf07	0.0010580727
242	0x3b89827e	0.004196464
243	0xbd4c4d64	-0.049878493
244	0x3d6311ec	0.055437014
245	0x3d955939	0.072924085
246	0x3da250f6	0.07925598
247	0x3cc28116	0.023743194
248	0x3cb66efb	0.022269716
249	0x3d84147c	0.064492196
250	0x3d0d5480	0.034504414
251	0x3d070f0b	0.03297333
252	0xbd3286f5	-0.043585736
253	0xbde41b6d	-0.111380436
254	0xbcdd9860	-0.027050197
255	0xbdc807c5	-0.09767107

bias f4 [64]
0	0xbda12841	-0.07869006
1	0xbd6da726	-0.058020733
2	0xba8f3141	-0.0010924713
3	0xbd231c0f	-0.03982168
4	0xbd896d6a	-0.06710322
5	0xbd7cef2e	-0.061751537
6	0x3d64ee86	0.055891536
7	0x3d694ed1	0.05695993
8	0xbd578601	-0.05261803
9	0xbd6dca89	-0.05805448
10	0x3d1dbd98	0.03851089
11	0xbc00d5f3	-0.0078635095
12	0xbd5a6d7c	-0.05332707
13	0xbd90b7a0	-0.07066274
14	0xbd9211f7	-0.07132333
15	0xbd784616	-0.060613714
16	0xbdc48ca9	-0.09597141
17	0xbd829a5b	-0.06377097
18	0xbdbd6da8	-0.09249431
19	0x3d119d54	0.03555043
20	0xbdd10e49	-0.10207803
21	0xbcc38a14	-0.023869552
22	0x3d71c784	0.059028164
23	0xbdc388e3	-0.095475934
24	0x3cabac90	0.020956308
25	0xbcf5114e	-0.029915478
26	0xbd0f3d76	-0.034970723
27	0xbc97bc61	-0.018522443
28	0xbd400415	-0.046878893
29	0xbc1bba47	-0.009504861
30	0x3c140669	0.009034731
31	0xbd23c676	-0.03998419
32	0xbd9cb315	-0.07651345
33	0xbb975c7f	-0.0046191807
34	0xbda4d638	-0.080486715
35	0xbbca3e63	-0.006171988
36	0xbd10785b	-0.03527103
37	0x3c2849ad	0.010271472
38	0x3cf04d59	0.029333757
39	0xbcc125ea	-0.02357765
40	0xbd873be5	-0.06603221
41	0xbe08593a	-0.13315287
42	0xbd7c94d2	-0.061665364
43	0xbdebc9f4	-0.11513129
44	0xbcdd614f	-0.02702394
45	0xbc7c32cf	-0.015392973
46	0xbbaa1e95	-0.005191634
47	0xbce31106	-0.027718078
48	0xbda6d4f6	-0.08146088
49	0xbbee5eee	-0.0072745
50	0x3d963dae	0.07335983
51	0xbd3e44eb	-0.046452444
52	0xbcd6dbaa	-0.02622779
53	0x3ca83f58	0.020538017
54	0xbd0af2fb	-0.03392313
55	0x3c198017	0.009368918
56	0xbddd5710	-0.108076215
57	0x3bc25691	0.0059307297
58	0xbca44954	-0.020054497
59	0xbda09c11	-0.07842267
60	0xbd2b3822	-0.04180158
61	0x3d51c584	0.051213756
62	0xbd884c2e	-0.06655155
63	0x3d0cf007	0.034408595

weight f4 [64, 32, 3, 3]
0	0x3d92566a	0.071453884
1	0x3da1b5ed	0.07896028
2	0xbd634d36	-0.055493556
3	0x3d1d047c	0.038334355
4	0x3cf73979	0.030178772
5	0x3c2778c8	0.010221668
6	0x3d06922c	0.032854244
7	0x3d3e83a3	0.046512257
8	0x3d068d85	0.032849807
9	0x3d9004fa	0.07032199
10	0x3dba6cb5	0.091027655
11	0x3c95af35	0.018272022
12	0x3db36377	0.08759206
13	0x3d8d3270	0.06894386
14	0x3da9af8c	0.08285436
15	0x3d5bb42d	0.053638626
16	0x3d57e4d7	0.052708473
17	0x3ded1632	0.11576499
18	0x3d930463	0.07178571
19	0x3d7c7088	0.061630756
20	0x3c407093	0.01174559
21	0x3c881f3d	0.016616458
22	0x3b9ab5e3	0.0047213896
23	0x3d221b00	0.03957653
24	0x3a9e6979	0.0012085877
25	0x3d1cf24a	0.038317002
26	0x38bbe980	8.9603476e-05
27	0xbc23e4f8	-0.010003321
28	0xbd7a4bee	-0.06110757
29	0xbd6767e4	-0.056495562
30	0x3c1d559c	0.00960293
31	0xbd9bf6b0	-0.07615411
32	0xbcf9607a	-0.030441511
33	0xbcd05c4a	-0.025434632
34	0xbdba63fc	-0.09101102
35	0xbd191586	-0.037374042
36	0xbd0531fe	-0.03251838
37	0xbdcd145a	-0.100136474
38	0xbda2808d	-0.07934675
39	0xb9d90fe4	-0.00041401305
40	0xbdc6cea0	-0.09707379
41	0xbcb75aa9	-0.022382097
42	0xbb3887de	-0.0028157155
43	0xbc40b6a6	-0.011762297
44	0xbde1533f	-0.11002206
45	0xbd651fd0	-0.055938542
46	0xbc8adb92	-0.016950402
47	0xb986d8a1	-0.00025719873
48	0xbcf39880	-0.029735804
49	0xbc4fa949	-0.012674638
50	0xbcf0a19e	-0.02937394
51	0xbd7aa904	-0.061196342
52	0xbd70e947	-0.05881622
53	0xbdbddfbc	-0.092711896
54	0xbd59eff7	-0.053207364
55	0xbd96710d	-0.073457815
56	0x3c2ac2dc	0.010422435
57	0x3d1ad445	0.037800092
58	0xbc76a32e	-0.0150535535
59	0x3c801d36	0.015638929
60	0xbd63cc0a	-0.05561451
61	0x3b97a6fa	0.0046280595
62	0xbd63bfc1	-0.055602793
63	0xbdbb5d3e	-0.09148644
64	0xbb9a2b3e	-0.004704862
65	0x3d394627	0.045232918
66	0x3dbfe619	0.093700595
67	0x3d8e00f2	0.06933774
68	0x3c96068a	0.018313665
69	0xb9a10b38	-0.00030716672
70	0x3bd286b6	0.00642475
71	0x3d44f181	0.04808188
72	0xbd9c507b	-0.07632538
73	0xbddfbafd	-0.10924337
74	0xbdb3ff39	-0.08788914
75	0xbd26d6d4	-0.04073222
76	0xbc950672	-0.01819155
77	0xbd08450c	-0.033268973
78	0xbdec8cfc	-0.11550328
79	0xbd88345e	-0.06650613
80	0xbdc5d429	-0.09659607
81	0xbbcda738	-0.0062760375
82	0x3d038211	0.032106463
83	0xbc102dac	-0.0087999515
84	0xbc2fabd8	-0.010722123
85	0xba911c20	-0.0011071004
86	0x3c683014	0.014171619
87	0xbd2ee440	-0.042698145
88	0x3b407a40	0.0029369742
89	0x3d0cb833	0.034355354
90	0x3c7d0781	0.015443684
91	0x3d3dc0ce	0.04632645
92	0x3d0a3ab6	0.033747397
93	0x3d6c1323	0.057635438
94	0x3d3a6676	0.04550787
95	0x3dc8197b	0.09770485
96	0xbda44b69	-0.08022196
97	0x3d5858bb	0.052818995
98	0xbd9cbf7c	-0.0765371
99	0xbd99d157	-0.075106315
100	0xbca5e060	-0.020248592
101	0xbc598aa1	-0.013277681
102	0xbdc73d57	-0.097284965
103	0xbd43d0f2	-0.047806688
104	0xbdab0196	-0.08349912
105	0xbd06d14d	-0.03291445
106	0xbce265f5	-0.027636508
107	0xbdcc3f13	-0.09972968
108	0xbd919091	-0.07107652
109	0xbcd847e0	-0.02640146
110	0xbc9b5810	-0.01896289
111	0xbc45fff0	-0.012084946
112	0xbd9c3dbf	-0.07628965
113	0xbde28da5	-0.11062173
114	0xbdd8a513	-0.105783604
115	0xbc7b7830	-0.015348479
116	0xbd117e4a	-0.03552083
117	0xbcb3aef2	-0.021934006
118	0xbc4bf890	-0.012449399
119	0xbc2a43cc	-0.010392141
120	0x3d519791	0.051169936
121	0xbd50cb29	-0.050975
122	0xbbaf2762	-0.005345271
123	0x39985c12	0.00029060297
124	0x3ceb7b39	0.02874528
125	0x3c667c47	0.014067716
126	0xbbd827e9	-0.0065965545
127	0x3db47490	0.08811295
128	0x3d8f22c1	0.06989051
129	0x3d65508a	0.05598501
130	0x3dc73ae3	0.097280286
131	0x3dd02757	0.101637535
132	0x3d8c2c0c	0.06844339
133	0x3db89586	0.09012894
134	0x3b1ea6fd	0.002420842
135	0xbc87ff17	-0.016601129
136	0xbd1e2fd2	-0.038619824
137	0x3da125e2	0.07868554
138	0xbdc4b6a5	-0.09605149
139	0xbccb72ce	-0.024835017
140	0x3dddc6f2	0.108289614
141	0xbdaeea66	-0.08540802
142	0xbccd2dbf	-0.025046227
143	0xbdb0440a	-0.086067274
144	0x3cb071cc	0.021538638
145	0x3d9fb807	0.07798772
146	0x3c746957	0.014917693
147	0x3ccc16f9	0.024913298
148	0x3d847b37	0.06468814
149	0xbd91a84b	-0.071121775
150	0xbd7ff610	-0.062490523
151	0xbd56cc31	-0.052440826
152	0xbd57c73f	-0.05268025
153	0xbdbe8f34	-0.093046576
154	0x3ca4be8a	0.020110387
155	0x3d855009	0.06509406
156	0x3da68cea	0.08132346
157	0x3c13124c	0.00897653
158	0x3daf2d95	0.08553616
159	0x3da42e92	0.08016695
160	0x3d38b5f3	0.045095395
161	0x3d4ba9ac	0.04972236
162	0xbdaef5ef	-0.08543002
163	0x3d339f84	0.043853298
164	0x3db37739	0.08762974
165	0xbd999b65	-0.07500342
166	0xbd7c525f	-0.061601993
167	0x3dc79130	0.09744489
168	0xbdacc559	-0.084360786
169	0xbdb7c621	-0.08973337
170	0xbc4b5547	-0.012410468
171	0xbda0ff8b	-0.07861241
172	0xbda390e7	-0.07986622
173	0xbdd8d1b7	-0.10586875
174	0xbd553117	-0.05204877
175	0xbcb0f73b	-0.021602264
176	0xbd605214	-0.054765776
177	0xbca3989c	-0.01997023
178	0xbd36b887	-0.044609573
179	0xbbf1fd62	-0.007384942
180	0x3aabc207	0.0013104089
181	0xbafa370e	-0.0019089894
182	0x3da59138	0.08084339
183	0x3db2f486	0.087380454
184	0x3d994438	0.07483715
185	0x3d943263	0.07236173
186	0x3d6843f7	0.05670544
187	0x3d976109	0.07391555
188	0x3d97bddc	0.0740926
189	0xbdbc063e	-0.09180878
190	0x3d6c94d1	0.05775911
191	0x3d9afca6	0.0756772
192	0x3d3b60ba	0.045746543
193	0x3c311623	0.0108085
194	0x3de1c7d4	0.11024442
195	0xbd96165c	-0.073284835
196	0xbd2c3180	-0.042039394
197	0x3d2119f0	0.039331377
198	0xbdf406b0	-0.11915338
199	0xbdb0307d	-0.086029984
200	0xbd8930bf	-0.06698751
201	0xbd669216	-0.056291662
202	0x3d6d5a7d	0.057947624
203	0x3d6fec6a	0.05857507
204	0x3d3554cd	0.044270325
205	0x3d967364	0.07346228
206	0x3dd96e9b	0.106167994
207	0xbbc4c336	-0.0060047163
208	0xbda25cf1	-0.079278834
209	0xbc09dd73	-0.008414614
210	0xbc71f29f	-0.014767318
211	0xbcca3bf7	-0.024686797
212	0xbd4de2de	-0.050265186
213	0xbda61c0b	-0.081108175
214	0xbdee0483	-0.11621954
215	0xbdbedd1a	-0.093195155
216	0xbd2b2ad5	-0.041788895
217	0xbdd4b597	-0.10386198
218	0x3c7ba7a3	0.015359792
219	0xbd6966ef	-0.05698293
220	0x3d1fbfc3	0.039001238
221	0x3dcb7a2f	0.09935414
222	0xbd8cf084	-0.06881812
223	0x3d003769	0.031302843
224	0x3d4ee7eb	0.050514143
225	0x3d581563	0.05275477
226	0x3d0c4d59	0.034253452
227	0x3bc4da08	0.0060074367
228	0xbd24ac0a	-0.04020313
229	0xbd24af4c	-0.04020624
230	0x3d6c90ba	0.05775521
231	0xbac9ae9a	-0.0015387118
232	0x3dc9981a	0.09843464
233	0x3d0d95c8	0.03456667
234	0xbc6c5ad9	-0.014425957
235	0xbd7bd07f	-0.061478134
236	0xbd5b6e14	-0.053571776
237	0xbcb470ea	-0.022026498
238	0xbd868904	-0.065691024
239	0x3cd307bf	0.02576053
240	0xbdb77d80	-0.08959484
241	0x3b36cc2a	0.0027892687
242	0x3d208590	0.039189875
243	0x3d6f9ded	0.05850022
244	0x3de9d102	0.11416818
245	0x3daee52d	0.085398056
246	0x3de9a906	0.11409192
247	0x3d0b61c4	0.034028783
248	0x3c97bc04	0.01852227
249	0x3c1afacf	0.0094592115
250	0x3db658c9	0.08903653
251	0x3c8d5800	0.017253876
252	0x3e065808	0.13119519
253	0x3d8154fc	0.063150376
254	0x3a20d0e4	0.0006134643
255	0x3d82944e	0.06375943

bias f4 [32]
0	0xbd70614b	-0.058686536
1	0x3d0b0d29	0.033948097
2	0x3e06b6e0	0.13155699
3	0xbdc830b0	-0.097749114
4	0xbca1e68e	-0.019763257
5	0x3bd9e015	0.006649027
6	0xbd896b44	-0.067099124
7	0x3e0e2160	0.13879919
8	0xbd926af3	-0.07149305
9	0xbc7305f9	-0.014832967
10	0xbca9a64a	-0.020709176
11	0xbdba3f28	-0.09094077
12	0x3bbd0c57	0.0057692933
13	0xbd844f2b	-0.064604126
14	0x3de48d54	0.11159769
15	0x3e102e26	0.14080104
16	0x3d6f6426	0.05844512
17	0xbca602eb	-0.020265063
18	0x3dbdeb83	0.09273436
19	0xbd533ef0	-0.051573694
20	0x3c10cefd	0.008838412
21	0x3dfa3833	0.122177504
22	0x3d860ea0	0.06545758
23	0x3dfe3593	0.12412562
24	0xbd737760	-0.059440017
25	0xbd4f17cb	-0.0505598
26	0x3d0139de	0.031549327
27	0x3dfc7fcf	0.12329065
28	0xbdcbe773	-0.09956255
29	0xbce04f81	-0.02738166
30	0x3df80b57	0.12111538
31	0x3dd919dd	0.10600636

weight f4 [32, 16, 3, 3]
0	0xbd0f343b	-0.03496192
1	0xbd696471	-0.056980554
2	0xbcf1c570	-0.02951309
3	0xbb96f2c6	-0.0046065776
4	0x3ca2c13e	0.019867536
5	0xbbd9a50c	-0.0066419896
6	0xbd19ee2d	-0.037580658
7	0xbc337b87	-0.010954744
8	0xbc900b73	-0.017583584
9	0x3d228eb5	0.039686877
10	0x3cdc7b5f	0.026914297
11	0x3df18a24	0.11793926
12	0x3d908ec7	0.070584826
13	0xbab47927	-0.0013769016
14	0x3d0a574f	0.03377467
15	0x3c6a91d4	0.014316995
16	0x3dcce20d	0.10004053
17	0x3d5fc1ef	0.05462831
18	0xbcd7fa81	-0.026364567
19	0xbddd78e9	-0.108140774
20	0xbd259455	-0.040424664
21	0xbddea6dc	-0.1087167
22	0xbd9ff465	-0.078102864
23	0x3bade0ad	0.0053063245
24	0x3b85e8e7	0.004086602
25	0xbde4d847	-0.11174064
26	0x3d148ace	0.036265187
27	0x3c7a55e5	0.015279268
28	0xbd6d09c3	-0.057870638
29	0xbd133df1	-0.035947744
30	0xbdc2d956	-0.0951411
31	0xbd0a41c1	-0.033754114
32	0xbc8f7370	-0.0175111
33	0x3dc5e667	0.096630864
34	0x3de05287	0.10953241
35	0x3cca3b50	0.024686486
36	0xbd8c794e	-0.068590745
37	0xbdaf0c2d	-0.08547244
38	0x3c1f5998	0.009725951
39	0xbe022455	-0.12709172
40	0xbc494909	-0.012285479
41	0xbd1fa37d	-0.038974274
42	0xbdb994df	-0.09061598
43	0xbcbb8d2d	-0.022894466
44	0xbc9e382d	-0.019313896
45	0xbdb75824	-0.08952358
46	0xbd12a242	-0.035799272
47	0x3cbee204	0.023301132
48	0xbcb0849b	-0.021547606
49	0xbc9bb8ec	-0.019009076
50	0x3d239120	0.039933324
51	0xbd7fb317	-0.062426653
52	0xbd9ee11e	-0.077577814
53	0xbcc53266	-0.024071883
54	0xbd5aaf96	-0.053390108
55	0x3dd85028	0.105621636
56	0x3d69f7c3	0.05712105
57	0xbc606be3	-0.013697597
58	0x3bb34a60	0.0054715127
59	0x3d4c4661	0.049871806
60	0xbda7da6f	-0.0819596
61	0xbd0abb50	-0.03387004
62	0x3dce8728	0.10084373
63	0x3e0b88d2	0.13626412
64	0x3d7463bb	0.059665423
65	0x3d3cfe05	0.04614069
66	0xbcff94bc	-0.031198852
67	0x3d19f78d	0.0375896
68	0x3d2855ec	0.041097566
69	0xbd6f4bcc	-0.058421895
70	0xbd293290	-0.041307986
71	0xbcf55db0	-0.0299519
72	0x3b9ef3a1	0.00485082
73	0xbdda6ab5	-0.10664884
74	0xbdb4bef5	-0.08825485
75	0xbc07f4b0	-0.008298084
76	0xbe057640	-0.1303339
77	0xbdde6f24	-0.10861042
78	0xbdf4f600	-0.11960983
79	0xbdaef8de	-0.085435614
80	0xbdc321eb	-0.09527954
81	0xbd4469c5	-0.047952432
82	0x3d05ae4f	0.032636937
83	0x3d65b4a4	0.056080475
84	0xbe082145	-0.13293941
85	0xbe30b8aa	-0.17257944
86	0xbac28cf5	-0.0014843034
87	0xbdbc68c8	-0.09199673
88	0xbdc53ef2	-0.096311465
89	0xbde18f33	-0.11013641
90	0xbc23e8c6	-0.010004228
91	0xbd6ee52c	-0.058324024
92	0xbdbbf15c	-0.09176895
93	0xbd55f91b	-0.05223952
94	0xbc74bde8	-0.014937855
95	0x3c32c88b	0.010912071
96	0xbbe251a7	-0.0069067064
97	0xbc073b27	-0.008253849
98	0xbe0084ec	-0.12550706
99	0x3de3591e	0.11100982
100	0xbc9298dd	-0.017895157
101	0xbd7aa7de	-0.061195247
102	0x3dd219dd	0.10258839
103	0xbd18450a	-0.037175216
104	0x3cffd7a3	0.031230753
105	0x3d8021b8	0.06256431
106	0x3c57a820	0.013162643
107	0x3c016c1e	0.007899312
108	0xbd821855	-0.06352297
109	0xbdab0be0	-0.08351874
110	0xbd7415ba	-0.059591033
111	0x3d251da4	0.04031147
112	0x3ce1edc4	0.027579196
113	0x3de7403b	0.11291548
114	0xbd18ea45	-0.03733279
115	0xbd3364d8	-0.043797344
116	0x3e05b935	0.13058932
117	0xbdf165ce	-0.11786996
118	0x3c5af1fb	0.013363357
119	0xbc521f95	-0.012824913
120	0xbd2ca693	-0.042151045
121	0xbdbb142c	-0.09134707
122	0xbd0e61e4	-0.034761325
123	0xbd826dcb	-0.063685976
124	0xbe0906d9	-0.13381518
125	0xbddbbc05	-0.10729221
126	0xbd45b4f7	-0.048268285
127	0xbe18dc5d	-0.14927812
128	0xbcb55ef6	-0.022140007
129	0xbe130eb5	-0.14361079
130	0xbd39a0f4	-0.045319512
131	0xbd6e3ced	-0.058163572
132	0xbd7dc1ec	-0.061952516
133	0xbc8e93f6	-0.017404538
134	0xbd76435b	-0.06012283
135	0xbd9ae3ef	-0.07563006
136	0x3d2e0060	0.042480826
137	0x3dbc94f2	0.092080966
138	0xbcdc168b	-0.026866218
139	0xbce452e3	-0.027871555
140	0x3e228df6	0.15874466
141	0x3c8baa7d	0.017049069
142	0x3df48ae0	0.11940551
143	0x3dd5b35a	0.10434599
144	0x3d93add1	0.07210887
145	0x3ca240c4	0.019806273
146	0x3d024323	0.031802308
147	0xbd33d71b	-0.043906312
148	0x3d807d2d	0.062738754
149	0x3c645513	0.013936299
150	0x3d2535a0	0.040334344
151	0xbd385541	-0.04500318
152	0x3d182b59	0.037150715
153	0xbd6f8baf	-0.058482822
154	0xbe030c5a	-0.1279768
155	0xbd9fe79a	-0.07807846
156	0xbe1d01a0	-0.15332651
157	0xbd3dfda9	-0.046384487
158	0xbcc57b01	-0.024106504
159	0xbe14130c	-0.14460391
160	0xbd5fdc67	-0.05465355
161	0x3b186234	0.0023251893
162	0x3d5f4353	0.054507565
163	0x3d84a1ad	0.0647615
164	0xbca5f41d	-0.020258004
165	0xbd0751e3	-0.033037078
166	0x3d763452	0.06010849
167	0xbcd7ba90	-0.026334077
168	0xbd7202a5	-0.059084553
169	0x3d00dfae	0.031463318
170	0xbd7d85b6	-0.061895095
171	0xbd9bf3a1	-0.07614828
172	0xbe06b087	-0.13153277
173	0xbd23f560	-0.04002893
174	0xbd8d12e7	-0.06888371
175	0x3ca12391	0.01967028
176	0x3d24d6cd	0.040243912
177	0xbd5bcf76	-0.053664647
178	0xbc0c58e9	-0.00856612
179	0xbdc464f7	-0.0958957
180	0xbd7ef60d	-0.06224637
181	0xbd81b928	-0.06334144
182	0xbd1a1174	-0.0376143
183	0xbdc72f12	-0.09725775
184	0xbdefea08	-0.1171456
185	0x3cb33e99	0.021880435
186	0xbbaf9697	-0.005358528
187	0xbd8a6c4f	-0.067589395
188	0xbbb5308b	-0.0055294684
189	0xbe025038	-0.12725914
190	0xbd9c6e8c	-0.07638273
191	0xbe0c8c91	-0.13725497
192	0xbc9118e0	-0.017712057
193	0x3ced8586	0.028994333
194	0x3e103dfe	0.14086148
195	0x3c2ec43b	0.010666902
196	0x3d75aba2	0.059978135
197	0x3d7cdb5a	0.061732627
198	0x3c803a1d	0.01565271
199	0x3de1690f	0.110063665
200	0x3decd935	0.115648665
201	0xbd76ba64	-0.06023635
202	0xbd41e22b	-0.04733483
203	0xbd0e267a	-0.034704663
204	0xbd2abc0b	-0.041683238
205	0xbd8a1c98	-0.06743735
206	0x3dadfa45	0.08495001
207	0x3ddca31b	0.107732974
208	0xbd6932e5	-0.056933302
209	0xbcb978de	-0.022640642
210	0xbd0b282d	-0.03397386
211	0xbdb30ddb	-0.08742877
212	0xbdd749ad	-0.105120994
213	0x3cc0f713	0.023555314
214	0xbbd46576	-0.0064818216
215	0x3ceb5f75	0.02873204
216	0xbde977ae	-0.1139978
217	0xbe00e4b9	-0.12587251
218	0xbdb6b72c	-0.08921656
219	0xbd1e3d58	-0.03863272
220	0xbde249ca	-0.110492304
221	0xbdb9d5c7	-0.09073978
222	0xbde252fb	-0.110509835
223	0xbd755b57	-0.05990156
224	0xbc9fa9bf	-0.019490121
225	0x3ba636b8	0.005072441
226	0xbd1f5fdf	-0.03890979
227	0xbc00d109	-0.007862338
228	0xbd245e17	-0.040128794
229	0xbd61dbc2	-0.055141218
230	0xb773f7e0	-1.4541642e-05
231	0xbdf34f2b	-0.118803345
232	0xbdea85cd	-0.11451302
233	0x3c64ff57	0.013976893
234	0x3ca45b24	0.02006299
235	0xbd3da2d7	-0.046297874
236	0xbd10a628	-0.03531471
237	0xbd3f7ced	-0.046749998
238	0x3c32f20a	0.010921964
239	0xbe052854	-0.13003665
240	0xbdde864e	-0.1086546
241	0xbdcf6499	-0.10126609
242	0xbdab846f	-0.08374869
243	0x3e03b2c7	0.12861167
244	0x3dc06f9b	0.09396287
245	0x3d9187ae	0.07105957
246	0x3c36e6d8	0.011163436
247	0x3b373b54	0.0027958946
248	0xbb9a4000	-0.0047073364
249	0x3e23c80a	0.15994278
250	0x3e0e4687	0.13894092
251	0x3dfc2ca4	0.12313202
252	0x3c3baa94	0.011454243
253	0xbdd8b25b	-0.105808936
254	0xbd4fa819	-0.05069742
255	0x3cbda460	0.02314967

bias f4 [16]
0	0x3e3b711b	0.18304865
1	0xbd79741a	-0.06090174
2	0x3e41ba05	0.18918617
3	0x3e456ebd	0.19280525
4	0xbdbec387	-0.09314638
5	0xbdd33c03	-0.10314181
6	0xbcb39352	-0.021920834
7	0x3da5f4b8	0.08103317
8	0xbdf92019	-0.12164325
9	0x3d710582	0.058843143
10	0xbdd4411f	-0.10363983
11	0x3d554699	0.05206928
12	0x3d1ba5e8	0.038000017
13	0x3dc31f99	0.09527511
14	0xbdf3ec95	-0.11910359
15	0x3cd84717	0.026401086

weight f4 [16, 1, 3, 3]
0	0xbea413bf	-0.32046315
1	0xbe840100	-0.25782013
2	0xbe0e7a33	-0.13913803
3	0x3dd13109	0.10214431
4	0x3e28f3dc	0.16499275
5	0xbeac157c	-0.3361014
6	0xbe5e3a28	-0.21701872
7	0xbe7fd35a	-0.24982968
8	0x3e19f637	0.1503533
9	0x3e3f303a	0.1867074
10	0x3d6e86fe	0.058234207
11	0xbe1e4fd7	-0.15460144
12	0x3e740b11	0.23832346
13	0xbe802da5	-0.25034824
14	0x3ea2971c	0.31755912
15	0x3e0e5765	0.13900526
16	0x3e63c7c6	0.22244176
17	0x3e005dbb	0.12535755
18	0x3e191bb2	0.14951971
19	0x3e0dc7f8	0.13845813
20	0xbebb8ae8	-0.36629415
21	0xbdf23697	-0.118268184
22	0xbebe5118	-0.37171245
23	0xbe528e4d	-0.20562096
24	0xbe197347	-0.14985381
25	0xbe9dfc04	-0.30856335
26	0x3db81d02	0.08989908
27	0x3e81f5d8	0.25382876
28	0x3dfccd64	0.12343863
29	0x3d5b1b7b	0.053493004
30	0xbe553465	-0.20820768
31	0xbe7a1da1	-0.24425365
32	0x3e7b8abc	0.24564642
33	0xbe9f3b9b	-0.31100163
34	0xbda4053a	-0.080088094
35	0xbe9702fa	-0.29494458
36	0xbe4fb6a3	-0.20284514
37	0x3ce62072	0.028091643
38	0xbd7bea8f	-0.06150299
39	0x3d8102b3	0.06299343
40	0x3e169ef1	0.14709069
41	0xbe8ae920	-0.27130985
42	0x3dfd0570	0.12354553
43	0x3e24517b	0.16046707
44	0x3e36428d	0.17798825
45	0x3e39280a	0.1808168
46	0xbea3d728	-0.3200009
47	0xbd52b8e7	-0.051445868
48	0x3d77d993	0.06051023
49	0x3d43ae8b	0.04777388
50	0x3cb0d588	0.021586195
51	0x3d274cb9	0.040844653
52	0xbe35737b	-0.17719834
53	0xbec60ca5	-0.38681522
54	0xbc140d46	-0.009036368
55	0x3e3e906a	0.18609777
56	0xbea5688b	-0.32306322
57	0x3e438f16	0.19097552
58	0xbe922210	-0.28541613
59	0xbcb263cd	-0.021776104
60	0x3e9643da	0.29348642
61	0x3e0af249	0.13568987
62	0xbdc4b9f1	-0.09605778
63	0xbe32250c	-0.17396945
64	0xbe7e36b3	-0.24825554
65	0x3e05db6b	0.13071983
66	0x3dcbe62f	0.099560134
67	0xbe96f97a	-0.2948721
68	0xbe86d929	-0.26337555
69	0xbdd38c78	-0.10329527
70	0x3e73c5d6	0.23805937
71	0x3e98d2ae	0.29848236
72	0xbe8ce8e1	-0.27521423
73	0x3c148f49	0.009067365
74	0xbe12f6bb	-0.14351933
75	0xbd82d722	-0.063886896
76	0xbd91537a	-0.07096
77	0xbdc243f7	-0.094856195
78	0x3e2c6d73	0.16838627
79	0x3eb0c83d	0.3452777
80	0x3da3a593	0.07990565
81	0x3d70faf2	0.05883307
82	0xbe9e9ae1	-0.30977538
83	0x3d294642	0.04132677
84	0x3e69f199	0.22846068
85	0xbe9414e4	-0.28922188
86	0xbe5804e9	-0.21095623
87	0x3e46754f	0.19380687
88	0xbd1abe5a	-0.03777919
89	0xbe6fa7d0	-0.23403859
90	0x3e8ed5e5	0.27897564
91	0x3e49840a	0.19679275
92	0xbe161952	-0.14658096
93	0x3e480217	0.19532047
94	0xbe129cdf	-0.14317654
95	0x3e80e797	0.2517669
96	0xbe5c5134	-0.21515352
97	0xbebc70d4	-0.3680483
98	0x3e1493f3	0.14509563
99	0xbe4e7f84	-0.20165831
100	0xbc0cce7b	-0.008594151
101	0x3e20b15e	0.1569266
102	0xbeb85971	-0.36005738
103	0x3c9b16ff	0.018931864
104	0x3e6a4bd3	0.22880487
105	0xbe19893c	-0.14993757
106	0x3d974856	0.07386844
107	0xbe4d630f	-0.20057319
108	0x3ea143ae	0.31496948
109	0x3e8bd954	0.27314246
110	0xbe9d476a	-0.30718547
111	0x3b557a63	0.003257417
112	0xbe10c62c	-0.14138097
113	0xbe83301c	-0.25622642
114	0x3e093b09	0.13401426
115	0xbe96b022	-0.29431254
116	0x3e350ac6	0.17679891
117	0xbe1fde91	-0.15612246
118	0xbe1af033	-0.15130691
119	0xbd65bcfb	-0.05608843
120	0xbe9c0971	-0.30475953
121	0xbe92c634	-0.28666842
122	0xbe8ea1aa	-0.27857715
123	0x3d9d2684	0.07673362
124	0xbe310ca3	-0.17289977
125	0x3dfb6ea3	0.12276962
126	0xbea71662	-0.32634264
127	0x3e525889	0.20541586
128	0x3c58dc36	0.013236096
129	0x3e2fc560	0.17165136
130	0xbe56ee00	-0.20989227
131	0x3dba015a	0.09082289
132	0x3e01bbf0	0.12669349
133	0xbe382b2c	-0.17985219
134	0x3e363664	0.17794186
135	0xbc7da22a	-0.015480557
136	0xbc9cfda4	-0.019163914
137	0xbcb2a717	-0.02180819
138	0x3c4dbc77	0.012557141
139	0x3e1a397f	0.15060996
140	0xbe9756c9	-0.295584
141	0x3e5a9990	0.21347642
142	0xbe0f4d77	-0.13994394
143	0xbe6ef97d	-0.2333736
