output/model_40.pth (torch, 193666 bytes, 11 tensors)

weight f4 [16, 1, 3, 3]
00000000: 1c8d f33c 80ce 213e c8d7 353e 04aa b73e
00000010: 975c b9bd 82a1 f43d c605 32be 20dd 713e
00000020: 3dee 723e 6676 7fbe 9e79 83be b885 33be
00000030: 86d3 1dbe 97bf 8fbe 3084 fc3d 90d1 da3c
00000040: 28ae aebe d012 d23d 1be5 48bd 3a64 863c
00000050: 6afc 71be 94d0 c0be 29b1 e2bd 6f60 b1be
00000060: 3fbc c33d b91a b6be f697 323d 1460 9b3e
00000070: 6939 67be 26bf e2bd c39a 90bd b329 4f3f
00000080: 2a56 fb3d e20a f6bd 9398 753d 8fbe 62ba
00000090: aa96 62be 4758 d2bc 39dc 2ebe d774 b7bd
000000a0: 64d5 12bf 5df5 2c3e bb9f 01be 4a0b 213e
000000b0: a564 b83e 5bd7 0ebd 30d9 863d 7a65 3e3e
000000c0: 32fc 2b3d a783 b83e 8757 f63d 5f6d 963e
000000d0: 1ece 903e 42c4 eb3d 5afe 7cbe 792c 8b3e
000000e0: f0b2 9e3e 093e c43d 8dab 353d 2b9b 87be
000000f0: f0a1 2b3d 59a9 e6be bf9c 1ebf a38c 9bbd
00000100: fa4c 5abe d71e 8d3e 42bf febe 9439 d63d
00000110: 8180 393e 608d 98be 765a 60bd 2f71 5b3c
00000120: 14aa 8c3e d835 86be a2a8 ae3d 57d8 0b3e
00000130: d0e8 b93e e7e4 623e ec69 983e 8511 95bd
00000140: 0408 62be 560b 4d3e ba1f 8ebe 1e35 0abf
00000150: addb d5be f9c9 f3be 1831 febe 5a5a 76bf
00000160: 491c 71bf ae77 8dbf d491 893e b619 ce3c
00000170: e7da 4cbe 6803 c03e acca 63be 8ff7 80be
00000180: 7f05 853e c543 ed3d f687 f43d 47e7 83bd
00000190: 721f 4cbf 721d 1cc0 2f6a 703d 7190 1fbf
000001a0: 8b5a e9bf 7db9 28bd b7c1 01be 2241 00c0
000001b0: 3ece d6bd 62fb 1fbe 45c3 8cbe 2b71 6abe
000001c0: d5c0 86bc d854 adbd 13d7 f93d ab61 463d
000001d0: a3a3 9dbd 1921 65bb b83f f43b ff90 00bc
000001e0: aa6f 223b 2448 163f ca42 b3bc b787 28bb
000001f0: b756 4b3c 1a6e 4ebb 6cfa eb3d a361 99bb
00000200: 0d8a c7be 0098 08be a660 f4bd 655d f53d
00000210: 59d2 20be 8b5a 8c3e 143d 823e e101 25be
00000220: b3a5 3e3e dd79 9cbd 1f31 adbe 56e0 28ba
00000230: 7a28 4abe 5470 a8be 4776 d3bd 3ea0 173e
0.029730372 0.1580143 0.17758095 0.358719 -0.09050863 0.11944868 -0.17385015 0.23619509
0.23723693 -0.24947509 -0.25678724 -0.17531478 -0.15412721 -0.2807586 0.123299 0.026711255
-0.34117246 0.102574944 -0.049046617 0.016405214 -0.23631445 -0.37659132 -0.11068947 -0.34643885
0.095573895 -0.35567263 0.043601952 0.3034674 -0.22580494 -0.11071615 -0.070607685 0.80923
0.12272294 -0.120137945 0.05995996 -0.0008649611 -0.22127786 -0.02567686 -0.17076196 -0.08957832
-0.5735686 0.16890474 -0.12658589 0.15726963 0.36014286 -0.034873348 0.06584394 0.18593398
0.04198856 0.36037943 0.12028413 0.2938032 0.28282255 0.115120426 -0.24706402 0.27182367
0.30995893 0.09582145 0.044353057 -0.2648557 0.041902483 -0.45051077 -0.61957926 -0.07595184
-0.21318427 0.2756259 -0.49755293 0.10460201 0.18115427 -0.2979536 -0.05477377 0.013393684
0.2747351 -0.26212955 0.08528258 0.13656746 0.36310434 0.22157632 0.29768312 -0.07278732
-0.2207337 0.20023856 -0.2775858 -0.539873 -0.41769162 -0.4761503 -0.4964683 -0.96231616
-0.94183785 -1.1052148 0.2686907 0.025158744 -0.2000538 0.375026 -0.22245282 -0.25188872
0.25980756 0.11585192 0.11939995 -0.06440597 -0.7973548 -2.4392972 0.058695015 -0.62329775
-1.8230757 -0.04119252 -0.12671553 -2.0039754 -0.10488556 -0.15623239 -0.2749273 -0.22894733
-0.016449371 -0.08463448 0.12199225 0.048432987 -0.07697227 -0.0034962355 0.007453885 -0.00784707
0.0024785795 0.5870383 -0.021882433 -0.0025715658 0.012410811 -0.003149873 0.115223736 -0.0046808287
-0.38972512 -0.13339233 -0.11932497 0.11980704 -0.15705241 0.2741283 0.25437224 -0.16113998
0.18617897 -0.07640431 -0.3382654 -0.000644212 -0.19742003 -0.328982 -0.10325294 0.14807221

bias f4 [16]
00000000: 4872 5dbe e7c2 b1be b7d0 453e be1a 643e
00000010: d496 843c dee2 86be 1825 813b 83a6 163b
00000020: 2a85 923a 336c b23d 0ecc e83b 65c9 aa3d
00000030: 05f9 2f3e 45bc 03bf ef82 bf3d 91bd 80be
-0.21625626 -0.3471901 0.193179 0.22275826 0.016185202 -0.2634496 0.0039411895 0.0022987432
0.0011178602 0.087120436 0.0071044033 0.08339194 0.17184837 -0.5145915 0.093511455 -0.25144628

weight f4 [32, 16, 3, 3]
00000000: 9ad7 c5bd efb9 a6bd 07ed 0cbd 63cf 17be
00000010: e3b4 e9bc afd9 56bd 6108 c1bc 8d61 a3bc
00000020: a3b8 0fbd fc8d fb3c 2a80 4d3d e017 43bb
00000030: 5660 2d3d 48ba 313c 4b5c 9f3d 1606 313d
00000040: 80d2 1d3d ac0e abbc 9a2e 2cbc b5b7 53bd
00000050: 2528 18be c5e2 b9bd 4165 40bc e1d5 013c
00000060: cbf9 92bd 5c40 13bd 6dfd 4ebd 4550 5a3d
00000070: ada3 23bd 5fb3 51bd 5474 10bc 5c33 efbd
00000080: 5b54 cebd 915f f1bd d4e1 c8bc d546 08ba
00000090: 455a b33c 9db9 303c ac79 dbbd 7049 a9bc
000000a0: 89ea a4bd 02d6 d3bd f652 17be c36f 0fbd
000000b0: 8c11 fabd 70c2 08be 94b7 e2bd 41bb 013c
000000c0: c1a5 d8bd 2ebc bebd d870 bdbd 96e4 6d3a
000000d0: f473 06be 7524 10bd 40ad ccbd 69f5 51bd
000000e0: 619e 453b 3b49 15be b169 93bc 5ecd 60bd
000000f0: da00 263d 3806 8f3c eaad a8bc 6802 e8bc
00000100: f88f dabd b02e fdbd 6266 b0bb d957 e3bd
00000110: 260b d0bd b7bb b4bc 9741 45bd 9015 b1bd
00000120: a002 aebc 1ab7 153d a5df d5bd b8dc e1bd
00000130: b4da bbbd eee8 20bd 5485 11be 9fe7 bcbd
00000140: 5780 5ebd 46b1 00be db80 d1bd 7c41 81bc
00000150: 9c24 14be 72fb 13be 40cd 8ebc 418d 81bd
00000160: 01a4 e0bd 53b4 f1bc 80d4 3ebd 0668 4ebd
00000170: a2db 3ebd cad1 5dbd badd 01be a672 1abe
00000180: 045e 87bc b8aa 9ebc d2bb c73c 89ee e4bd
00000190: a826 1fbd d266 afbb 22c9 1abe 7cd6 403d
000001a0: 28e6 51bd b905 85bd 41bb 7ebd 89b9 1c3d
000001b0: d88b 02be 116a 84bd 391d efbd e84d c7bd
000001c0: bff7 babd e437 4fbd 5c5d 02be fc7c 093c
000001d0: 45f0 10be 7f74 d73d 21ed 543d c1ef 2f3d
000001e0: e598 993d 6096 973c 8ab9 84bc e396 a23d
000001f0: 17dd 143d 18c1 3bbd ad0e d7bd 4cc4 22be
00000200: 356a babd 60bc 20be 73d4 89bd bbee 21bd
00000210: f281 95bd 6d27 c4bd eefc f5bd aa76 babc
00000220: a605 09bd e09d 0dbe 6d6c c53c e21d f73b
00000230: 456b 05bd c7a8 30bd d9db 0bbe e285 7cbc
00000240: 014b 533c 9966 86bc 263b 08be 4065 74bd
00000250: 56dd 0dbe 25c1 99bd 0bfb c73c c0bb 0bbd
00000260: fe5a 6bbc df0b babd 621d 493d ce8b 503d
00000270: 24c7 b33c d0fb c93d 5c02 00bc ca67 7f3d
00000280: e90a 813b 5d2e 953d 9bbd fabd d7b2 85bd
00000290: 84db 843b 8274 14be 006a f2bd 2475 d0bd
000002a0: e835 8cbd 4f38 e1bc 5814 07bd 6e3f f5bc
000002b0: c7e5 adbd 9eaa 08be 8754 27bb bbe8 05be
000002c0: a867 17bd 47f3 5bbd 9bc3 09be 2027 d6bc
000002d0: 0068 89bd a71a c03b 892e 9dbd a774 06be
000002e0: aab6 14bd ca12 353d bac2 d6bd 538c 45bd
000002f0: d66f 89bd bff4 e0bd 63c8 3ebd 19cf 1bbd
00000300: 1a0b 00be 2d37 86bd e6f0 9dbc 6b6c a6bc
00000310: f384 ebbc f7fb f73b bb5c 2bbd 7693 02be
00000320: 577f f1bd d7e0 b4bd f019 03be e749 a6bd
00000330: ce57 efbd 21da 84bc 785a 0bbe d0b5 22bd
00000340: 9643 d4bd c839 d5bd 6c8e cbbc 6fb2 d1bd
00000350: a44d aabd 6b7e 47bd 9a0d 0ebd 1caa 3cbd
00000360: 0e34 533c 1c96 433c 2385 c0bd ebaa 08bd
00000370: 18ad 8cbc c6e5 c6bc 49c2 923c 796d b93c
00000380: 72eb f0bd 7832 56bd 066a 32bd fb78 02be
00000390: ba82 75bd 4f3d f3bd 91d7 f8bd b8bf a7bb
000003a0: 53c6 07bc c4d5 563a 00a5 5fbd a68f 09bd
000003b0: f03a b8bd c25a f33c 237f 013a 220e 023c
000003c0: 2e4a febd f22f a6bd ce6e e13c 2b09 dcbd
000003d0: 044d b43c cdc8 f0bd 38b7 96bd 187e 33bd
000003e0: c67b be3c 4768 e5bd 5bb9 d1bd cf08 f3bd
000003f0: ae60 41bd a0e3 98bd 21c9 f1bd 1162 11bd
-0.09660263 -0.08140933 -0.034405734 -0.14825206 -0.028528636 -0.052453693 -0.023563566 -0.019943977
-0.035088193 0.030707352 0.050171055 -0.002976887 0.0423282 0.010847636 0.07781275 0.043218695
0.038530827 -0.02088102 -0.010509158 -0.05168887 -0.14859064 -0.09076456 -0.011742891 0.007924528
-0.071765505 -0.03595005 -0.050534654 0.053299207 -0.039951015 -0.051196452 -0.008816797 -0.11679718
-0.10074683 -0.11785806 -0.024521746 -0.0005198543 0.02189363 0.010786441 -0.107165664 -0.0206649
-0.080525465 -0.10343553 -0.14777741 -0.035018694 -0.12210378 -0.13355422 -0.11070171 0.00791818
-0.1057849 -0.09313236 -0.09250039 0.00090748945 -0.1313017 -0.035191018 -0.09993982 -0.051259432
0.0030154216 -0.14578716 -0.017994734 -0.054883353 0.040528156 0.01745902 -0.020590741 -0.02832146
-0.10671991 -0.123624206 -0.0053832987 -0.1110074 -0.101583764 -0.022062166 -0.048158254 -0.08646691
-0.021241486 0.036551572 -0.104430474 -0.11028427 -0.09172574 -0.03928464 -0.14211017 -0.09223866
-0.054321613 -0.12567624 -0.10229655 -0.015778296 -0.1446709 -0.14451388 -0.017431855 -0.0632577
-0.10968781 -0.02950493 -0.046589375 -0.050392173 -0.046596177 -0.05415515 -0.12682238 -0.15082797
-0.016524322 -0.019368514 0.024381552 -0.111783095 -0.038855225 -0.0053528333 -0.15115789 0.04707955
-0.051244885 -0.06495232 -0.062190298 0.038262878 -0.12748659 -0.06465543 -0.11675496 -0.09731656
-0.09129285 -0.05059041 -0.12730926 0.008391615 -0.14154156 0.10520267 0.051983956 0.042953257
0.074998654 0.018504322 -0.016201753 0.079389356 0.03634366 -0.045838445 -0.10500846 -0.15895194
-0.09102289 -0.1569686 -0.067299746 -0.03953431 -0.07300176 -0.09577832 -0.12011133 -0.022761662
-0.033452652 -0.13829756 0.024099553 0.007541404 -0.032573003 -0.04312971 -0.13658084 -0.0154127795
0.0128963 -0.016406344 -0.13303813 -0.059666872 -0.13853964 -0.075075425 0.024411699 -0.0341146
-0.014364956 -0.090842955 0.049100287 0.05091458 0.021945544 0.098624825 -0.0078130625 0.06235484
0.003938068 0.07284234 -0.122431956 -0.065282516 0.0040544886 -0.14497569 -0.11836624 -0.10178593
-0.06846219 -0.02749267 -0.032978386 -0.029937472 -0.08491092 -0.13346335 -0.002553256 -0.13077061
-0.03696409 -0.053698804 -0.13453524 -0.026141703 -0.067092896 0.005862552 -0.076748915 -0.13130437
-0.036307015 0.04420737 -0.1048636 -0.048229527 -0.06710784 -0.109841816 -0.046577822 -0.0380393
-0.12504235 -0.06553493 -0.019279908 -0.02031537 -0.028749919 0.0075678783 -0.04183648 -0.12751564
-0.11791866 -0.08831947 -0.12802863 -0.081195645 -0.11686669 -0.016217293 -0.1360873 -0.03972417
-0.103644535 -0.104114115 -0.024848185 -0.10239112 -0.0831559 -0.048704546 -0.03468094 -0.046060666
0.012890829 0.011937644 -0.09400394 -0.033366125 -0.017172381 -0.024279486 0.017914908 0.022635208
-0.11763658 -0.052294225 -0.043558143 -0.12741463 -0.059939124 -0.11876928 -0.12150491 -0.00511929
-0.00828703 0.00081953057 -0.054600716 -0.03358426 -0.089956164 0.029706363 0.00049399043 0.00793794
-0.124164924 -0.081146136 0.027518656 -0.10743936 0.02200938 -0.1175705 -0.07359165 -0.043821424
0.02325238 -0.1120153 -0.10240432 -0.118669145 -0.04721134 -0.07465291 -0.118059404 -0.035493914

bias f4 [32]
00000000: 2214 33bd f973 d4bd 8cbe c73d eeb6 14bd
00000010: 6819 c9bd b208 153d 7e04 74bd ab7e 10bd
00000020: f60e 47bd b10f c8bd bee6 22bd c55f d1bd
00000030: 28fa dcbd 0177 88bd 4469 483d fd14 dabd
00000040: e0ec 1dbb 9eaf b73d e6c3 edbd 800e 02be
00000050: 9502 4e3d 169f 03bc 5257 86bd 8fe2 933d
00000060: edd5 7cbd 2a5c 7ebc 257d cfbd a8a9 bcbd
00000070: d9f9 053d 440b 71bd 1f79 5a3d 383d 05be
-0.043720372 -0.103736825 0.09753141 -0.036307268 -0.09819299 0.036385246 -0.059574597 -0.03527705
-0.048598252 -0.09768618 -0.039770834 -0.10223345 -0.10789901 -0.06663323 0.048928514 -0.106485344
-0.0024097487 0.08969043 -0.1160963 -0.12700844 0.05029543 -0.0080335345 -0.06559624 0.07220947
-0.061727453 -0.015524903 -0.10131291 -0.09212047 0.032708976 -0.058848634 0.053338166 -0.13011634

weight f4 [64, 32, 3, 3]
00000000: 6dbd e2bd 1c52 f2bd 6457 d6bd 7f90 8ebb
00000010: be3d 39bb 66e6 d6bd c973 72bd 771c 9abd
00000020: 238c eabd c5e0 ae3c 9fdc d03c 99c3 2d3d
00000030: c85e 493d 571a b13d 7d1a afbd eac0 98bc
00000040: 6932 2fbc a31d 7cbd 52e0 9bbd 9cb8 12bd
00000050: 65e1 00bd d3be e9bb 136d 1abd 9f14 bbbd
00000060: 39f7 03bd c85a debd e6c1 8ebc 9bdd 52bb
00000070: a7f7 443d ee4b b13d 4707 443d d891 173d
00000080: f5c9 c13d 8934 273b 2a34 d73d a222 383d
00000090: d5bd aabd 0f8f 6c3d 1fd8 cd3c 1c01 4fbb
000000a0: 8641 5a3c ed84 f73c eaf0 123c b38b d23d
000000b0: ff11 253d e9c2 91bd cf06 9dbc 337f f3bd
000000c0: 67a2 cebd b814 80bc e7a3 94bd c551 51bd
000000d0: f2fd e5bb 3ab3 c1bd 38ae f1bd ebc4 e1bd
000000e0: fec4 a2bd 3150 babd 2991 f1bd 0b40 473b
000000f0: bd5a 1fbb ce6f 5fbb 303d c2bc fd8e f6bc
00000100: dd5a 5fbd 8f3e 78bd e3ff dbbd 439f 8dbd
00000110: 5141 e0bc a81a 5cbc 0c95 21bd 888e d5bd
00000120: 80c3 953d bd23 693d d735 9d3d 81da 613d
00000130: 907b 533d 0aa7 0dbe 5ff0 40bd 63e5 cbbd
00000140: 4d9e f6bc e8a3 e8bc 354b c73d c6b2 923d
00000150: 9de7 04bc 95d8 5ebd ab4c bbbd b7c1 cabd
00000160: 0ede 8cbd a5ce 99bc 4266 813d 71e0 043b
00000170: c5d3 3c3d c85a 113d ff44 c13d be2a 09be
00000180: 2397 a83d 6ac9 7dbd 993d d1bd 9def 363d
00000190: d63d a2bc 7d4e 5ebc e534 57bd 8720 2abd
000001a0: 5168 92bd bb12 76bd 99cb e3bd 30a0 6bbd
000001b0: b43e a6bd 2cb4 aebd 27f7 febc 0bfb d8bc
000001c0: 4cbe 74bd b039 8bbd f7b5 06bd 6461 e3bd
000001d0: fe97 c6bd 0209 17bd d26a a8bd 5646 81bd
000001e0: cdf5 8e3d 2a47 2c3d 72cd 2fbd 5f14 c0bb
000001f0: f925 8c3d beab 6bbb 25ae 4b3d 086f 9a3c
00000200: df93 8b3b d287 76bb 6b6c ecbc ec28 ebbd
00000210: 031a a2bc 392c c8bd 6ca9 a1bd df55 87bd
00000220: d03e 7b3d 9da0 1a3d 9bbe 20bc 2b26 833c
00000230: b519 f23d df66 a83d cba2 953c ff40 433c
00000240: 09e2 a4bd b06d 6ebd e7e4 95bd a749 02bd
00000250: d25e cbbc 72d9 1dbd 9654 9abd 4002 64bd
00000260: 0039 80bd cd48 cebc bb73 bfbd f510 a7bc
00000270: 5c31 4fbd c1f5 05be c16f 023d 78a8 a5bd
00000280: 5cbc 3dbc 3141 97bd 65e8 b6bd ade9 c1bd
00000290: a54f b6bd 34c1 44bc 2fd2 8bbd 8c35 29bd
000002a0: 35be d7bd f58a c9bd 2bff c8bc 17bf 203b
000002b0: 6f1f d73b a81e b1bd 2d5a d9bb 790c 9ebd
000002c0: 2b34 19bd adab 2b3c 3d79 953c dd12 f8bc
000002d0: 79bc 6ebd 7a4c 9bbd 0f06 e3bc d423 4ebd
000002e0: 59ed b4bc d672 d7bd 01d4 a4bd 440f a3bd
000002f0: dc28 c1bd 879d c5bd cd04 86bd ecea efbc
00000300: 1951 01bd e11c 0fbd 7e6f b3bd 0540 abbd
00000310: be59 98bd f419 a1bd 0beb f0bd 2891 073c
00000320: 4a57 ae3c ee00 5a39 280f d23b e884 5e3d
00000330: 1d1d 8a3d 36fa b23c f089 bb3d 9b1e f3bd
00000340: 5505 7cbd 1336 c5bc 78ef 80bd 3bbb c0bd
00000350: d0dd 2abc 7c1b 38bd e414 eabc 02f0 98bd
00000360: b660 92bd 464d abbd c7d0 bcbd 5f81 8cbd
00000370: 49c7 28bd 8096 04bd 5d59 e5bc 721a 95bd
00000380: bcdd c6bc 023d debd 8ebd 7dbd 5461 a8bd
00000390: c641 cfbd 4435 b5bd c95e d4bd cafa d0bd
000003a0: e5a7 ebbd 5099 83bd e876 9c3d 5ae6 eb3a
000003b0: 51a7 d23d 0370 bd3c 11f3 a43c 7ceb 8f3d
000003c0: 898d f93b 2728 5a3b 28e7 d33b 7575 55bd
000003d0: 3d5d 6c3d f6fe 993d e3f5 a63d dd19 d53c
000003e0: 0c07 c93c dcb9 883d 1ca0 163d 0e54 103d
000003f0: 17c4 40bd a5b2 e9bd 893b f2bc b722 cdbd
-0.11071286 -0.11832067 -0.10465887 -0.0043507214 -0.002826556 -0.10493164 -0.059192453 -0.075249605
-0.1145251 0.021347413 0.025495825 0.042422865 0.049162656 0.08647602 -0.08549974 -0.018646676
-0.010693171 -0.0615517 -0.07611145 -0.03582059 -0.031464953 -0.0071333437 -0.037701678 -0.091347925
-0.03221819 -0.10857159 -0.017426442 -0.0032175544 0.048087742 0.086570606 0.047858503 0.03700432
0.09462348 0.002551349 0.105079964 0.044954903 -0.08336989 0.05775362 0.025127469 -0.0031586355
0.013321286 0.030214751 0.008968571 0.10280552 0.040300366 -0.07117254 -0.019168286 -0.11889496
-0.100895695 -0.01563488 -0.072578244 -0.051103372 -0.007018798 -0.09458013 -0.11800808 -0.11023887
-0.079477295 -0.090973265 -0.11795265 0.0030403163 -0.002431556 -0.003409374 -0.023710817 -0.030097479
-0.054530013 -0.060606536 -0.10742166 -0.069151424 -0.027374895 -0.01343409 -0.039448783 -0.10427576
0.07312679 0.05691885 0.07676285 0.055140022 0.05163151 -0.13833252 -0.047104236 -0.099558614
-0.03010478 -0.02839847 0.097311415 0.071630046 -0.008111862 -0.054405767 -0.09145483 -0.099002294
-0.06878291 -0.018775294 0.06318332 0.002027538 0.046100397 0.035486966 0.09436988 -0.13395211
0.08231952 -0.06195966 -0.10216827 0.044662107 -0.019804876 -0.013568518 -0.05254068 -0.041534927
-0.07148803 -0.060076457 -0.111228175 -0.057525814 -0.081174284 -0.08530459 -0.03112371 -0.026486894
-0.059751794 -0.067981124 -0.03288838 -0.1110256 -0.09696959 -0.036873825 -0.08223499 -0.06312244
0.069804765 0.042060055 -0.042920537 -0.0058618034 0.0684318 -0.003596052 0.049726624 0.018851772
0.004259571 -0.0037617576 -0.028860291 -0.114824146 -0.019787794 -0.0977406 -0.07893643 -0.066081755
0.0613392 0.03775083 -0.009811069 0.01600941 0.118213095 0.08222746 0.018266102 0.011917352
-0.08050925 -0.058210075 -0.0731905 -0.03180852 -0.024825487 -0.03853745 -0.07535665 -0.05566621
-0.06260872 -0.025181198 -0.09348246 -0.020393828 -0.050584182 -0.13082029 0.031844858 -0.080887735
-0.011580553 -0.07385481 -0.089310445 -0.09468398 -0.0890191 -0.012008954 -0.06827199 -0.041310832
-0.10534326 -0.09840957 -0.024535736 0.002452796 0.0065650265 -0.08648425 -0.0066330642 -0.07717223
-0.037403267 0.010477942 0.018246287 -0.030282432 -0.05828521 -0.07582946 -0.02771285 -0.050327137
-0.022085832 -0.1051995 -0.08048249 -0.07961896 -0.094316214 -0.096491866 -0.065438844 -0.029286824
-0.03157148 -0.03493965 -0.087615 -0.0836182 -0.07438992 -0.07866278 -0.11763581 0.008274354
0.021281857 0.00020790446 0.006410498 0.054325968 0.06743834 0.021847825 0.09157169 -0.11871072
-0.061528523 -0.024073636 -0.06295675 -0.094107114 -0.010428861 -0.044948086 -0.028574415 -0.07467653
-0.071473524 -0.08364348 -0.092195086 -0.06860613 -0.041205678 -0.03237009 -0.027996713 -0.07280435
-0.024275653 -0.1085148 -0.06194835 -0.08221689 -0.10119967 -0.0884805 -0.10369641 -0.10204084
-0.11506633 -0.064257264 0.07639867 0.0017997727 0.10285819 0.0231247 0.020135434 0.07027337
0.0076157493 0.0033288093 0.006466765 -0.05211397 0.057706106 0.07519333 0.08152368 0.02601331
0.024539493 0.06676075 0.036773786 0.03523641 -0.047062006 -0.11411027 -0.029569404 -0.10016387

bias f4 [64]
00000000: aa4d a6bd 6a09 573d 0641 aabb fd69 2cbd
00000010: aa18 8ebd 348b 85bd 82d4 c63d 81e0 ad3d
00000020: 327d 053c 40fa d7be fd5f e93b f4d9 203b
00000030: a8fe b43d 015e 95bd d8b8 96bd 36a6 51bd
00000040: 10f1 c9bd 9039 89bd f7c3 d6bd 1f68 a23c
00000050: 05b8 d5bd a938 ddbc a2bb 623d d32f c8bd
00000060: b5a9 ed3b 149a 4e3e 688b 18bd 61d0 92bc
00000070: fcdc 4dbd ff25 a3ba a810 24bd d7c7 f2bc
00000080: 357d a2bd ef3b 7bbc 4dc2 a9bd c80d 00bd
00000090: 6259 97be 04ce 20bb 8c66 a33c a7d1 d3bc
000000a0: a402 8dbd bb37 0dbe a2db c3bb be6e f0bd
000000b0: ee65 1ebd ce52 00bc eb8f 7abc 04c9 48be
000000c0: 11a1 aebd c245 9cbc 4b04 f23c 547b 4abd
000000d0: 037b e9bc 163e 493e 2eb2 18bd 6932 8cbb
000000e0: 4c8c 0ebe 8a83 0ebb 340c bebc b1a6 a5bd
000000f0: 43bc 34bd 6221 783d a27d 8dbd 7125 0b3d
-0.08120282 0.052499212 -0.0051957397 -0.042093266 -0.06938298 -0.065206915 0.097085014 0.08490086
0.008147525 -0.42183113 0.0071220384 0.0024543973 0.08837634 -0.072933204 -0.07359475 -0.0511839
-0.09860432 -0.06700432 -0.10486596 0.01982504 -0.104354896 -0.027004557 0.05535472 -0.09774747
0.0072528967 0.20175964 -0.037242323 -0.017921628 -0.050259575 -0.0012447237 -0.040054947 -0.029636307
-0.079340376 -0.0153341135 -0.08289013 -0.031263143 -0.2956038 -0.0024536857 0.01994636 -0.025856806
-0.06885269 -0.1379079 -0.00597711 -0.117398724 -0.038671426 -0.007832242 -0.015293102 -0.19607931
-0.08526815 -0.019076232 0.029543063 -0.04943402 -0.02850104 0.1965259 -0.0372793 -0.0042784703
-0.13920707 -0.0021745884 -0.023199178 -0.080884345 -0.044124853 0.06057871 -0.06908728 0.033971254

weight f4 [64, 32, 3, 3]
00000000: 197e 973d a2e0 a63d 80ae 70bd f0a0 293d
00000010: 68c8 083d 28af 073c b8f3 133d 6b1e 4d3d
00000020: ced7 043d 528f 943d 11d6 be3d ce0b a73c
00000030: 6eab b73d 9e70 913d a90e ae3d 68cd 603d
00000040: 2e93 5f3d 47c7 f13d d84e 973d 2bca 823d
00000050: f462 653c 7176 9a3c dce3 e33b 904e 2b3d
00000060: c1c2 603b 3ddd 253d 8a72 193b f8e4 23bc
00000070: 2c24 7fbd 3c82 6fbd 9c55 1d3c b020 9ebd
00000080: f2a3 04bd 4a5c d0bc c8a7 bcbd cc2c 21bd
00000090: 6c79 0ebd 57b8 d1bd 4025 a7bd a72d 2fbb
000000a0: 8370 cbbd 0ceb c9bc 80f7 a5bb f0ba 65bc
000000b0: 06f7 e5bd c852 6fbd 7af8 a0bc 8049 40bb
000000c0: 6806 05bd 2098 7cbc ce22 03bd e9fe 82bd
000000d0: 152b 7cbd 5f94 c2bd fc8b 5fbd 4db0 97bd
000000e0: dcc2 2a3c 45d4 1a3d 4839 7ebc 20bd 7d3c
000000f0: 0acc 63bd 7dea 3a3b c891 6abd 8f02 c0bd
00000100: 87a5 e4bb 4df5 413d 168c c43d 4ca7 923d
00000110: 1256 a83c efa8 003b 0274 0e3c eedc 4d3d
00000120: d9f1 a0bd 005f e4bd d0a4 b8bd 950f 30bd
00000130: d096 a7bc 6a90 11bd f32e f1bd 2ed9 8cbd
00000140: ed79 cabd 38a7 cdbb 1182 033d ac2d 10bc
00000150: d8ab 2fbc 201c 91ba 1430 683c 40e4 2ebd
00000160: 407a 403b 33b8 0c3d 3d0c 913c 160a 473d
00000170: 867e 133d 685b 753d 79ac 433d f3b7 cc3d
00000180: 87ec a8bd 6391 613d 6e4f a1bd 2f72 9ebd
00000190: cc51 b8bc 8390 7ebc 2fe0 cbbd cf18 4dbd
000001a0: e2a5 afbd 3e1d 10bd dffe f4bc 51e5 d0bd
000001b0: 9265 96bd 932c ecbc a411 afbc 8176 6abc
000001c0: 5250 a1bd df79 e7bd 0beb dcbd b700 92bc
000001d0: 2c51 1bbd f2ae b3bc 90f8 4bbc cc43 2abc
000001e0: 9197 513d 29cb 50bd 5277 9abb 5912 ea39
000001f0: 4c9b f53c 23c0 7c3c eb9b 9abb 9570 b83d
00000200: 3351 933d 90aa 6d3d 1957 cb3d 905f d43d
00000210: 6065 903d 3b84 bc3d b6cc 923b d795 9abc
00000220: 0973 27bd d2d9 a53d ef5c c9bd b10a debc
00000230: 45d5 e23d 5f90 b3bd e9bb dfbc 0877 b3bd
00000240: 606f c23c 5e39 a43d 1b3d 8c3c b19d dd3c
00000250: b12f 873d 9fdc 95bd 0c96 84bd 95f7 5fbd
00000260: a5c5 60bd 1efe c2bd 474f b73c 63f5 893d
00000270: ad2e ab3d 5835 383c 45d2 b33d bfc7 a83d
00000280: ebd8 413d 5ef7 543d 059b b3bd b2e6 3c3d
00000290: b81c b83d a641 9ebd 1ecc 82bd 4336 cc3d
000002a0: d56b b1bd 376d bcbd f320 72bc 95a0 a5bd
000002b0: 6d30 a8bd 1b75 ddbd 9eda 5cbd 36d5 bdbc
000002c0: bf94 69bd 9c98 a3bc 87b8 36bd 270a 1ebc
000002d0: a6b0 2d3b ade7 33ba 0377 ab3d 8382 b73d
000002e0: 71c3 9d3d e75b 993d 9f7b 713d 4ff6 9b3d
000002f0: 10e4 9c3d baa8 c0bd 92e1 753d 29aa 9f3d
00000300: 60a2 443d 0c45 563c 2c76 e63d c4bb 9abd
00000310: ee66 35bd ce9b 2a3d 31e3 fabd 0e64 b7bd
00000320: 45ce 8fbd b9db 6dbd 7a82 693d 03bf 753d
00000330: c696 373d b1dc 973d 3228 df3d 527f 07bc
00000340: 9301 a7bd 2307 2fbc b086 8bbc 03d0 dcbc
00000350: 092d 57bd d8b9 aabd 41a2 f2bd 7f75 c3bd
00000360: 4784 36bd bd57 dabd 8852 943c f6ca 74bd
00000370: 19cb 2a3d e61d d13d 659f 92bd f38d 0b3d
00000380: 5117 5a3d 6315 583d 594d 0c3d 684a bd3b
00000390: 0aac 24bd 4caf 24bd 8928 6e3d b613 26ba
000003a0: e4b3 cb3d 6c0e 143d c5ca 8cbc af84 83bd
000003b0: d6aa 64bd 13ba cabc a677 8bbd 0e81 e73c
000003c0: 38d9 bcbd 1d06 743a 54a9 2b3d b3ea 783d
000003d0: 8778 ee3d 2666 b33d 594f ee3d 62ac 143d
000003e0: f94a a93c 4420 403c bcd6 ba3d 4d4c 9e3c
000003f0: c9c9 093e fbba 873d 710b a2b8 ccac 893d
0.07397098 0.08148314 -0.058760166 0.041413248 0.033394247 0.008281507 0.0361211 0.050077837
0.03243237 0.07253899 0.09318174 0.020391371 0.089682445 0.07101558 0.0849889 0.05488339
0.05458372 0.11805587 0.07388085 0.06386217 0.014000643 0.018855305 0.006954653 0.04182297
0.003429577 0.040494192 0.0023414218 -0.010003321 -0.062290356 -0.05847381 0.00960293 -0.077210784
-0.032382913 -0.025434632 -0.09211689 -0.039349362 -0.034783766 -0.10240238 -0.08161402 -0.0026730092
-0.09933569 -0.024648212 -0.0050649047 -0.01402162 -0.112287566 -0.058428556 -0.019649733 -0.0029340684
-0.032476813 -0.015417129 -0.032015614 -0.063962765 -0.061564524 -0.09500956 -0.05457686 -0.074066736
0.010422435 0.037800092 -0.015516587 0.015486985 -0.05561451 0.0028521114 -0.057267934 -0.09375488
-0.00697774 0.047353078 0.09597032 0.071608156 0.020548854 0.0019631942 0.008694651 0.050259523
-0.07858629 -0.11150932 -0.090158105 -0.04298361 -0.020457655 -0.035538115 -0.11776533 -0.06877361
-0.09886537 -0.0062760375 0.032106463 -0.0087999515 -0.010722123 -0.0011071004 0.014171619 -0.042698145
0.0029369742 0.034355354 0.017706031 0.048593603 0.036009334 0.059901625 0.047771905 0.09996023
-0.08248239 0.055070292 -0.07876478 -0.077366225 -0.022499941 -0.015537384 -0.09954869 -0.050072487
-0.085765615 -0.035184138 -0.029906688 -0.10199989 -0.07343592 -0.028829848 -0.021370716 -0.01431048
-0.07876648 -0.11302542 -0.107870184 -0.017822606 -0.03791921 -0.021934006 -0.012449399 -0.010392141
0.051169936 -0.050975 -0.004713931 0.00044645628 0.029981278 0.015426668 -0.004718294 0.09005848
0.07193222 0.05802399 0.09928722 0.103697896 0.07050586 0.092049085 0.00447997 -0.018870277
-0.04088119 0.080981866 -0.09832179 -0.027104707 0.11075834 -0.08767771 -0.027311282 -0.08762938
0.023734748 0.080187544 0.017118981 0.027052732 0.06600893 -0.07317471 -0.06473932 -0.054679472
-0.05487599 -0.09521125 0.02237667 0.06736257 0.08358512 0.011243187 0.0878034 0.082412235
0.04732601 0.05199372 -0.08769802 0.046118446 0.08989853 -0.07727365 -0.063865885 0.09971287
-0.086631455 -0.092005186 -0.0147783635 -0.08087269 -0.082123615 -0.10813352 -0.053919427 -0.023172956
-0.05702662 -0.01997023 -0.044609573 -0.009645975 0.0026502996 -0.00068628305 0.08372309 0.0896044
0.07703293 0.07488232 0.058955785 0.07615339 0.07660687 -0.09407182 0.060029574 0.07796127
0.048006415 0.0130779855 0.11253008 -0.07555345 -0.044287615 0.041652493 -0.122503646 -0.08954631
-0.07021765 -0.058070872 0.057009198 0.059996616 0.044821523 0.074151404 0.108963385 -0.008270102
-0.08154597 -0.010682854 -0.017031997 -0.026954656 -0.052533183 -0.08336228 -0.11847354 -0.09543895
-0.044559743 -0.10661266 0.01810576 -0.05976387 0.041697595 0.10210781 -0.07159308 0.03407092
0.053244893 0.05275477 0.034253452 0.005776692 -0.04020313 -0.04020624 0.058144126 -0.00063353346
0.09946421 0.036146566 -0.017186532 -0.06421792 -0.055826984 -0.02474693 -0.068099305 0.02825978
-0.09221119 0.0009308772 0.04190953 0.0607707 0.116440825 0.08759718 0.11636228 0.03629721
0.020665633 0.011726443 0.091229886 0.019323492 0.13455881 0.066274606 -7.726893e-05 0.067224115

bias f4 [32]
00000000: 6d0e e7bd ce52 2c3d 0e81 0d3e 3b08 cfbd
00000010: 8482 b4bc 0793 9b3c dae7 15bc 3c6b 233e
00000020: 0c25 97bd b6aa 003e 2a39 bbbc ceeb bebd
00000030: 9e52 793d 4d60 8abd a3fd e33d bbd6 1d3e
00000040: 6946 de3d 22ec b6bc 29eb ef3d d4c7 c33d
00000050: 2efc 5b3d 4fe3 033e 19d8 a93d 2e61 603e
00000060: ac12 cbbd ea33 59bd 19ce 263d fdb4 093e
00000070: 73c4 e8bd 3d3a f3bc f4b6 023e cae8 ed3d
-0.112820484 0.042071156 0.13818762 -0.10108992 -0.022034891 0.018991007 -0.009149516 0.15958875
-0.07380113 0.12565121 -0.022854406 -0.0932232 0.060869806 -0.06756649 0.11132362 0.15413944
0.108532734 -0.022329394 0.11714775 0.095595986 0.053707294 0.1287968 0.082931705 0.21912071
-0.09915671 -0.053028025 0.040723894 0.13447948 -0.11365595 -0.029690856 0.12765104 0.116166666

weight f4 [32, 16, 3, 3]
00000000: 70ff 98bc d0ab 41bd 42ea debb e451 bbbb
00000010: 92ee 2fbc b97c 25bd 6811 08bd 2d30 acbc
00000020: 6400 debc efa8 713d dd8c 353d 2047 143e
00000030: 7631 ce3d e8be d23c 8e1d 943d c6c2 3f3d
00000040: 5f9f fb3d 2f82 bc3d 0da0 53bc a1f2 19be
00000050: 7da3 b0bd f3d4 01be aad8 f7bd e8ec 32bd
00000060: d2b2 abbc 19eb 2abe f927 9bbc 51f1 943c
00000070: 27f2 56bd 7ddc 90bc 21b5 c0bd 5842 11bd
00000080: 5f74 09bd 48da ce3d b333 063e cbcd a43c
00000090: 5738 303d 222e 523d a7be 753d 5252 ffbd
000000a0: 7741 b7bc 0864 51bd 7fdf 00be 24e0 99bd
000000b0: 6678 55bd 5bb2 d0bd 012e 40bd 7bf7 563c
000000c0: d3c8 04bd 483a ecbc b551 fb3c 6465 8ebd
000000d0: 6b46 afbd 802c 05bd 7435 30bd 71fe ec3d
000000e0: f5a1 5f3d b4a2 e0bc 3a04 933b 78d0 893d
000000f0: fcd6 c8bc cc8b d6bc 9f56 b43d a204 0e3e
00000100: 2e0c 8d3d ac86 5f3c adad 1fbd c20c 0b3d
00000110: c22f e93c abdb 5fbd 2e80 4ebd e23d bbbc
00000120: aa02 1b3b 7b41 dfbd fd73 b7bd 64d7 30bc
00000130: 53ec 07be ea9f e5bd 6715 fabd 74fb b3bd
00000140: 0603 c8bd e791 11be a3a6 82bc 03d9 a73d
00000150: e14c 1ebe 25ed 5cbe 2bee d3bc 209b bebd
00000160: 68c9 3bbe 102c 31be 9e3d 4dbc 603a 79bd
00000170: ed1b c1bd 394e 60bd 3909 8fbc 0874 093c
00000180: 9c98 90bd e20c 62bd 00c3 25be 47b3 b83d
00000190: 6e86 22bc 1fdc 50bd 57e2 cf3d d452 1abd
000001a0: dee7 493c 2366 703d 0a87 473c 219f 5abc
000001b0: d04a 153d 84ef aabd b546 c6bd bc81 0d3d
000001c0: a8e1 17bc d8da 813d 2057 c6bc adc2 03bc
000001d0: 5242 0f3e 0d5c a9bd 807f e23c 6ccf bcbc
000001e0: 0499 a6bd 8e29 05be 4823 a7bd 7597 ebbd
000001f0: c930 2fbe c8e1 19be 4d8d 353d fa7b 2bbe
00000200: 0f30 92bd 43de c03d 88b0 bcbd 2d6f 10be
00000210: 88eb c53c ecc4 8fbd 6db8 c1bd b3f1 7cbd
00000220: c063 803d 98d4 993d 9866 30bd 108d 66bc
00000230: 6b60 0f3e e372 42bc 310f f13d 4ef6 8d3d
00000240: 6aff b93d 9564 b43c 5cca f13c 8153 04bd
00000250: 9a8e 7e3d d80b db3b a28f 453d cdb5 2dbd
00000260: 072f d93c b611 82be a6e7 283e 8db8 873d
00000270: 3521 58be 607d 503d cf49 a53b d336 11be
00000280: cc2d e4bd ce5e c1bc 4d8f 563d 7f1d 763d
00000290: 8db0 bcbc ef09 0ebd b0ed 693d 2242 f4bc
000002a0: ff9d 86bd a2d9 b33c a999 93bd e108 8dbd
000002b0: 92b2 fcbd ef76 09bd 4ed9 8cbd 0575 063d
000002c0: ebe3 013d abaa 44bd 19c9 7bbc 2800 9fbd
000002d0: 9045 83bd 9502 8bbd e464 19bd 7ae5 cabd
000002e0: b9ef f3bd 1fe1 a43c a847 04bc 199c 8fbd
000002f0: 20c0 03bc 1aa7 04be dd14 a1bd d0de 0ebe
00000300: e261 7bbc 2024 023d ca15 133e 6380 3c3c
00000310: 2cd1 7a3d e713 803d 0593 05be 0d2f 92be
00000320: 53e4 e93d de18 bfbd 4f50 bdbe 207e e6bd
00000330: 2c95 4fbb da37 87bd 021a c23d 12bb 0d3e
00000340: 8800 5fbd bd50 d0bc 30e2 a4bc 34c4 9abd
00000350: 692c ebbd 1adb 133d 8288 39bb 5add 363c
00000360: d29b eebd 9974 03be 61cd bbbd c187 28bd
00000370: f36a e7bd 9ced bebd f778 e7bd f59f 7fbd
00000380: bf10 b4bc 58f4 753b 8e92 34bd 26e4 f1bc
00000390: 9f60 f9bc eb4f 6fbd 62ae 5cbc 3447 edbd
000003a0: d4a4 01be 8c27 293b 99b0 8f3c 1cf8 47bd
000003b0: 6dfb 1abd 1fd2 49bd 409d 093c 9abd 07be
000003c0: d9ef e2bd 8880 c8bc 85ab aebd 35ca a63e
000003d0: 7d04 213e b137 c83d c17b de3d b51e e03d
000003e0: bef5 303d 3bb0 813e d7af 4b3e a900 503e
000003f0: ddea cc3b 837a d6bd 30b7 41bd d6e7 ce3c
-0.01867649 -0.047282994 -0.006802828 -0.005716549 -0.010738032 -0.040402148 -0.033219725 -0.021019066
-0.027099796 0.058999 0.04432379 0.14480257 0.10068028 0.025725797 0.072321996 0.04681661
0.12286257 0.09204518 -0.012916577 -0.15033962 -0.08624933 -0.1267889 -0.12101872 -0.043682963
-0.020959292 -0.16691245 -0.018939959 0.018181475 -0.05247703 -0.017683262 -0.094095476 -0.03546366
-0.033558246 0.101002276 0.13105659 0.020117661 0.04302248 0.051313527 0.059996273 -0.12466873
-0.022370083 -0.051120788 -0.12585257 -0.075134546 -0.052116774 -0.101902686 -0.046918873 0.013120527
-0.032418083 -0.028836384 0.03067861 -0.069529325 -0.08558353 -0.03251314 -0.043019727 0.11571968
0.054597814 -0.027421333 0.004486588 0.067292154 -0.024516575 -0.026189707 0.08805584 0.13868955
0.06887089 0.013642948 -0.03898399 0.033947714 0.028465156 -0.05465285 -0.05041521 -0.022856656
0.002365271 -0.10901161 -0.0895767 -0.010793541 -0.13273744 -0.11212142 -0.122111134 -0.08788195
-0.09766202 -0.14215814 -0.0159486 0.081956886 -0.15459014 -0.21574838 -0.025870403 -0.093069315
-0.18338549 -0.17301965 -0.012526898 -0.060846686 -0.094291545 -0.0547621 -0.017460452 0.00838948
-0.07060358 -0.055188067 -0.16187668 0.090185694 -0.009919746 -0.050991174 0.10150593 -0.037676647
0.012323348 0.058691155 0.012178192 -0.013343603 0.0364483 -0.08346465 -0.09681455 0.034547552
-0.009270109 0.06340569 -0.024211466 -0.00804202 0.13990143 -0.082695104 0.027648687 -0.023048125
-0.08134654 -0.13004133 -0.08161026 -0.115034975 -0.17108454 -0.15027535 0.044324208 -0.16746512
-0.07138073 0.09417393 -0.09213358 -0.1410491 0.024160162 -0.07019982 -0.094590046 -0.06175394
0.06269026 0.07511252 -0.04306659 -0.014071718 0.14001624 -0.011868211 0.11770476 0.069317445
0.090819195 0.022020617 0.029515438 -0.032306198 0.062147714 0.0066847615 0.048232682 -0.042409707
0.026511682 -0.25404137 0.16494617 0.06626997 -0.21106417 0.050900817 0.005044199 -0.1418107
-0.111415476 -0.023604777 0.052382756 0.060086723 -0.023033405 -0.034677442 0.057111442 -0.02981669
-0.06573104 0.021954361 -0.07207043 -0.06886459 -0.12338747 -0.03356069 -0.06877385 0.032826442
0.0317115 -0.048014324 -0.01536777 -0.07763702 -0.06409752 -0.06787602 -0.037449732 -0.099070504
-0.11910958 0.020126877 -0.008073725 -0.07012195 -0.008041412 -0.12954369 -0.078653075 -0.13952184
-0.015343161 0.031772733 0.1436378 0.011505219 0.061234638 0.06253796 -0.13044365 -0.28551522
0.114205025 -0.09330915 -0.36975333 -0.11254525 -0.0031674607 -0.0660245 0.09477617 0.13840893
-0.054443866 -0.025429124 -0.020127386 -0.07556954 -0.1148308 0.036097623 -0.0028310125 0.011161173
-0.11650814 -0.12837447 -0.09170032 -0.04114509 -0.11299696 -0.09322664 -0.11302369 -0.062408406
-0.021980641 0.0037529673 -0.044085078 -0.029527735 -0.03044158 -0.058425825 -0.0134693105 -0.115858465
-0.12660533 0.0025810925 0.017540263 -0.0488206 -0.037837435 -0.049272653 0.008399308 -0.13255921
-0.110809036 -0.024475351 -0.085288085 0.32576147 0.15724368 0.09776247 0.10863448 0.10943357
0.043203108 0.25329766 0.19891296 0.20312752 0.006253584 -0.10472586 -0.04729384 0.025257032

bias f4 [16]
00000000: 1dbf 5c3e a8c6 39be f8d8 483e 956b 7f3e
00000010: 4de6 87bd 95d1 d9bd cfc1 a93c 67fe cb3d
00000020: af98 febd 4246 943d b190 d9bd fcb4 093e
00000030: 6029 7e3d e0b2 d03d ff9c bdbd 962c 7f3d
0.21557279 -0.18142188 0.19614017 0.24943383 -0.06635723 -0.10635678 0.020722298 0.09960633
-0.12431466 0.07239963 -0.10623301 0.13447946 0.062051177 0.10190368 -0.0925846 0.06229838

weight f4 [16, 1, 3, 3]
00000000: 01c3 a1be c32f 84be de5b 10be b3af e63d
00000010: b198 463e 9283 a6be 1f58 77be 27ee 8dbe
00000020: 28e1 c13d 03b1 343e bd55 aa3d c0d2 e3bd
00000030: d93e 833e 14e3 63be d473 b43e c09d 2f3e
00000040: 9b39 7f3e 2a2f 313e 6bdb 0f3e f587 ff3d
00000050: 9ad7 b4be 7c0d 08be 1a6b d2be 1c69 85be
00000060: 3601 6cbe 3b4d cebe 62e6 5dbb 29aa 883e
00000070: 8e7a 363e 5adb 853d 8fc6 3bbe 85a1 4bbe
00000080: cef5 8b3e b5a1 ccbe e8b8 f4bd 8a1d b0be
00000090: 2bcd a4be 8195 6ebe dd5a 0ebf 6c8b 093e
000000a0: a299 8a3e c0f3 17be 46ec e13d c1e6 a63e
000000b0: 27c1 d83d 4295 2b3e f3dc a8be d5e3 89bd
000000c0: e729 3d3d 107a 353d 28f2 073c 7122 da3c
000000d0: 309f 40be 149b cbbe f033 fdbc 463f 2d3e
000000e0: cd37 a0be d417 413e 8cc0 aebe 9c4a 56bd
000000f0: 0276 9e3e 6b73 483e f4ee e8bd add0 08be
00000100: 941e 77be dbae 123e c4c8 c03d bc17 97be
00000110: 1e01 7bbe 0f98 d7bd 2897 913e 03fc 9e3e
00000120: b50a 8ebe 54d9 303c 0b9c 10be 7164 87bd
00000130: 3d8d 8cbd f05e bebd 4618 2a3e 48ed b13e
00000140: 03ef a53d 8e25 4a3c 1306 babe 6114 7ebc
00000150: a6a4 513e 2f33 a6be 58b5 96be 25b0 253e
00000160: 2c87 cebd 95d0 cebe 10f6 8d3e 78ee 463e
00000170: 71ae 18be 144c 493e 67ee 13be 8362 7f3e
00000180: 3b1e 4abe 55ac b8be cd3b 133e 21ab 5bbe
00000190: d3cc b5bb 9e28 1e3e b73f c4be 04b6 053d
000001a0: ff6e 833e b8e3 27be 7a49 9f3d e059 39be
000001b0: 6db7 8d3e 04b5 ee3e aa82 aabe 1c7e c0bd
000001c0: e455 eabb 45ff 82be 7d6b 983a ae2b 01be
000001d0: d6df 053e cf43 27be 5243 2abe cd5d 7cbd
000001e0: 790a afbe 5842 acbe e846 9fbe 77bc 673d
000001f0: a5aa 4abe 6f29 9c3d 8620 7abf 4515 293e
00000200: bf16 cc3d a780 3f3e d51a 97bd df05 403e
00000210: e232 543e 331e dcbd adfc 9b3e 0175 ca3c
00000220: 8816 ad3b da5e d2bb 0c05 f03c cd2d 753e
00000230: 4320 9cbe 081f 463e a2b6 cbbd 17a2 83be
-0.3159409 -0.2581769 -0.14097545 0.11263981 0.19394185 -0.32522255 -0.2415471 -0.27720758
0.09466773 0.1764565 0.083171345 -0.11124182 0.25633886 -0.22254592 0.3524462 0.1715002
0.24924318 0.17303148 0.14048545 0.124771036 -0.3532074 -0.13286394 -0.41097337 -0.26056755
-0.23047337 -0.40293297 -0.0033859243 0.26692322 0.17820188 0.065359786 -0.18337463 -0.19885834
0.27335972 -0.39967123 -0.119493306 -0.34397537 -0.3218778 -0.23299219 -0.55607396 0.13432091
0.27070338 -0.14839077 0.11031394 0.32597926 0.10583716 0.16756156 -0.3298107 -0.06732909
0.04618254 0.04430586 0.008297481 0.026627751 -0.18810725 -0.39766753 -0.030908555 0.16918668
-0.31292573 0.18856746 -0.34131277 -0.052317247 0.30949408 0.19575278 -0.11373702 -0.13360853
-0.24132758 0.14324515 0.09413293 -0.29510295 -0.24512145 -0.1052705 0.28435636 0.31051645
-0.27742544 0.010794003 -0.14122026 -0.066109546 -0.068628766 -0.09295452 0.16610822 0.34751344
0.081022285 0.012338055 -0.3633276 -0.015507788 0.20472965 -0.32460925 -0.2943523 0.16180475
-0.10084376 -0.4039351 0.27726793 0.19426906 -0.14910294 0.19657928 -0.14446412 0.24939923
-0.19738095 -0.3606898 0.14378281 -0.21451999 -0.0055480986 0.15445182 -0.3832986 0.032644287
0.2567062 -0.16395462 0.077776864 -0.18100691 0.27679005 0.4662248 -0.33302814 -0.093990535
-0.0071513522 -0.2558538 0.0011628714 -0.12614319 0.13073668 -0.1633446 -0.16627243 -0.061612893
-0.34187678 -0.33644366 -0.31108785 0.05657622 -0.19791658 0.0762509 -0.97705877 0.1651202
0.09965276 0.1870142 -0.07378165 0.1875224 0.20722535 -0.107479475 0.30466214 0.024713995
0.005282227 -0.0064199986 0.029299282 0.23943253 -0.30493364 0.19347775 -0.09946944 -0.25709602
